models/leastereolite_best.pth (torch, 625349 bytes, 36 tensors)

feature.0.weight f4 [24, 3, 3, 3]
000000 f7 0a 95 bd 85 ac da bc 36 47 0d be 50 2d b5 3a
       -0.07277482 -0.026693592 -0.13796696 0.0013822708
000010 70 ed a1 bc 68 b5 04 3d 16 29 eb bd 84 e2 48 3d
       -0.01976654 0.032399565 -0.11482446 0.049044147
000020 d6 ab be bd 25 97 19 3e 04 8a 7b bd 12 ff ae 3d
       -0.09310119 0.14999063 -0.06141092 0.085447446
000030 4f db 97 3c 76 2a 2e be 81 e9 21 3e 66 f5 33 3e
       0.018537192 -0.17008385 0.15811731 0.17574081
000040 9f 5b f8 3d cc c9 0c 3e d3 7f 3c bc 89 d6 79 bd
       0.1212685 0.13748854 -0.011505085 -0.060995612
000050 81 33 e2 3c a3 1f 35 bd c6 00 38 bd 00 ea 86 3d
       0.02761245 -0.044219624 -0.044922613 0.06587601
000060 0d 14 c8 3d 6f 96 ee 3c bd 70 0c 3e 45 cc 07 3e
       0.097694494 0.029124467 0.13714881 0.13261516
000070 5d d8 eb 3d e1 f8 4e 3d ff ec 53 bd 25 b2 b7 bc
       0.115158774 0.05053032 -0.05173969 -0.022423813
000080 2f c3 fb 3d 83 c5 ca 3c 04 fb 2e 3d a3 eb 22 bd
       0.12293088 0.024752384 0.042719856 -0.039775502
000090 49 65 cf 3d f0 4f 1b 3e 44 a0 00 3e 46 33 0b 3e
       0.101267405 0.15167212 0.12561136 0.13593778
0000a0 f8 09 03 3e 80 bd 08 3e 4f 0b dd bd 70 4a 89 bb
       0.12796772 0.13353539 -0.107931726 -0.004189782
0000b0 57 29 be 3b f2 17 83 bd e2 0e 59 3d 38 05 bc bb
       0.005803268 -0.064010516 0.05299271 -0.005737927
0000c0 c3 48 47 bd ab 7e 81 3d 76 64 a1 3d a7 b3 e0 bc
       -0.048653375 0.06322988 0.078804895 -0.027429415
0000d0 23 fa 33 3c 94 2e 13 3e e9 a7 21 be 44 62 9e bd
       0.01098493 0.14373237 -0.15786709 -0.077335864
0000e0 d7 4e 8a 3c af 0f 3e 3d 54 33 d3 bd e6 45 f1 bd
       0.016883297 0.046401676 -0.103125244 -0.1178091
0000f0 58 d1 57 3d 13 2b f6 bc 4e 2a d9 bd f5 6c 13 3e
       0.05268988 -0.030049836 -0.10603772 0.14397033
000100 0b 88 ff bd 73 a8 07 3e 7f d0 fe bc 89 1c 12 3d
       -0.1247712 0.13247852 -0.031105278 0.035671744
000110 72 38 66 3d e1 e7 18 3d f8 e6 49 bc 3e 8a cb bb
       0.056206174 0.037330512 -0.012323134 -0.006211548
000120 f7 0b d3 bb 45 62 7e bd 1f 9e 04 3e fb 20 31 3e
       -0.0064406353 -0.062105436 0.12950943 0.17297737
000130 c7 40 ea bd 6c 44 4a be 04 56 1c be d2 99 e6 bc
       -0.114381365 -0.19752663 -0.15267187 -0.02814952
000140 6b 5c 41 bd c3 19 37 3e d7 9e 9d 3d 33 4d 02 be
       -0.047207277 0.17880921 0.07696312 -0.12724762
000150 cb 03 92 3d 37 79 78 3c ba df 63 3d 2d b3 bd 3d
       0.0712963 0.015165619 0.055633284 0.09262691
000160 1c 30 ea bd 2e 77 cf 3d 3c e8 89 bc ba 9b ae bc
       -0.114349574 0.101301536 -0.01683437 -0.02131449
000170 9f 07 0f bd 03 fb 41 3e 4f 0b 88 3c d2 7a 0f 3e
       -0.034919377 0.1894341 0.016606955 0.14011696
000180 ad ec 59 3d e8 34 24 3d 83 65 ad bd 5a 88 e5 3d
       0.053204227 0.040089518 -0.084666274 0.112076476
000190 db 5b 2f be 46 7e d2 3d a4 70 af 3d 67 e0 1a be
       -0.17124884 0.10277991 0.08566406 -0.15124665
0001a0 ed cc d0 3d b8 d5 a6 3d 13 04 84 3d 4d a1 1c 3e
       0.101953365 0.08146232 0.064460896 0.15295906
0001b0 c3 92 e6 3c e4 31 80 3c b5 29 87 3d 1d 0e 15 be
       0.028146153 0.01564879 0.06599752 -0.14556165
0001c0 12 4d f0 3c d9 a9 af 3d 7b 78 0b 3e 17 f3 e7 bb
       0.029333625 0.08577318 0.13620178 -0.007078539
0001d0 97 ac 01 3e b6 e5 16 3e 70 b8 3d 3e 29 bc b4 3c
       0.12663494 0.14736065 0.18527389 0.022062378
0001e0 70 3a 43 3e 33 b1 84 bc ba 09 34 bd 6e 3f 0f 3d
       0.19065261 -0.016197776 -0.04395459 0.0349726
0001f0 66 b5 38 be af e5 10 be 9b 78 0c be 19 c1 5a 3d
       -0.18037948 -0.14150117 -0.13717882 0.05340681
000200 a6 d2 42 be fe 80 1b be 3d d5 66 bd 45 10 b7 3d
       -0.19025669 -0.15185925 -0.056355704 0.0893865
000210 cd 5f b8 bc 2a 2f 8d 3c bc 7e b8 bd 5e 28 f4 bd
       -0.022506619 0.017234404 -0.09008548 -0.11921762
000220 01 41 b7 bc bc b0 c8 3d f2 b9 20 3d bd c6 ee 3d
       -0.022369863 0.097993344 0.03923983 0.11659
000230 46 b5 29 3e b4 ae f3 bb 40 fc 25 3e 76 0d 46 bd
       0.16573057 -0.0074365977 0.16209507 -0.04835268
000240 23 39 3d 3e 37 61 15 3e 7e b8 30 be 0d 61 06 be
       0.18478827 0.14587866 -0.17257878 -0.1312296
000250 e5 0b 9b bd 4e 2c fa bd c5 28 59 bb c5 eb 32 3e
       -0.07570628 -0.12215482 -0.0033135873 0.17472751
000260 90 c1 e6 3b 7a d4 2a be fa ee 3b 3c c6 fb 0b bd
       0.0070421174 -0.16682616 0.011470551 -0.034175657
000270 40 14 2a be e9 3b aa 3d 3e 0f d7 bd c0 62 0b 3e
       -0.16609287 0.08312208 -0.10500954 0.13611889
000280 22 4c 8b bd 5b 64 7c bd c2 46 26 3d 71 02 ca 3d
       -0.068016306 -0.061619144 0.040594824 0.09863747
000290 23 39 c7 3d e3 25 06 be c5 5f 16 3e f1 3c 2b 3e
       0.09727695 -0.1310039 0.1468497 0.16722466
0002a0 25 88 76 bd 37 d0 13 be cb 96 da bd 92 a3 95 bd
       -0.06018843 -0.14434896 -0.10673293 -0.07306589
0002b0 3c a2 d4 ba cf f3 8d 3d 5f 9b 11 be 72 0a 17 3d
       -0.0016222666 0.069312684 -0.14219426 0.036875196
0002c0 04 0f 1b bd 64 3c 78 3d 51 0b 1d be 19 54 c1 3c
       -0.037856117 0.060604468 -0.15336348 0.023599671
0002d0 4d 64 9a 3c ab da 42 be 1f cb 15 bd 9f b0 ca bd
       0.018846655 -0.19028728 -0.036570664 -0.09896969
0002e0 30 e5 2d 3e e9 39 4b 3d a5 d0 be 3d c9 7c 1e be
       0.1698196 0.049615774 0.093171395 -0.1547729
0002f0 3c d5 1f be 8a dd 46 3e a0 8f 12 be 33 39 36 3e
       -0.15608686 0.19420448 -0.14312601 0.17795257
000300 1c 6d 9e bd 75 2a 58 bc 6c 2c c4 3c 21 9e c5 bd
       -0.07735655 -0.013193716 0.023946963 -0.09649301
000310 b5 6b 37 3e f4 6d 34 3e a1 d0 98 bd f2 6e 5f 3d
       0.1791218 0.17620069 -0.07461668 0.054549165
000320 e5 4a 45 3d eb 4b a2 bd 63 cc 44 bd 1f d0 fb 3d
       0.048167128 -0.079246365 -0.04804648 0.12295555
000330 30 d9 3a be ed 9f 8d 3c 94 b5 5e bd 21 0e 43 3e
       -0.18246913 0.017288173 -0.054372385 0.19048359
000340 a4 c7 4f 3d 90 ea 3f 3d 3a da 1e 3e f3 79 ed bd
       0.0507275 0.046854556 0.15512934 -0.115955256
000350 bc 63 4d 3e 0b 55 c8 3a 64 ef 3b bd 85 6c 0c be
       0.20057577 0.0015284134 -0.045882598 -0.13713272
000360 57 d5 19 3e 2b 99 9a bc f9 8d 0d be 9e 33 3b be
       0.15022789 -0.018871864 -0.1382369 -0.18281409
000370 c3 5e 1f 3e 3d a3 85 3d 9a 6c fb bd 98 16 22 3e
       0.15563492 0.06525276 -0.122765735 0.15828931
000380 d1 41 c3 bd 3d 94 01 be 6c ff c5 3d d4 fb 15 3e
       -0.09534038 -0.12654205 0.096678585 0.14646846
000390 70 d5 29 bd d9 ba 54 3d dc 1f 1b be af 10 ec bc
       -0.041463315 0.051936004 -0.15148872 -0.02881655
0003a0 4a e1 1f bd 1d 24 c2 3d d9 ac ce bd 3a a4 07 bd
       -0.03903321 0.09479544 -0.10091562 -0.033115603
0003b0 2a 83 00 bd 9f bf 9b 3d 97 d2 e9 3d be 41 14 bd
       -0.031375088 0.07604908 0.1141712 -0.03619551
0003c0 cc 3e 3d 3d 13 a4 02 bd 7f f8 8d 3d dd b4 8a 3d
       0.046202466 -0.031894755 0.069321625 0.06772778
0003d0 03 35 ee bd ca b2 c7 3d 31 58 9e 37 0e 33 35 be
       -0.11631205 0.09750898 1.8876135e-05 -0.17695257
0003e0 fc c5 d3 bd 04 5c 7b bd 04 56 23 3e 93 e8 18 3e
       -0.10340497 -0.06136705 0.15950781 0.1493247
0003f0 19 da 54 bc 8d c5 ba bb e6 57 9c 3d f3 73 37 3e
       -0.012991452 -0.0056998194 0.07633953 0.17915325

feature.1.weight f4 [24]
000000 fd bd 7f 3f db 7f 7f 3f 36 c8 7f 3f 59 b7 7e 3f
       0.99899274 0.99804467 0.9991487 0.99498516
000010 c4 68 7f 3f 20 a3 80 3f f1 66 81 3f 26 16 7f 3f
       0.99769235 1.0049782 1.010954 0.9964317
000020 6f 70 7f 3f f0 e5 7e 3f 49 36 80 3f 05 88 7f 3f
       0.99780935 0.99569607 1.0016567 0.99816924
000030 c2 3f 80 3f 2d 88 80 3f 27 ee 7e 3f c0 80 80 3f
       1.0019457 1.0041558 0.9958214 1.0039291
000040 e8 18 7f 3f 6f d0 7e 3f 05 af 7f 3f c8 7f 80 3f
       0.9964738 0.99536794 0.99876434 1.0038996
000050 0f aa 80 3f 90 2c 80 3f 3a 63 7e 3f ac 79 81 3f
       1.0051898 1.0013599 0.9937016 1.0115256

feature.1.bias f4 [24]
000000 ec 80 a6 3b c6 3f 41 ba cf 89 ea bb 80 99 aa ba
       0.0050812867 -0.00073718687 -0.0071575413 -0.0013015717
000010 12 b9 03 bb 82 b3 1a bb a0 aa 40 3c 0d e4 95 3a
       -0.0020099324 -0.002360553 0.01175943 0.0011435762
000020 3d 37 1c bc 54 08 18 ba ec d6 88 3b c0 f0 87 3b
       -0.009534654 -0.0005799581 0.0041760113 0.0041485727
000030 3e d8 15 3c 7a f9 b1 3b c9 30 68 bb ef 51 63 3b
       0.009145794 0.0054313513 -0.003542947 0.0034686287
000040 28 96 33 bb e4 12 86 bb 5e 2f 16 bc 25 0a 6f 3b
       -0.0027402733 -0.0040916074 -0.009166567 0.0036474552
000050 81 33 74 3b 7b cd b4 bb b6 57 fc b7 32 c9 11 3c
       0.0037262144 -0.0055176592 -3.0081585e-05 0.008898066

feature.1.running_mean f4 [24]
000000 ff 98 51 42 fc c7 0c 43 5f 15 71 c2 ae f5 e3 42
       52.39941 140.78119 -60.27087 113.97984
000010 3c b4 b5 3f 48 70 c1 bf 73 d9 43 c2 4f 69 7c 42
       1.4195628 -1.511239 -48.962353 63.10284
000020 a3 13 b9 40 c4 7d 07 42 4a 10 cf c1 39 79 97 c2
       5.783647 33.872818 -25.882954 -75.73676
000030 5d bd fa c2 3c 4b de 42 36 5e 0a c3 7c 1b 86 c2
       -125.36985 111.14694 -138.36801 -67.05368
000040 4f 70 8f 42 37 c9 23 42 d1 86 f2 c2 26 2f 53 c2
       71.71935 40.9465 -121.26331 -52.796043
000050 f8 d5 a1 42 f4 57 43 42 a7 4a de 42 74 18 67 c2
       80.91791 48.83589 111.145805 -57.77388

feature.1.running_var f4 [24]
000000 84 e4 13 44 ed 14 53 45 24 f4 1e 44 d6 e6 08 45
       591.57056 3377.3079 635.8147 2190.4272
000010 21 81 25 43 3f fe 14 43 71 e9 f0 43 21 39 36 44
       165.50441 148.99315 481.82376 728.89264
000020 b8 a2 8d 41 8a 1c 57 43 28 c1 1e 43 ad e1 7f 44
       17.704453 215.11148 158.75452 1023.5262
000030 6a 20 24 45 bf 52 02 45 c2 89 4a 45 7c 36 46 44
       2626.026 2085.1716 3240.6099 792.8513
000040 ab 2f 71 44 9e 27 ec 43 3a f4 1d 45 a4 88 10 44
       964.7448 472.3095 2527.2642 578.135
000050 f9 ad 97 44 22 eb 14 44 3d d6 06 45 6b fc 12 44
       1213.4366 595.67395 2157.39 587.94403

feature.3.weight f4 [24, 24, 3, 3]
000000 d5 9f 80 3d ad df e7 ba e6 6f 00 bd 04 56 b0 3c
       0.062804855 -0.0017690562 -0.031356715 0.02152539
000010 27 4c 02 3c f4 0a 5c bd 62 b4 07 bd df dc bd bc
       0.007952726 -0.053721383 -0.03313101 -0.023176609
000020 79 48 9e bc a4 53 58 bc ba da 1d bd 58 3e 5d bd
       -0.019321667 -0.013203535 -0.038538672 -0.054014534
000030 37 ce b8 bc 32 49 90 3c b2 3f 21 3d e1 1c f7 3c
       -0.022559268 0.017613027 0.039367385 0.030165138
000040 db b6 37 3d 14 7f 93 bb 24 16 c5 3c 09 4d 32 3d
       0.04485212 -0.004501233 0.024058409 0.043530498
000050 b2 75 69 3d 5c 27 15 bd e9 6d 34 3d 4c 38 87 3d
       0.05699701 -0.03641449 0.04405013 0.06602535
000060 80 08 c7 ba a8 d2 72 bd 57 99 49 bb 00 ef d4 3c
       -0.0015185028 -0.05928293 -0.0030761564 0.02599287
000070 a3 48 80 3d 8e d1 13 3d 2a 90 ca 3b c7 54 3e bd
       0.06263854 0.03608852 0.0061817365 -0.04646757
000080 1b 49 c7 3c 1b a0 5b 3d 77 de c8 bb 0a c5 00 bd
       0.024326852 0.053619485 -0.0061300355 -0.03143791
000090 ad db 89 3b 5b c3 6f 3d 44 f6 fa bc 80 e6 15 bd
       0.0042070956 0.058535915 -0.030635007 -0.036596775
0000a0 6d 26 6b bd d3 68 bf 3c 0a 73 18 3d f5 6d c6 bc
       -0.057409693 0.023365414 0.037219085 -0.024222353
0000b0 37 39 13 bc 0c 45 4b 3d ae 57 14 ba ea f3 8c bc
       -0.008985809 0.049626395 -0.0005658817 -0.017206151
0000c0 42 be 84 3d 7d d1 2e 3d e3 d8 6c bd 4a f0 31 3d
       0.06481601 0.042680252 -0.057824027 0.043442048
0000d0 ea 0c e9 3c aa de c0 bb 13 bb ce bc 20 63 32 bd
       0.02844854 -0.0058859186 -0.025235688 -0.043551564
0000e0 55 de 61 3d 7c 4c 32 3d 92 db be 3b 7d a7 1f 3d
       0.055143673 0.043529972 0.0058245147 0.03897809
0000f0 25 a8 15 bd ce d5 74 bd 16 b6 56 3d af ad 60 bd
       -0.03653731 -0.059774213 0.052419744 -0.054853138
000100 d9 17 8a bd 77 03 62 3c a0 97 4e bd 31 05 10 bd
       -0.0674283 0.013794771 -0.05043757 -0.0351612
000110 76 c8 84 3d 8e d2 05 bc 06 8e 62 3d dc 81 d0 bb
       0.064835474 -0.008167876 0.055311225 -0.0063631367
000120 df 0d 77 3d dd 8c 37 bd de 79 3c bc 7b 71 74 3d
       0.060315963 -0.044812072 -0.011503665 0.059678536
000130 58 f8 20 3d 8b 0d 20 3c f8 92 4f 3d ec 5f 3e bd
       0.03929934 0.009768854 0.05067727 -0.046478197
000140 59 87 32 bd ac 5f 50 3c 52 a3 f5 bc 9f 5f 51 bc
       -0.04358611 0.012718122 -0.029985104 -0.0127791455
000150 75 a0 45 3d 2a ff 08 bc d5 02 ca 3c a9 76 3d bc
       0.048248727 -0.008361617 0.024659554 -0.011563935
000160 67 7e 07 3d 08 e9 26 3d 6a a8 33 bd 39 03 f5 bb
       0.03307953 0.04074958 -0.043861784 -0.007477191
000170 bb 7b 8e bd 9f ea 78 3d 30 9f 8e 3d 81 bd 89 3d
       -0.069571935 0.060770627 0.06963956 0.06725598
000180 98 37 81 bd 75 ea 83 3b 84 a2 f2 3c 42 89 80 3d
       -0.06309432 0.004025752 0.02961851 0.0627618
000190 78 b4 0b 3d 85 a1 e7 3c 54 d7 2d 3d 63 1c 88 3c
       0.034107655 0.02827526 0.04244168 0.016615098
0001a0 3e ff 81 3d 44 ad f9 3c 0e f6 7d 3d 33 61 35 3d
       0.06347512 0.030478127 0.062002234 0.04428215
0001b0 27 6f 68 bd e1 53 5f 3d 16 e0 20 bd 1e b6 2e 3b
       -0.056746628 0.054523353 -0.039276205 0.0026658843
0001c0 b2 4b 2b bd 85 ea 3e 3c c8 91 14 bd a9 ab 23 3d
       -0.041820236 0.0116525935 -0.03627184 0.03995863
0001d0 99 30 8f bc 0d 1a 2a 3d cc 87 a9 3c 5b fc 80 3d
       -0.017479228 0.04152875 0.020694636 0.06298133
0001e0 14 98 08 3d a9 73 71 bd a5 97 8c bd 9a 8b 3b bd
       0.033348158 -0.058948193 -0.068648614 -0.04578743
0001f0 ce 7f 45 3d 13 74 7b bd 29 ca 62 3d a4 9a 6b 3c
       0.048217587 -0.061389994 0.055368576 0.014380131
000200 1f 4a 53 bd a5 14 b6 bc 00 a7 79 bd 80 6d cc bb
       -0.05158436 -0.022226641 -0.06095028 -0.0062386394
000210 bf fd 7b bc 03 7a 43 bd 54 1d 11 bd 50 eb 6f bd
       -0.015380322 -0.04772378 -0.03542836 -0.05857402
000220 a4 a6 89 ba ad 22 82 3d 1e 37 50 3d 2b 86 3e 3d
       -0.0010501933 0.0635427 0.050833814 0.04651467
000230 00 82 d0 bc 16 a2 1b 3d a7 42 01 3d d5 5e 40 3c
       -0.025452614 0.037996374 0.031557705 0.01174136
000240 12 4c 6d 3d 3a 8a 33 bd 02 7c 6f 3d 5a ba 5f bd
       0.057933874 -0.043832995 0.058467872 -0.054621078
000250 93 ea a2 bb 56 6d 70 bc 49 32 67 bd 9a a4 2e 3c
       -0.004971811 -0.014674505 -0.05644444 0.010659361
000260 c2 60 19 bc e9 1d 51 bb 39 8e 70 bc 29 5c 4f bd
       -0.009361448 -0.0031908697 -0.014682346 -0.050625
000270 a1 29 6b bd 09 84 7d ba 6d fb 6e 3c 06 e2 08 3d
       -0.057412747 -0.0009670859 0.014586312 0.033418678
000280 ce 6e 45 3d 0c 4c 16 bd ba 23 51 3d 94 24 62 3d
       0.048201375 -0.036693618 0.051059462 0.055210665
000290 9c 78 31 3d ec be 7b bd ab b9 0e bd 67 7e 7c bc
       0.043327913 -0.061461374 -0.034845036 -0.015410996
0002a0 fd 25 f0 bc c6 d0 07 3d 0e ce 0b 3d 73 34 d3 3c
       -0.02931499 0.033158086 0.034132056 0.025781846
0002b0 2a 6c 6d bd 8e aa 8b bc e5 96 28 bc 81 83 17 bd
       -0.05796448 -0.0170491 -0.010289882 -0.036990646
0002c0 8d 3f 2a bd db 4c 49 3d 2c bd db 3b 13 c7 c0 bb
       -0.041564513 0.04914556 0.0067059007 -0.0058831065
0002d0 99 ab 65 bd 89 ad 21 3d da 94 5a 3b e6 4a 3c 3d
       -0.05607185 0.039472137 0.0033352883 0.045969866
0002e0 50 ae cc bb 38 0e ae bb dd de 1f bd 00 63 65 bd
       -0.0062463656 -0.0053117536 -0.0390309 -0.056002617
0002f0 02 8c df bc b3 6b b5 3c 6d 80 ba 3b e4 0c 1f bd
       -0.02728844 0.022146082 0.005691579 -0.038830653
000300 24 36 53 bd ae 50 24 bd 36 90 0a bd 2e 42 eb 3c
       -0.051565304 -0.040116005 -0.033828937 0.02871808
000310 0d 5e dd bc d3 b3 b4 3c bc e2 bc 3c 64 aa 63 3d
       -0.027022386 0.022058403 0.023057334 0.05558242
000320 69 57 79 bc 1a 66 3a 3d 87 89 5c 3d 49 73 50 3d
       -0.015218594 0.045507528 0.053842094 0.050891194
000330 5c 88 0e bc ee c8 3e bd 58 c1 82 bd 9b bc d0 bc
       -0.008699503 -0.04657834 -0.06384534 -0.02548056
000340 b8 a8 38 3d 39 6a a3 bc b1 9c 52 3d 37 99 50 3d
       0.045082778 -0.019948112 0.051418964 0.050927367
000350 8e 00 60 bd 3c b6 1d bd 48 47 63 bd 41 62 21 3d
       -0.05468803 -0.03850387 -0.0554879 0.039400343
000360 16 ba 1c 3d fe 23 56 bb 2d ce 2b bd f1 ca 76 3d
       0.038263403 -0.0032675262 -0.04194467 0.060252134
000370 42 52 8d 3a da 7b 48 bc b2 e1 2e 3d fc 55 1c bc
       0.0010781961 -0.01223656 0.04269571 -0.009541985
000380 05 11 5a 3d 7a 67 24 3d 62 f5 5f bd 3b 51 95 bc
       0.053238887 0.040137745 -0.054677375 -0.01822721
000390 32 32 59 bd 38 2f 94 3c 06 a6 09 bc 0f ab 9f 3c
       -0.053026386 0.018088922 -0.0084013995 0.019490747
0003a0 76 64 8a 3d 69 ff 94 bc e3 3a 9f 3c 47 e5 06 3d
       0.06757443 -0.018188195 0.019437259 0.0329335
0003b0 6a 85 36 bd 03 60 97 3c 26 2a 9b 3c c3 95 7b bc
       -0.044560827 0.0184784 0.018940996 -0.01535553
0003c0 a9 06 fd bc 7a 49 58 3d 24 96 7c 3c c2 16 40 3d
       -0.030886965 0.052804448 0.015416656 0.046896704
0003d0 fd c8 80 bd 07 7e 5f 3d d9 00 2c 3c 70 c1 09 bd
       -0.062883355 0.05456355 0.010498249 -0.033631742
0003e0 4e df dc bc f9 6f 34 3c 3a 10 8d 3c 54 41 f7 bb
       -0.026961949 0.0110130245 0.017219651 -0.0075456295
0003f0 22 58 83 3a 40 01 6e bd a7 66 57 bd 55 65 e5 bc
       0.0010020772 -0.05810666 -0.05258813 -0.02800242

feature.4.weight f4 [24]
000000 1c c2 80 3f 20 7b 7e 3f 27 25 80 3f c4 31 80 3f
       1.0059237 0.99406624 1.0011338 1.0015187
000010 7a 93 7f 3f 2d 2a 7f 3f 01 94 7f 3f a5 51 7e 3f
       0.99834406 0.9967373 0.9983521 0.9934333
000020 49 52 80 3f 51 01 81 3f a5 2c 81 3f ae 1f 80 3f
       1.0025111 1.0078527 1.009175 1.0009668
000030 26 59 7f 3f 6f 62 7f 3f aa 0d 7f 3f e1 46 80 3f
       0.99745405 0.9975957 0.99630225 1.002163
000040 eb 3b 81 3f 70 77 7f 3f 1b 6d 7f 3f a6 76 7e 3f
       1.009641 0.9979162 0.99775857 0.99399793
000050 40 83 80 3f ad 67 7f 3f dc 62 81 3f d6 df 7e 3f
       1.0040054 0.9976757 1.0108294 0.99560297

feature.4.bias f4 [24]
000000 16 4b 2a 3c 9b 9d 03 ba db 2a 88 ba 57 de 05 3c
       0.010393878 -0.00050207385 -0.0010388748 0.008170686
000010 b3 fb 38 3c 45 0b 6e ba 27 e1 e2 3b e8 89 d8 ba
       0.0112904785 -0.0009080659 0.006923813 -0.0016520591
000020 45 28 29 3c 94 37 3e 3c 63 e4 03 3c 2e e5 84 3b
       0.010324542 0.011609931 0.008050057 0.0040556407
000030 76 f6 83 3b 2b ce 23 3c 1e 73 9a bb 90 77 ee 3b
       0.004027183 0.009997885 -0.00471343 0.0072774366
000040 fc 08 4d 3c d4 65 88 3b 7f ba 21 3c ab 62 99 3b
       0.012514349 0.0041625295 0.009871124 0.0046809516
000050 23 69 f4 3b 50 10 fa 3b 69 01 45 3c 4e 3f 02 3b
       0.0074588223 0.007631339 0.012024262 0.0019874158

feature.4.running_mean f4 [24]
000000 4e 40 2d 3e 32 d8 21 be 00 7b 81 3e 7a 4f fd bd
       0.16919062 -0.15805128 0.25289154 -0.123686746
000010 6d 63 42 be 8c 13 a9 be 20 4f 67 3e cc 22 a9 3e
       -0.1898324 -0.33022726 0.22588778 0.3303436
000020 53 d7 f1 bd 5d e0 ce bd 94 fa bd 3e 92 31 f1 be
       -0.11808648 -0.10101388 0.37105238 -0.47108132
000030 e9 53 54 bf a7 16 89 be 09 6f 49 bd 56 df 0b bf
       -0.82940537 -0.26775095 -0.049178157 -0.5463766
000040 a9 ef 0d bf 52 5d 0e bf 56 4e d5 be 57 d6 8d bd
       -0.5544382 -0.55611145 -0.41661328 -0.06925648
000050 b0 f6 2a bf a2 2a a8 be a0 9b 5e bd 00 4f 6f 3d
       -0.66782665 -0.32845026 -0.054347634 0.05842495

feature.4.running_var f4 [24]
000000 e4 be d3 3d d9 bd 06 3e 69 5e 3f 3e fb 54 5e 3e
       0.10339144 0.13158359 0.18688358 0.21712105
000010 9c 32 fc 3e 54 66 37 3e a7 86 c3 3e 93 f5 c5 3d
       0.49257362 0.17910129 0.3818867 0.0966598
000020 e6 cb 0e 3e df ee 74 3e 33 2d b0 3e c4 9e b1 3e
       0.13944969 0.23919247 0.34409484 0.3469144
000030 e9 9d 82 3e a2 80 c0 3e 48 ba fa 3e c9 ec a8 3e
       0.255111 0.3759814 0.48970246 0.32993153
000040 e3 e4 bc 3e 5f f8 91 3e 0a f3 ac 3e 70 d1 4f 3e
       0.36893377 0.28509805 0.33779174 0.20294738
000050 8b bc 92 3e ce f3 ae 3e cb 08 9c 3e 4a be 99 3e
       0.28659472 0.34170383 0.30475459 0.30027992

feature.6.weight f4 [48, 24, 3, 3]
000000 e0 db 8e bd 02 9b 57 bd b7 7f 67 bd df e1 48 3c
       -0.069755316 -0.05263806 -0.056518283 0.012260883
000010 dc e9 2b bd 05 aa 97 bc c3 5b f8 3c 81 92 6c bc
       -0.041971073 -0.018513689 0.030317193 -0.014439226
000020 c4 7c 66 3c f7 f1 08 bc 5a 3c 3b 3d 41 60 29 3d
       0.014067832 -0.00835847 0.045711853 0.04135156
000030 5e 99 4b 3d bc 76 71 bc c9 60 eb 3c 2a 11 8a bd
       0.04970681 -0.014737781 0.028732674 -0.06741555
000040 f3 19 86 3d a1 4a 32 3d 15 82 15 bc bd 9a 2a bd
       0.06547918 0.043528203 -0.009125252 -0.041651476
000050 3d a9 77 bc e2 07 80 bd fa c7 30 bd 18 da 32 bc
       -0.015116033 -0.062515035 -0.043159463 -0.010916255
000060 8d 47 17 3d bd 4c 66 bd 5e a6 91 bd 57 fd 10 bd
       0.03693347 -0.056225527 -0.0711181 -0.035397854
000070 d1 a2 a2 3a e7 85 83 3d 34 6f 5f bd b9 60 17 3d
       0.0012408142 0.06422024 -0.05454941 0.036957476
000080 cc 30 4e 3d f6 04 80 3d c7 33 50 3d 22 81 3d bc
       0.050339505 0.06250946 0.05083063 -0.011566432
000090 94 da d4 38 57 68 d3 3c 37 9d bb bb 4c 4a 0c bd
       0.00010149661 0.025806589 -0.0057255286 -0.034250543
0000a0 f5 e5 e5 ba b4 e8 ab 3c 65 33 1a bb 7b 0f 96 bb
       -0.0017539846 0.020984985 -0.0023529169 -0.004579482
0000b0 5f 54 51 bd 22 9b 86 3d 96 1f 08 3d ce 7c ac bc
       -0.051105853 0.06572558 0.033233248 -0.021055605
0000c0 51 9e 41 3b 05 3f 1b 3d f5 e4 09 3d 36 d4 67 bd
       0.0029543827 0.037901897 0.033665616 -0.056598864
0000d0 39 c6 59 bc 19 f8 31 3c 91 79 38 bd f0 16 1a 3b
       -0.013291889 0.010862374 -0.04503781 0.0023512207
0000e0 53 ec 4d bc ef 2d 05 3d 5c df 90 bd 86 92 e5 bc
       -0.012568551 0.03251451 -0.070738524 -0.02802397
0000f0 09 a7 54 bd 85 f1 80 bc 3a 97 68 bc df 68 00 3b
       -0.05191711 -0.015740165 -0.0141962115 0.0019593758
000100 56 79 2c 3d 8f dc 48 3c 0a cc 13 3c ef 8e cf 3b
       0.042107902 0.0122596165 0.009020815 0.0063341777
000110 b7 a8 d7 bb c8 49 94 3c 95 07 84 3a b1 ad 3e bd
       -0.0065813917 0.018101588 0.001007306 -0.046552364
000120 ee 68 9e 3b 68 18 d9 3c 88 4c 9a 3b 34 ae 25 bd
       0.004834286 0.026500896 0.0047088303 -0.040449336
000130 97 1d 0c 3d 26 d9 03 3d fa 7d 5d bc 99 7d 06 3d
       0.034207907 0.03218951 -0.013518805 0.032834623
000140 38 5d d8 bc e1 3e 50 bd 48 f0 90 bc 01 6e 9a bd
       -0.026411638 -0.050841216 -0.0176927 -0.07540513
000150 b1 16 29 3a 33 1e 6e bb 21 72 8d 3c fc 92 7d 3d
       0.00064502197 -0.0036333918 0.017266335 0.061907753
000160 ec 25 85 3d b5 97 78 3d c6 5c fd 3c 10 cc b1 bb
       0.06501374 0.060691554 0.030928027 -0.0054259375
000170 44 17 ce ba e2 df e1 bc 56 e3 a5 3a a1 29 26 bd
       -0.0015723486 -0.027572576 0.0012656252 -0.040567044
000180 71 a2 7c 3c f0 a0 0f bd ae 33 b2 3b 74 76 9b 3c
       0.015419588 -0.03506559 0.0054382896 0.018977381
000190 fe 92 77 bc 17 7a 84 3d c0 73 b9 3b a7 b2 1c bb
       -0.015110729 0.06468599 0.0056595504 -0.0023910196
0001a0 2c b7 51 bd d0 9d 88 3d 76 f4 54 3d 9f 46 24 bd
       -0.051200077 0.06670725 0.05199095 -0.040106412
0001b0 e6 9a cd bb ed 6a 95 3c 7d 67 4a ba ad 55 72 bd
       -0.006274569 0.018239463 -0.00077211094 -0.059163738
0001c0 ba e3 f4 3c 45 7d 1a bd 62 1a 3e bb 93 24 15 3c
       0.029893745 -0.037717123 -0.0029007425 0.009102958
0001d0 3c 21 b0 3c 99 c2 8a bc 53 9c 41 3d 7c d9 32 bc
       0.021500222 -0.016938495 0.047268223 -0.01091611
0001e0 15 42 a3 bc 35 30 20 bd d8 9c f8 3b 38 bb 35 3c
       -0.019928971 -0.039108474 0.0075870566 0.011092
0001f0 69 a0 9a bc d6 8d 15 3c c3 c5 33 bd fb fb 93 ba
       -0.018875318 0.009128055 -0.043889772 -0.0011290306
000200 4b 69 73 bb e7 f4 03 3d 12 ec 17 3d 3e 5f 86 bd
       -0.0037141617 0.03221598 0.03709037 -0.06561135
000210 c1 8b 82 bd b7 1d 3b 3d 0b ec 8a bd 28 08 86 3d
       -0.06374312 0.045682635 -0.06783303 0.065445244
000220 95 1f 4a 3d 18 15 49 bd 97 ab bf 3b 4f 1f af 3b
       0.049346525 -0.049092382 0.0058493125 0.0053443084
000230 a9 7e b0 bc c9 79 54 bd 24 b7 f6 bc b2 3c 6d bd
       -0.021544771 -0.051873956 -0.030116625 -0.05791921
000240 d1 ed 94 bb a1 24 7b 3b a8 dd 6b bb 49 5c 32 3d
       -0.0045449515 0.0038321393 -0.0035990272 0.04354504
000250 42 f2 8e 3c fc b1 19 bd bc 7b 8e 3d a0 10 d9 3c
       0.017449502 -0.037523255 0.06957194 0.026497185
000260 da 1b 7e 3d ed 06 51 bc e9 94 2b bd 27 7b d5 bc
       0.06203828 -0.012757999 -0.04189006 -0.0260597
000270 0f 94 8c 3d b4 9f 49 bd bd 23 81 3c 6f c7 e4 bc
       0.068641774 -0.04922457 0.015764112 -0.027927129
000280 71 21 2a bd c2 a0 92 3d 9b 94 84 3d 84 d3 02 3b
       -0.0415358 0.07159568 0.06473657 0.00199625
000290 e6 6e 97 bc 4b 60 25 bd 0e 80 94 bc 08 9c 83 3d
       -0.018485498 -0.040375035 -0.018127467 0.06426245
0002a0 bd b5 8f bd 1b bf 87 bd b4 d3 c7 bc 7b 18 f2 3c
       -0.07017086 -0.06628247 -0.02439294 0.029552689
0002b0 13 5d 77 bd a1 bc 54 bd 7a 09 3f 3d 14 38 e1 b9
       -0.060391497 -0.051937703 0.046639897 -0.00042957126
0002c0 a2 a4 b4 bc f2 7d f8 3c 49 2e 42 bd a9 9b 22 3d
       -0.02205116 0.030333493 -0.047407422 0.03969923
0002d0 6b 53 78 bd 28 6c 18 3d 1a 73 7a 3d e7 58 55 bc
       -0.06062643 0.03721252 0.061144926 -0.013021684
0002e0 0e b0 cf 3c 83 b9 81 3d d5 96 04 bd 14 0c 93 bc
       0.025352504 0.06334212 -0.032370407 -0.017950095
0002f0 a9 ed 70 3c d4 68 00 3d 67 34 3d 3d a0 ee e7 3b
       0.0147051 0.031349972 0.046192553 0.007078007
000300 4a c4 05 bd 96 a8 91 bd 33 45 80 bd 66 68 67 bd
       -0.0326579 -0.07112233 -0.06263199 -0.056496046
000310 3f 56 22 bd 4d 4d 5f 3d 7a 16 56 bd 1b ea da bb
       -0.039633032 0.05451708 -0.05226753 -0.0066807396
000320 1e db 82 bc 2c 20 53 3d c0 40 01 bd 2a 0d 42 bd
       -0.015973624 0.051544353 -0.03155589 -0.047375835
000330 b5 06 14 3d 57 72 a3 bb 11 40 59 3d e6 cf 3e 3d
       0.03613921 -0.0049879956 0.053039614 0.046584986
000340 e8 8c 9d bc 3c cc 5d bd 6d d2 49 3d 4b bc 4a 3d
       -0.019232228 -0.05414985 0.049272943 0.049495976
000350 1b d5 6e 3c 42 05 45 bd 8c 5e b1 bc d9 71 3d bd
       0.0145771755 -0.048100717 -0.021651529 -0.04625115
000360 30 9a 57 3b 87 6e 72 3d df 89 99 3b 07 9a 22 3d
       0.00328983 0.05918744 0.004685625 0.039697673
000370 53 9b 6a bd a5 36 85 bc 1f 38 41 bc 51 f5 2a 3d
       -0.057277035 -0.016261408 -0.0117931655 0.04173786
000380 28 30 f6 bc 77 2d 83 bd f0 2b a4 3c 77 0c 15 3d
       -0.03005226 -0.06405156 0.020040482 0.03638884
000390 62 72 20 3d 0e eb 50 bc fc 62 42 bc b8 11 32 3d
       0.039171584 -0.012751354 -0.01186442 0.04347393
0003a0 bb 8b 72 bd 16 1e bf bc c5 46 28 3d 28 eb 33 bd
       -0.05921529 -0.023329776 0.041083116 -0.043925434
0003b0 28 06 c9 3c 6b 75 09 bd 78 02 6d 3d 32 58 7d bd
       0.024539068 -0.033559244 0.057863683 -0.061851688
0003c0 4a ee 6b 3b 06 67 0b bd 2a 5f e1 bc 41 ed 82 bc
       0.0036000186 -0.034033798 -0.027511198 -0.015982272
0003d0 8a 82 85 bd ec 2e e5 3c 49 e4 b0 bb a3 08 e2 bc
       -0.06519039 0.027976476 -0.0053983075 -0.027592009
0003e0 b1 02 96 bc 46 f0 17 bd 75 b5 84 3d fe 75 ba 3c
       -0.01831183 -0.037094377 0.06479923 0.022761341
0003f0 16 eb 87 3d 10 04 b5 3c 72 61 10 3d e1 ff 81 3d
       0.06636636 0.022096664 0.03524918 0.06347633

feature.7.weight f4 [48]
000000 f1 25 7f 3f 55 10 81 3f b7 6f 80 3f 29 0e 81 3f
       0.9966727 1.0083109 1.0034093 1.0082446
000010 94 80 80 3f 9d 5d 7f 3f 6f 15 80 3f 6b c8 7f 3f
       1.0039239 0.9975222 1.0006541 0.9991519
000020 ed 83 80 3f 30 59 80 3f 0a 44 80 3f 5e 79 80 3f
       1.004026 1.0027218 1.0020764 1.0037038
000030 7d ac 80 3f 65 5d 80 3f d2 f2 7f 3f 34 c2 80 3f
       1.0052639 1.0028502 0.9997989 1.0059266
000040 c9 a0 7f 3f 2f 32 7f 3f 69 3d 80 3f 9b 07 80 3f
       0.99854714 0.9968595 1.0018741 1.0002321
000050 ee 03 80 3f d1 87 7f 3f e3 c6 7f 3f 90 7e 7e 3f
       1.0001199 0.99816614 0.9991285 0.9941187
000060 da 59 7f 3f 41 6c 7f 3f 2c 19 7f 3f c4 c1 80 3f
       0.9974648 0.9977456 0.99647784 1.0059133
000070 f3 68 80 3f 76 99 7f 3f 92 56 7f 3f 03 e4 80 3f
       1.0032028 0.9984354 0.9974147 1.0069584
000080 d1 0e 7f 3f c1 b9 80 3f 20 0e 80 3f 29 cc 81 3f
       0.99631983 1.0056688 1.0004311 1.014043
000090 74 14 80 3f a1 30 7e 3f 78 f4 7e 3f a3 9f 7e 3f
       1.0006242 0.9929295 0.9959178 0.99462336
0000a0 c1 29 81 3f 4d 5c 80 3f f8 a5 80 3f 8e f7 80 3f
       1.0090867 1.0028168 1.005065 1.0075548
0000b0 e4 7a 80 3f a4 29 81 3f 6d c5 7f 3f 22 38 7f 3f
       1.0037503 1.0090833 0.9991062 0.99695027

feature.7.bias f4 [48]
000000 fc 73 3f 3c e4 fe 8d 3c 79 c1 12 3c 7d 18 66 3c
       0.011685368 0.017333455 0.00895726 0.014043924
000010 64 e1 29 3c 10 bb 8d 3b d7 86 fb 3b 3d 1c 2e 3c
       0.010368679 0.004325278 0.0076759863 0.01062685
000020 b9 5d 31 3c 32 06 29 3c e1 d8 18 3c ea 27 4c 3c
       0.010825568 0.0103164185 0.009329052 0.012460688
000030 a6 9d 18 3c 7c 42 ef 3b 15 28 bc 3b ce 28 09 3c
       0.00931493 0.0073016267 0.005742083 0.008371545
000040 b5 ac 40 3b 7c 04 bd 3a 45 88 1f 3c 99 90 8f 3b
       0.0029399816 0.0014420892 0.009737079 0.004381251
000050 29 56 ae 3b 92 4b 7c 3b 12 54 14 3c 51 5e 95 b9
       0.0053203297 0.0038497192 0.009053247 -0.00028489766
000060 65 7c 7c 3b cf ca 8c 3b 3a bc b5 3b c0 96 3a 3c
       0.0038526293 0.0042966376 0.00554612 0.011388481
000070 76 4b d5 3b c7 da 3d 3b fa de 64 3b a7 b5 69 3c
       0.00650924 0.0028969513 0.0034922943 0.014264501
000080 dd 28 4a 3b 4b 65 75 3c 22 4d 16 3c 83 80 81 3c
       0.003084711 0.014977763 0.009173663 0.01580835
000090 16 68 14 3c 61 62 3f bb d1 7e 19 3b 99 5d 8d bb
       0.009058019 -0.0029202926 0.0023421536 -0.004314136
0000a0 7f 32 6f 3c 6c 40 0f 3c 4d 37 38 3c c3 35 44 3c
       0.014599442 0.008743387 0.0112436535 0.011975708
0000b0 bc 29 6a 3c 79 c7 62 3c 98 2d 84 3b 70 a1 e1 3b
       0.014292177 0.013841503 0.0040337555 0.0068857

feature.7.running_mean f4 [48]
000000 94 00 41 be 72 01 44 3e e9 f1 83 bd fe e1 81 be
       -0.18847877 0.19141176 -0.06442625 -0.2536773
000010 cd e4 49 bf de 5e 75 be 80 f4 11 be 52 25 0a bf
       -0.7886475 -0.2396197 -0.14253426 -0.53963196
000020 08 e0 0f be 1e 92 13 bf 36 36 49 bd 7a c7 0c 3c
       -0.14050305 -0.5764483 -0.049123965 0.008592481
000030 c4 f9 0e bf dc 52 07 bf ff 8f 26 bd 65 93 67 be
       -0.5584986 -0.5286081 -0.04066467 -0.2261482
000040 24 4c d8 be a7 9f 61 bd 2b 91 4c be f9 10 dd bd
       -0.4224559 -0.055083897 -0.19977252 -0.10794253
000050 41 4c a2 be fd 52 76 be ab 85 2c 3d 32 b8 6d be
       -0.31698802 -0.24055095 0.042119663 -0.23214796
000060 f2 7e 14 3e d7 cb c1 be 4f 03 ba bd 10 ea 20 bf
       0.14501551 -0.3785083 -0.09082662 -0.6285715
000070 cf 1d a4 be a1 3c 81 3d 47 53 b7 be 98 0c f9 bb
       -0.32053992 0.06310392 -0.35805723 -0.0076003782
000080 56 69 a8 be 6e e5 00 bf 79 ca 25 bc 42 ea cf be
       -0.32892865 -0.5035008 -0.010119074 -0.40608412
000090 1c 24 1b 3d 89 8a 99 be be 9a 5c 3e 2d 4b 73 3e
       0.037876233 -0.29988506 0.21543404 0.23759146
0000a0 11 6c 14 bf e9 1e ce be 72 91 6e be 5a 61 14 bf
       -0.57977396 -0.40257958 -0.2329767 -0.57961047
0000b0 73 bd 39 3e 00 f9 8c be 04 02 71 bc d1 07 60 be
       0.18138675 -0.27533722 -0.014709953 -0.21877982

feature.7.running_var f4 [48]
000000 43 c5 06 3e d1 0c 6c 3e d0 25 7b 3e 34 73 49 3e
       0.13161187 0.23051764 0.24526143 0.19672853
000010 55 77 82 3e 13 61 31 3e 70 34 d3 3e 36 8f 84 3d
       0.25481668 0.17322187 0.41250944 0.06472628
000020 75 5d cb 3e f1 8f ae 3e d8 4e 4f 3e 40 dd ac 3e
       0.3971974 0.34094194 0.2024492 0.3376255
000030 62 67 cd 3e d9 2e 76 3e 53 ef 44 3e d6 97 c7 3e
       0.40117937 0.24041308 0.1923192 0.3898303
000040 65 92 0b 3e 39 b4 ae 3e 03 78 4d 3e 1e 42 e7 3e
       0.13630064 0.34121874 0.20065312 0.4516763
000050 61 40 e8 3e 22 eb 81 3e e6 9f 48 3d 54 09 60 3d
       0.45361617 0.25374705 0.048980616 0.054696396
000060 a8 4d c3 3e 24 37 2b 3e 04 1a 4e 3e 9f bd 27 3e
       0.38145185 0.16720253 0.20127112 0.16380928
000070 7a 0f 65 3e f3 de 30 3f 56 43 9c 3e 29 6a ad 3e
       0.22369185 0.69090194 0.30520123 0.33870056
000080 ad cb 8f 3e 45 d5 f5 3e 34 bb 07 3e 9e 99 f3 3e
       0.2808508 0.48014274 0.13255006 0.47578138
000090 a4 f5 81 3e a7 d1 6c 3e c3 42 20 3f cd 1d 9a 3e
       0.2538272 0.23126851 0.6260187 0.3010086
0000a0 a8 7d 02 3f 35 f6 91 3e d8 80 8a 3e 18 23 11 3e
       0.50972986 0.28508154 0.27051425 0.14173543
0000b0 e3 fb 50 3d 46 0b 26 3e cf d8 89 3e bb 7d 51 3e
       0.051021468 0.16215238 0.26923224 0.20458119

attention.conv.0.weight f4 [48, 48, 3, 3]
000000 ad 34 da bc cd af 26 bc 8e b5 37 3d 06 3f 3f 3a
       -0.026636446 -0.01017375 0.04485088 0.0007295463
000010 c4 30 d6 3a 8d 7e 28 bd 01 9a 9d bc 58 d5 1e bc
       0.0016341438 -0.041136313 -0.019238474 -0.00969442
000020 4a 84 2f 3d 76 a6 f3 3c 3a 41 35 3c c3 a3 21 3d
       0.04285077 0.02974246 0.0110629145 0.039462816
000030 69 ca d7 3c f9 da d2 3b 19 a4 1e bd 18 16 e3 3c
       0.026341634 0.006434795 -0.038730714 0.027720496
000040 51 95 b9 bc bf 3d 87 bb be 20 e6 3c d4 5e 0a 3d
       -0.022654207 -0.0041272338 0.028091785 0.03378184
000050 a8 eb 07 3d b8 e4 fd bb 26 0b 93 bc 8a 83 fa bc
       0.033183724 -0.0077482127 -0.017949652 -0.0305803
000060 b7 e0 9a bc 4c 78 c6 3c 4a 5e 4a 3c 11 75 ce 3c
       -0.01890598 0.024227284 0.012351582 0.025202306
000070 7d 90 44 bd 84 60 0c 3d 29 95 26 bd c9 3c a2 3a
       -0.047989357 0.034271732 -0.040669594 0.0012377735
000080 be 99 1a 3d e0 25 08 3d 5e 48 1e bd 8a 25 ce 3c
       0.037744276 0.033239245 -0.038643233 0.025164384
000090 be 64 21 3d 6b 21 39 bc 3c 0e 77 bb 3f 00 15 3d
       0.039402716 -0.011299471 -0.0037697693 0.036377188
0000a0 21 ac 58 bd e3 fa 54 bd b5 ad ff bc 80 ec 4c bc
       -0.05289853 -0.051997077 -0.03121076 -0.012507558
0000b0 b1 9f fa 3c ed f4 ed 3c 5d 6f 00 bd 9f 40 0e 3c
       0.030593725 0.029047454 -0.031356204 0.008682399
0000c0 5d cd 06 bc 21 5e 2c 3d e2 c0 f2 3c cb 5b a9 3c
       -0.008227673 0.042081956 0.02963299 0.020673653
0000d0 8e 42 78 bc e9 39 23 bd a3 82 28 bd 22 d1 da bc
       -0.015152587 -0.03985015 -0.04114021 -0.02671105
0000e0 22 c3 da bc 03 b6 b4 3c d9 04 8f bc 10 e0 32 3d
       -0.026704375 0.022059446 -0.017458366 0.043670714
0000f0 71 fa 01 3d 8d 59 c0 3c 41 f3 de bc 7b c2 1c bd
       0.03173298 0.023480201 -0.027215602 -0.03827141
000100 b9 80 1b 3b 09 7c 0f bd 65 2b 68 3a 4b 07 d0 bc
       0.0023727848 -0.0350304 0.0008856564 -0.025394103
000110 5c b2 f3 bc 0f 3e db bb fa 5b dc 3b 54 c9 c7 bc
       -0.029748134 -0.0066907476 0.0067248316 -0.024387993
000120 6d 7a ca bc 61 28 a2 bc 2f a8 31 bd b8 58 58 3c
       -0.02471658 -0.019794645 -0.043373283 0.013204746
000130 51 e1 a6 ba d4 ce a0 3b 53 de 5c bc 06 fe 3b bd
       -0.0012731944 0.0049074683 -0.013480741 -0.045896553
000140 df 5c b5 bc 4e 64 47 bd 1f 1a 13 3d ea 42 19 bd
       -0.022139011 -0.048679642 0.035913583 -0.03741733
000150 a7 54 de bc 18 4c 0d 3d f2 62 a4 3b 4c c7 e7 3c
       -0.027139975 0.034496397 0.005016678 0.028293274
000160 e1 05 0e bd 68 7c f6 3c 36 17 22 bd de 9b 06 3c
       -0.034673575 0.030088618 -0.039572917 0.008215873
000170 b0 cd 49 bd 64 e2 02 bd d5 a6 1c 3d ea 98 08 bd
       -0.049268425 -0.031954184 0.03824504 -0.033348955
000180 13 55 22 3c a8 5d 1a bd 59 eb d8 bc 5f 74 18 bc
       0.009907979 -0.037686974 -0.02647941 -0.009305089
000190 56 2f 0a bd 42 fa 54 bd 67 c2 b1 3c 53 2f 96 bc
       -0.03373655 -0.051996477 0.021699144 -0.018333113
0001a0 86 ae c8 3b 5d c9 6a 3b 0b 2d 0b bd 0d 9f 26 3d
       0.0061243204 0.0035825588 -0.033978503 0.040679026
0001b0 46 f3 1a bd 05 47 eb 3c 6c 44 8c 3c 16 bb 7e bc
       -0.03782966 0.028720388 0.01712247 -0.015547534
0001c0 06 47 a0 3c 12 0b 15 3d ca 1b 0d 3c 49 a7 14 bc
       0.019565117 0.03638751 0.008612582 -0.009073087
0001d0 0e ca 1b 3b cc d6 f6 bc eb 51 0d bd 18 78 39 3c
       0.0023771557 -0.03013172 -0.03450195 0.0113201365
0001e0 3d a7 d0 bc 5f 73 30 bb 08 38 08 3d 93 49 47 3d
       -0.02547037 -0.0026924235 0.03325656 0.04865415
0001f0 fc c7 c9 ba 21 6d 0a 3d da ab 7f 3b cd 0e e4 bc
       -0.0015394683 0.03379548 0.0039012344 -0.027839089
000200 dc 42 11 bd 58 62 6d 3c cc 6d 07 bd c9 e7 b9 3c
       -0.035464153 0.014488779 -0.033063695 0.022693532
000210 29 14 3c 3d 1e 33 ae bc e5 80 c6 3a e4 1f cf ba
       0.045917664 -0.021264609 0.0015144615 -0.0015802351
000220 1a 7d ae bc 82 8b ad 3c 72 a5 74 3c e2 73 78 bc
       -0.021299887 0.021184687 0.014932023 -0.015164347
000230 20 8d b2 3b 38 68 14 bb ec 97 9f bb 2f 15 fc bb
       0.0054489523 -0.0022645127 -0.0048704054 -0.007692955
000240 ed 18 1a 3d 03 cd 9f bb 97 1f 4e 3c 9c 0c cd bc
       0.037621427 -0.004876734 0.012580774 -0.025030427
000250 63 22 85 bc 7e fc 57 bd 6e fd 18 3d ae 50 07 bd
       -0.016251748 -0.05273103 0.037351064 -0.033035927
000260 ef cb d5 3b b0 00 c1 3b 75 d4 56 bd 8e 92 b9 bb
       0.006524555 0.0058899745 -0.05244871 -0.0056632226
000270 c6 20 1c bd d6 6a 01 bd 9c b3 2f bd da c9 02 3d
       -0.038117193 -0.031596027 -0.0428959 0.031930782
000280 f7 6a 55 bc d1 b5 6c bc 60 60 37 3d a2 2d cf 3c
       -0.013025991 -0.014447645 0.044769645 0.025290314
000290 a5 b6 07 bd 82 4b f6 3c 68 ad 02 3c 78 98 25 bd
       -0.033133168 0.030065302 0.007975914 -0.04042861
0002a0 4d 60 f3 bb 68 6b 3d bc a1 34 23 3d 1c 58 e2 3c
       -0.0074272514 -0.011561252 0.039845113 0.027629904
0002b0 03 46 ba 3c 6f a8 0e bd 58 24 1a bc 68 bd 8e 3c
       0.022738462 -0.0348286 -0.009408079 0.0174243
0002c0 ee 25 73 ba e5 13 d9 bc 6b 29 c1 3c 25 16 1c 3d
       -0.00092753663 -0.026498744 0.02357932 0.038107056
0002d0 25 bb 27 bd 33 fc 14 bd a7 ae a9 bc 97 1f 17 3d
       -0.04094996 -0.03637333 -0.020713164 0.03689536
0002e0 77 ba f5 bc 2c 8c 49 3d fc 82 e2 bc 8c ca 4b 3d
       -0.02999614 0.049205944 -0.027650349 0.04975371
0002f0 83 8d 26 bd 91 98 1a bc 45 89 88 3c 4a 69 77 3c
       -0.0406623 -0.009435789 0.016667018 0.015100786
000300 56 9d 39 bc fd 68 e7 bc c3 6a b4 3c 76 53 83 3c
       -0.011329016 -0.028248305 0.022023564 0.016031008
000310 d1 70 1c 3c 25 1a 39 3d c0 82 d0 3c 09 a5 a6 3c
       0.009548382 0.04519095 0.025452971 0.020342367
000320 63 97 d9 3c 72 f6 d1 bc 38 fa 7f 3c 2d 38 19 3d
       0.026561445 -0.02563021 0.015623622 0.03740709
000330 85 60 89 bc 2b 30 37 3d 4c eb 0d 3d a2 1a 92 bc
       -0.016769657 0.04472367 0.034648225 -0.017834965
000340 e2 b3 a5 bc 18 4d 00 bc 53 c5 74 bc d6 90 4a bc
       -0.020227376 -0.007830881 -0.014939624 -0.012363633
000350 3f a0 56 bd cf 3d 0d bc 70 71 29 3d 86 e7 00 bc
       -0.052398916 -0.008620693 0.041367948 -0.0078676995
000360 0a 1d d8 3c c7 0d 28 3d 69 4d 73 bb 6e 55 ee bc
       0.026381034 0.041028764 -0.0037124997 -0.02909347
000370 da 49 39 bd cc bb 62 3b 61 8f 4c 3c a9 44 9a bc
       -0.045236446 0.00345968 0.012485356 -0.018831568
000380 ec 97 94 bc 95 cd c7 bc aa 14 58 3c dd 5f 0d 3d
       -0.018138848 -0.024390021 0.01318852 0.03451525
000390 38 84 c5 3c e8 cd 99 bc 9e 48 20 3d 06 63 10 3a
       0.024110898 -0.018774942 0.039131753 0.00055079197
0003a0 43 9d 82 bc 1e d7 25 bd a3 20 1d 3d 44 6b 2c 3d
       -0.015944129 -0.040488355 0.038361203 0.042094484
0003b0 a1 0d fa ba b8 dd 1c 3d 51 f6 1e bd 32 1b 91 ba
       -0.0019077548 0.038297385 -0.038809124 -0.0011070727
0003c0 2e ca e6 bc b2 37 92 3c 44 1e 30 3c 31 60 ed bb
       -0.028172579 0.017848823 0.010749403 -0.007244133
0003d0 95 4e 00 bd 5a 86 2b bd 55 e7 d3 bb 4d ab ac b7
       -0.03132494 -0.041876175 -0.006466786 -2.0583766e-05
0003e0 f1 eb c5 3c 47 ea 0e bd df 30 0b 3d 6a 16 a7 3c
       0.024160357 -0.034891393 0.033982154 0.02039643
0003f0 66 ca cc bc 58 56 e9 3c e2 7a 36 3d 01 30 36 bd
       -0.024998855 0.028483555 0.044550784 -0.044479374

attention.conv.1.weight f4 [48]
000000 26 91 7d 3f e2 db 7f 3f 90 56 81 3f 13 2c 80 3f
       0.99049604 0.9994489 1.0104542 1.001345
000010 a8 2b 7f 3f d4 e4 7e 3f 08 9c 7c 3f 95 13 7e 3f
       0.9967599 0.99567914 0.98675585 0.9924863
000020 29 c4 80 3f 76 dd 7f 3f 39 ac 80 3f c3 89 7f 3f
       1.0059863 0.999473 1.0052558 0.9981958
000030 3e 33 80 3f 5b 1c 81 3f 73 2a 81 3f 32 5f 7e 3f
       1.0015638 1.0086778 1.009108 0.99364007
000040 e5 2d 80 3f a1 cc 80 3f d1 ef 7f 3f 0e 26 7f 3f
       1.0014006 1.0062448 0.99975306 0.9966744
000050 94 7f 80 3f ca 40 80 3f 19 c3 7e 3f c6 e9 7f 3f
       1.0038934 1.0019772 0.99516445 0.99966085
000060 5d b9 7e 3f 0b 3a 80 3f 1e 59 80 3f 76 d2 7e 3f
       0.9950159 1.0017713 1.0027196 0.9953989
000070 55 f9 80 3f 82 2a 80 3f c6 bc 7e 3f fa 93 80 3f
       1.007609 1.0012972 0.99506795 1.0045159
000080 60 ce 80 3f a4 3c 7f 3f 0a 32 80 3f 9b 1e 7f 3f
       1.0062981 0.99701905 1.0015271 0.99656075
000090 33 10 81 3f 20 14 7f 3f 86 7c 7f 3f 04 c3 7f 3f
       1.0083069 0.99640083 0.9979938 0.99906945
0000a0 5b 0f 80 3f 5e d5 7e 3f dc 33 81 3f b0 41 7f 3f
       1.0004686 0.9954432 1.0093951 0.99709606
0000b0 fa 5c 7e 3f 44 27 80 3f 74 49 7e 3f 89 19 80 3f
       0.9936062 1.0011983 0.9933083 1.0007793

attention.conv.1.bias f4 [48]
000000 b7 5b f0 bb 8c 4c 3f 3b 6d be d3 3b 10 67 93 3b
       -0.007335152 0.0029189913 0.0064619095 0.00449837
000010 04 c7 16 3b a2 ce 78 b7 0d 59 41 bc 23 a9 f6 bb
       0.0023006806 -1.4830062e-05 -0.0118010165 -0.007527487
000020 ae 08 24 3c 70 c0 0c 3c b1 6b 11 3c b6 11 01 bc
       0.010011835 0.008590803 0.008875773 -0.007877758
000030 30 63 15 3c d0 fd 31 3c 2f e2 f4 3b 6b 12 11 bc
       0.009117886 0.010863736 0.0074732522 -0.008854489
000040 de 26 ec 3b b7 31 b4 3b d7 36 b4 ba 31 2f 08 3b
       0.007206782 0.0054990905 -0.0013749254 0.0020780081
000050 80 9b 5e 3a ee 44 09 3c 0e b2 79 bb 17 14 c5 ba
       0.0008491799 0.0083782505 -0.0038100514 -0.0015035894
000060 b4 a5 8c 3a 0c 66 b2 3b 6e 75 26 3c 7e ae 9c 3a
       0.0010730536 0.005444294 0.010159833 0.0011953858
000070 2c 7c 3b 3c 63 07 df 3b fe 0c 25 bb e4 a2 8b 3b
       0.011443179 0.0068063005 -0.0025184746 0.0042613614
000080 9f 65 57 3b 58 05 6f b9 b0 59 d3 3b 0d 18 aa bb
       0.0032866967 -0.00022794807 0.0064499006 -0.0051908554
000090 95 89 36 3c 7b 41 c8 bb 4d f5 cf 3a 11 ba 0c 3b
       0.011141201 -0.0061113215 0.0015865952 0.002147321
0000a0 11 0c ee 3a 55 cd 33 3b 33 08 cb 3b e9 ea 46 3b
       0.0018161555 0.002743562 0.006196046 0.003035242
0000b0 65 13 a8 bb b8 0e 42 bb 20 5b 2f bb 10 25 43 3b
       -0.005129265 -0.0029610824 -0.0026757196 0.002977673

attention.conv.1.running_mean f4 [48]
000000 40 27 d5 3c 24 61 3d bc 90 c0 8c bd 5c 9b ed be
       0.026019692 -0.011558805 -0.06872666 -0.46407592
000010 59 f6 bd be 3f 73 a8 be ec 79 d9 be 26 47 19 3e
       -0.3710201 -0.32900426 -0.42475832 0.14968547
000020 f8 22 ac be 36 5a 3d bf ce bb 08 bf 51 0a c2 be
       -0.3362043 -0.73965776 -0.5341157 -0.37898496
000030 2b d5 07 be 72 6c bb be 2a 60 10 3e 56 90 9c 3b
       -0.13264911 -0.36606175 0.14099184 0.0047779484
000040 2d ff b1 3e 32 ed ee be 4f 70 de be a8 a2 07 be
       0.34764996 -0.4666534 -0.4344506 -0.13245642
000050 a6 b5 1d be be e0 09 bf 88 37 99 be e9 a4 cb 3e
       -0.15401325 -0.53858554 -0.2992518 0.39774254
000060 57 e4 65 be 7c 07 a9 bd 54 6c 2d bf 1a 82 9f be
       -0.22450386 -0.08253381 -0.6774342 -0.31153947
000070 ca b5 06 3e 62 87 d9 3e 62 90 91 bb cf 8e 03 bf
       0.13155285 0.424861 -0.0044422606 -0.51389784
000080 72 28 b0 3e 4c 5e 00 bf e2 c2 7d bc 5a 06 9d 3d
       0.34405857 -0.50143886 -0.015488358 0.07667227
000090 c3 5f d2 bc 0e 8d 83 bd 0a af 33 bf 7f 98 09 be
       -0.025680428 -0.064233884 -0.70188963 -0.13437079
0000a0 82 9e 98 be 9c 56 51 bf fc c9 d8 be 95 3a 12 be
       -0.29808432 -0.8177278 -0.42341602 -0.1428016
0000b0 5a ff 43 be 67 f0 25 3f 84 b1 04 bf 84 3e c6 bd
       -0.19140378 0.6481995 -0.5183337 -0.09679893

attention.conv.1.running_var f4 [48]
000000 ed 88 c3 3d d6 9d 4d 3f be 7f 09 3f 2a 07 14 3e
       0.09547601 0.80318964 0.53710544 0.14455858
000010 9f a4 b4 3e 70 db d1 3e 60 2d 3b 3f 36 0e 8d 3e
       0.35281846 0.4098773 0.7311611 0.27549905
000020 4b ad c8 3e b8 e1 b8 3e e0 d9 a1 3e d8 8d 60 3e
       0.39194712 0.3610971 0.31611538 0.21929109
000030 6d 01 d4 3e 5c c1 62 3f 5b 9b af 3e a4 9a 0c 3e
       0.41407338 0.88576293 0.34298214 0.13730866
000040 69 44 54 3e ef 7f e2 3d b7 27 d6 3d df 39 13 3f
       0.20729221 0.11059558 0.10456794 0.5751018
000050 a6 81 f6 3e 01 d2 9f 3e ec b1 08 3e 27 0f ed 3e
       0.4814579 0.31214908 0.13349122 0.46300623
000060 66 bf 68 3e 28 e2 7a 3e c2 16 ca 3d 80 5b 8d 3f
       0.22729263 0.24500334 0.09867622 1.1043549
000070 c2 42 74 3e 92 32 83 3d 92 bd b6 3e 45 30 2d 3f
       0.23853591 0.0640613 0.35691506 0.6765178
000080 cd 89 7d 3e b0 d9 5a 3e 46 a8 5d 3f 65 ca d3 3d
       0.24759598 0.21372104 0.8658489 0.10341338
000090 3e f2 ee 3e 14 b5 8b 3e bb 86 21 3f b1 40 70 3d
       0.4666919 0.2728659 0.6309621 0.058655445
0000a0 46 7b 35 3e e7 db 90 3e f4 ae 0a 3d ec 91 54 3e
       0.17722806 0.28292772 0.033858255 0.2075879
0000b0 df 34 12 3f 11 a2 0a 3e b5 63 34 3e 04 68 df 3e
       0.57111925 0.13538386 0.1761616 0.43634045
