models/mobile_stereo_best.pth (torch, 409621 bytes, 73 tensors)

enc1.0.dw.weight f4 [6, 1, 3, 3]
000000 41 64 7d bd 67 ff 88 3e 01 9e 4e 3e 16 8a 24 3e
       -0.061863188 0.26757357 0.20177461 0.160683
000010 ac 2a 9d 3e d6 e1 a1 3e 35 0b 05 3e 28 3e d1 bc
       0.3069662 0.31617612 0.12992556 -0.025542334
000020 ef 71 23 be 1e b8 73 3e 1c 6e b2 bd 3a 2c 3e 3d
       -0.15961431 0.23800704 -0.08712408 0.046428896
000030 31 a8 53 3e a1 c3 1d bd b9 ae 17 3d 1f 8c b3 be
       0.20669629 -0.038516644 0.037031863 -0.3506784
000040 06 d0 83 be e2 60 f5 bd 4d 0f ae 3d 1c b1 b3 3e
       -0.25744647 -0.119813696 0.08499012 0.3509606
000050 dc 56 84 3d c6 53 36 3e b5 d3 91 3d 2b 56 81 3e
       0.064618796 0.17805395 0.07120458 0.25261053
000060 b3 58 c0 be f3 33 e8 bd cf ee 28 3e aa 19 c0 be
       -0.37567672 -0.113380335 0.16497348 -0.3751958
000070 71 2d ec 3d cc 5a 78 be f3 a4 9b be b9 0a 75 bc
       0.11532105 -0.24253386 -0.30399284 -0.01495617
000080 5f 70 56 3e 9f ad e0 3d 07 b4 df 3d d9 d9 b8 bd
       0.20941304 0.109706156 0.10923009 -0.09025926
000090 b4 38 e9 be fb 3a 9b be 83 6c 70 be b6 2b a5 be
       -0.45551074 -0.30318436 -0.23478894 -0.3225991
0000a0 cf 96 ad be d3 7a 5c 3d aa 46 25 3e 68 5f 2a be
       -0.3390412 0.05382807 0.16140237 -0.16637957
0000b0 ca bc 87 3d 99 3a 9c be 22 7a e5 3d f5 c2 ee 3d
       0.066278055 -0.30513456 0.112049356 0.11658279
0000c0 f7 00 c0 be 85 86 79 3e dc d1 81 bd 0b 35 6e 3e
       -0.37500736 0.24367721 -0.063388556 0.23262422
0000d0 b7 94 12 3e 47 1d 78 be
       0.14314543 -0.24229918

enc1.0.pw.weight f4 [24, 6, 1, 1]
000000 09 09 56 3d 01 53 b6 be d1 7a 9c 3d 4b 81 aa be
       0.05225471 -0.35610202 0.07640613 -0.33301768
000010 72 50 b7 be b0 6f fa 3d f2 71 57 be 78 7a 85 bd
       -0.35803562 0.12228334 -0.2103956 -0.065175
000020 12 9f 1d be e2 e1 90 3d 70 44 f0 bb 00 c5 c3 be
       -0.15392712 0.07074334 -0.007332377 -0.38236237
000030 69 0d d9 be a3 bd 1d 3e 67 6f c9 3c de 4e 7c be
       -0.42393044 0.15404372 0.024589254 -0.2463946
000040 d4 45 29 be 7d dc f6 3d ca 26 d2 bd ab c6 59 bd
       -0.16530544 0.120537736 -0.10261305 -0.05316798
000050 22 bc 84 be 7e 04 ea bc 1d 6c fc 3e 60 ef 8f 3e
       -0.25924784 -0.028566595 0.49301234 0.28112316
000060 8a 94 21 be 03 b2 d5 3e 18 22 9e 3e 5c cc 81 bb
       -0.1577932 0.41737375 0.30885386 -0.003961129
000070 ea 3d 00 3e 7e 53 bf be 18 20 01 be e9 45 b5 be
       0.12523618 -0.37368387 -0.12609899 -0.354049
000080 2a 35 61 3e c0 f9 83 3e 82 ba 2e 3e c2 4a 44 3e
       0.21992937 0.25776482 0.17063335 0.19169143
000090 92 99 c2 be 1a 1a dd be b2 79 ab 3d cb cd 31 be
       -0.3800779 -0.43183976 0.08372821 -0.1736366
0000a0 5c 33 72 3d 1d ae 46 be 18 77 87 be 24 49 75 3e
       0.05913101 -0.19402356 -0.2645805 0.23953682
0000b0 da 01 f5 bc 50 a4 98 3e 64 b5 96 be 01 eb ac 3e
       -0.02990811 0.2981286 -0.29435265 0.33773044
0000c0 49 a7 d4 bd da 5d 70 be 37 d9 d6 be b1 21 f2 bd
       -0.103834696 -0.23473302 -0.41962597 -0.118228324
0000d0 57 b2 32 be 7f a8 b5 be c3 f8 95 be c1 7b 02 3d
       -0.17450844 -0.35480115 -0.29291353 0.031856302
0000e0 6b 64 ca be 99 66 aa 3d 7c cf cb be 78 53 97 bd
       -0.39529738 0.0832035 -0.39806736 -0.07388967
0000f0 e6 f7 ae 3e ba 10 60 3e ff 5d c8 3e 9e 9c 57 be
       0.34173506 0.2188138 0.39134213 -0.21055838
000100 2a 75 ca 3e 38 98 4e 3e 95 c3 99 be 79 67 22 3f
       0.39542514 0.20175254 -0.3003203 0.63439137
000110 37 cf a7 3e 68 8e 15 be 80 9b 73 be 87 8d b8 3e
       0.3277528 -0.14605105 -0.23789787 0.36045477
000120 a9 e2 47 bd b1 e5 9e be 0c 13 f6 3e b4 8b f5 3e
       -0.048800144 -0.31034616 0.48061407 0.47958148
000130 71 6e 37 3d 6f 83 53 3a 92 db 81 3e 7c be dc bd
       0.04478306 0.00080685964 0.2536283 -0.107785195
000140 87 c1 22 bd ef 20 e1 3e dc 47 25 3e a3 95 c6 3e
       -0.039735343 0.4397044 0.16140693 0.3878604
000150 f8 4d 8a be 4e 35 3b be a2 8b 88 bd d7 f0 8d 3d
       -0.2701261 -0.18282053 -0.06667258 0.06930702
000160 05 02 ac bc bc 05 30 be 85 29 f7 3d 7b a7 23 3e
       -0.020997057 -0.17189687 0.12068466 0.15981857
000170 44 61 de 3c a5 52 90 3e da f7 5d 3e bd e4 50 3e
       0.02714599 0.28188053 0.21676579 0.20399757
000180 3f 1e a7 3d 48 60 d9 bd 1c 9d 06 3e a6 8e 77 3d
       0.08160066 -0.10614067 0.1314587 0.060438775
000190 54 0f 94 3e 59 56 c1 bd 63 f0 88 be ef d7 4f be
       0.28917944 -0.09440298 -0.267459 -0.20297216
0001a0 58 a1 8f 3e 91 19 8f 3e 4e d0 f2 3c 35 23 04 be
       0.28052783 0.27949193 0.029640343 -0.12904055
0001b0 9a 66 ba 3c 44 97 2e 3f 89 b8 ae bd 56 1f a0 3e
       0.022754002 0.68199563 -0.08531291 0.31273907
0001c0 d0 c6 79 bd ca 4b b0 bd 98 b1 23 bd 3f a9 cf 3e
       -0.060980618 -0.086082056 -0.03996429 0.40558812
0001d0 52 9b e2 bd b6 b9 9f be 0d f4 b5 3e ba c8 e8 bd
       -0.11064781 -0.31196374 0.35537758 -0.113664106
0001e0 21 de 59 3e bc 44 6a 3e 6f ee b2 3e 05 64 0d 3e
       0.21276142 0.22877783 0.34947535 0.13807686
0001f0 33 a5 f3 3e 10 d3 15 3e 73 68 7b be 40 aa 68 3e
       0.47586975 0.14631295 -0.24551563 0.22721195
000200 56 ad 6a be e4 fc a3 be 86 c1 4f bb a9 b0 02 be
       -0.22917685 -0.32028878 -0.0031701042 -0.12762703
000210 31 95 5e 3e 06 b3 ac 3e 35 3e 0e 3e 52 0f 96 3e
       0.217366 0.33730334 0.13890918 0.29308563
000220 90 ca f7 3d 57 c9 eb bd 74 0f f6 3d da 9b b8 3e
       0.120991826 -0.11513012 0.12014666 0.36056405
000230 47 ad bf 3d db a4 4a 3e c9 32 78 3e 2d 66 80 3c
       0.09359222 0.1978945 0.24238123 0.015673721

enc1.0.bn.weight f4 [24]
000000 72 3a 60 3f 7a 72 6b 3f 9d c2 79 3f 1f 53 71 3f
       0.8758918 0.9197155 0.9756258 0.9426746
000010 57 7c 62 3f 2a ad 74 3f 6a 77 6b 3f 5e 5d 3b 3f
       0.8847098 0.9557673 0.91979086 0.7318934
000020 c9 f4 75 3f 50 88 92 3f 79 18 87 3f 82 87 87 3f
       0.9607664 1.1447849 1.0554343 1.0588229
000030 0d 9c 81 3f d3 96 84 3f a6 1e 80 3f ac 8a 95 3f
       1.0125748 1.0358528 1.0009353 1.1682944
000040 3a d1 62 3f ff 28 6b 3f 9d b5 89 3f 0f 50 65 3f
       0.88600504 0.9185943 1.0758549 0.89575285
000050 3d 1e 8a 3f 49 84 8b 3f 19 17 8d 3f d5 00 94 3f
       1.0790478 1.0899745 1.1022674 1.1562754

enc1.0.bn.bias f4 [24]
000000 32 ff 46 bd 7d 09 88 bd 55 42 02 be 3c 8f 50 3d
       -0.048583217 -0.06642435 -0.12720616 0.05091785
000010 f9 f8 33 be d5 de ca bd 8d b4 88 be 90 f8 3e be
       -0.17575444 -0.09905783 -0.2670025 -0.18649507
000020 a3 04 cc 3d ce a4 8e 3e 08 73 78 bd 0c e2 8d 3e
       0.09961822 0.2786011 -0.060656577 0.27711523
000030 50 8e f5 bd 34 f3 64 3e bf 58 50 bc a4 a2 d4 3d
       -0.119900346 0.223584 -0.012716471 0.10382584
000040 4f 99 a7 bd 7a 42 67 be e3 b9 fc bc 88 b3 0c bd
       -0.08183538 -0.22583953 -0.030850356 -0.0343509
000050 f2 5e 6f bc 92 1b f4 3d 20 f6 5e 3e 52 bd 32 3d
       -0.014610039 0.11919321 0.21773577 0.04363758

enc1.0.bn.running_mean f4 [24]
000000 4f 13 17 be d3 d5 87 3d 35 31 90 3d c6 9e 07 3e
       -0.1475346 0.066325806 0.070406355 0.13244161
000010 78 38 cf 3d 03 ac b5 3d e1 75 bc 3d 81 5e 5d 3d
       0.101181924 0.08870699 0.09202171 0.054045204
000020 2d e4 16 bd 32 9d 26 3b 64 1a ad bc 94 c7 5a 3d
       -0.0368387 0.0025423286 -0.021130748 0.05341299
000030 99 97 8e 3d d6 37 1e bb 00 a1 98 3d f6 62 49 3d
       0.06962509 -0.0024142168 0.07452583 0.049166642
000040 14 5b 37 3d e7 5b e7 3d e6 55 2f 3d 47 04 a1 3d
       0.044764593 0.11296826 0.04280653 0.07862144
000050 81 24 94 3d c1 1f 48 3d 8a 9f 36 3c d0 dc 6c 3d
       0.07233525 0.048858408 0.0111464355 0.05782777

enc1.0.bn.running_var f4 [24]
000000 af fd 2e 3f a8 da 90 3d e2 11 c0 3d 15 2b 7e 3f
       0.6835584 0.07072955 0.09378411 0.9928449
000010 7c 15 54 3d 5c fb d8 3d 04 be 5e 3d 64 35 80 3d
       0.0517783 0.10594818 0.05438043 0.062601835
000020 78 f4 8d 3d e2 f1 24 3e 42 97 1f 3e a8 bd ad 3d
       0.06931394 0.16107896 0.15585044 0.0848344
000030 d9 69 8a 3d b4 b0 f5 3d 00 fa 80 3d 60 05 2b 3e
       0.0675847 0.11996594 0.06297684 0.16701269
000040 99 01 d8 3d 8b 8f 39 3d 11 31 8b 3d 80 6e b3 3e
       0.1054718 0.04530291 0.06796468 0.35045242
000050 98 f9 aa 3e bf 70 f9 3d b8 1b 2c 3d dc 8d 25 3e
       0.3339355 0.12179708 0.042018622 0.16167396

enc1.1.dw.weight f4 [24, 1, 3, 3]
000000 e1 5e b4 be cb 9e 4d 3e 11 2a 27 3e 64 c4 0d be
       -0.35228637 0.20080106 0.16324641 -0.13844448
000010 21 71 dd 3d 42 84 c0 be ba 8f 53 3e 2a a8 8d bd
       0.10812593 -0.37600905 0.20660296 -0.069168404
000020 9f db d3 bc ab c0 8f be 1f 47 ab 3d 15 de 1e 3c
       -0.02586156 -0.28076681 0.08363175 0.009696503
000030 c0 91 33 3e 07 66 40 be 29 97 8b be 47 de c4 3d
       0.17536068 -0.1878892 -0.27263764 0.096127085
000040 59 59 78 3e 44 12 53 be 84 69 6a 3e 4d a9 a1 3e
       0.24252833 -0.20612437 0.22891814 0.3157448
000050 70 0d 01 3d e1 d7 17 3e 0c b8 47 be dc f5 8a bc
       0.031506956 0.14828445 -0.19503802 -0.016962938
000060 73 b5 c2 3c 3e a0 0f 3e 9e b9 ab be 4d 3f 75 be
       0.023768162 0.14025971 -0.33540052 -0.23949929
000070 1d ca f6 bd d1 61 53 3e 39 1d 78 be 59 3e a8 3e
       -0.12050269 0.20642783 -0.24229898 0.32860067
000080 22 d6 69 be 79 4d 9c be 68 b5 46 be 32 79 8e 3e
       -0.22835591 -0.30527857 -0.19405138 0.2782684
000090 7b c7 bd 3d 29 2d 95 be d9 7d 00 be 41 25 a8 3e
       0.092665635 -0.29136017 -0.12548007 0.32840922
0000a0 71 24 8b 3e 3e a8 9e 3e b5 2b 2e be 50 e1 6f be
       0.2717624 0.30987734 -0.1700886 -0.23425794
0000b0 f1 de 45 be 2d b0 6d be a6 87 61 3e c2 10 a7 3e
       -0.19323327 -0.23211737 0.22024402 0.32629973
0000c0 75 46 a0 3e c4 2a 84 bc fc 12 8e 3e 84 17 2f be
       0.31303754 -0.016133673 0.2774886 -0.17098814
0000d0 82 92 34 3e 22 48 44 3e b6 54 8e ba c3 9e 46 3e
       0.17634013 0.19168141 -0.0010858986 0.193965
0000e0 98 1c 85 3e 49 57 0c 3d 6e 51 bb 3d df 97 d8 bd
       0.25998378 0.03426293 0.09146391 -0.10575842
0000f0 61 5a a1 3e 3c e3 a5 3c c9 45 37 bd 60 38 a3 3d
       0.31514266 0.020249955 -0.044744287 0.07969737
000100 cf 8a 15 be 7a 98 69 be b3 2a 07 be 03 07 7d 3e
       -0.14603733 -0.22812071 -0.13199882 0.24709706
000110 fe 64 41 3e 73 b8 1d 3d 2d 65 ef 3d a8 70 65 be
       0.18886182 0.038505983 0.116892196 -0.22406256
000120 dc 06 05 3e f2 46 23 be db 71 89 be 8d b4 76 3e
       0.12990898 -0.15945032 -0.26844677 0.24092312
000130 2e ec a2 3e 06 a2 c4 3d e7 fd 47 bd c9 de 29 be
       0.31820816 0.09601216 -0.048826125 -0.16588892
000140 4d 16 9d 3e a4 f5 ad bd 9a 21 a9 bd 81 49 49 3e
       0.30681077 -0.08494118 -0.08258362 0.19656946
000150 11 fe 54 3e 6c 50 ee 3e fd bd 3d 3e 92 87 9d 3d
       0.20800044 0.46545732 0.18529506 0.076918736
000160 13 6d c5 3e 0b 03 a4 3e 0c 62 8e be b3 bf dd bd
       0.3855978 0.32033572 -0.2780918 -0.10827579
000170 08 84 14 bd 58 f2 95 be 01 88 4c be 63 7d 9a be
       -0.036258727 -0.29286456 -0.19973756 -0.30173787
000180 9b 1d cf 3d 5c 13 90 be fa 93 9f be 99 19 68 be
       0.10113069 -0.2813977 -0.31167585 -0.22666015
000190 b0 39 b4 be 03 a2 8a be 6c ae 5f bd 12 7c ab 3e
       -0.35200262 -0.2707673 -0.0546097 0.33493096
0001a0 74 e4 70 3e c0 15 8e 3e ab 33 18 be d7 06 84 3d
       0.23524648 0.2775097 -0.1486346 0.06446617
0001b0 a4 f2 95 3e fc ce 8c 3d b0 ae 59 3e 00 d1 8f 3e
       0.29286683 0.06875417 0.21258044 0.28089142
0001c0 19 15 98 bb 6d 4c e3 3b 71 6c 93 be 4e a4 41 3d
       -0.004641187 0.006936601 -0.28793672 0.047275834
0001d0 d7 9c 63 3d 2b a0 13 3d 65 e7 5c bd c5 bc 4d 3d
       0.055569496 0.03604142 -0.053931613 0.050228853
0001e0 43 92 9f 3e 0a 93 1f 3d c2 06 4b be 86 32 cf 3e
       0.31166276 0.038958587 -0.19826797 0.40468234
0001f0 32 b9 80 3e 87 0e 2b bc b5 7b b3 3e 60 28 57 3e
       0.25141293 -0.010440475 0.35055318 0.21011496
000200 f6 ee 31 3e ee e5 07 bd 59 de dc bd c1 00 0f 3e
       0.17376313 -0.033178262 -0.10784597 0.13965131
000210 15 35 5f 3c 54 52 59 bd 01 a0 38 be 5b 9e bd bc
       0.013623496 -0.05305703 -0.18029787 -0.023146799
000220 8f 63 7a be f9 4b c4 3e 4d 0c 96 3d 37 28 dc bd
       -0.24452041 0.38339213 0.07326565 -0.10749858
000230 9d 22 40 3e a8 7e c0 be 8c 34 d6 bd 3f 07 68 3e
       0.18763204 -0.3759663 -0.10459241 0.22659014
000240 d4 21 ce 3d f8 a5 53 be 4e 85 0b 3e 6f 18 83 bd
       0.10065046 -0.20668781 0.1362507 -0.06401145
000250 bc b1 27 bc 0d 8d f4 bd 10 97 c3 3e 16 77 10 bd
       -0.010235246 -0.11940966 0.3820119 -0.03526982
000260 8d 61 8e bd e9 67 77 3e 9a 89 4c 3c 60 f7 42 3e
       -0.069522 0.24160732 0.012483979 0.19039679
000270 fe 15 e7 bd ef cb 93 3e 81 e8 de bd 28 02 0e 3e
       -0.112834916 0.28866526 -0.1088419 0.1386801
000280 fa d2 8d 3e b5 63 a3 be 83 fe 9b 3e 88 85 97 3e
       0.27700025 -0.31912008 0.30467615 0.29594064
000290 9c 70 b3 3d d1 ca ca 3d 11 0b dc be ea 53 cd be
       0.08761713 0.099019654 -0.42977193 -0.40103084
0002a0 93 ab a1 bd 71 61 e5 be 8d 19 48 3e 36 19 7c be
       -0.07894053 -0.44800904 0.19540997 -0.24618992
0002b0 23 77 b0 bd 3c bc dd 3d 1a a8 1b bb 90 15 a5 3e
       -0.086164735 0.108269185 -0.002375132 0.32243013
0002c0 f6 62 85 be 3f 52 84 bd 50 e1 81 be 34 2f 56 3e
       -0.26052064 -0.06461 -0.25367212 0.20916444
0002d0 57 27 c4 be ea 44 39 be 9e db 91 3e bc e1 28 3d
       -0.38311264 -0.18092695 0.28487867 0.041230902
0002e0 c4 24 b7 be d3 7b 1d 3e a9 9c 22 be 17 df 83 be
       -0.35770237 0.15379266 -0.15880074 -0.25756142
0002f0 a7 36 63 be 96 6f c3 3d d9 c1 81 3d 4c 7f ef 3e
       -0.22188817 0.09542768 0.06335802 0.46776807
000300 d3 17 77 3e 97 6f 2f 3e fb 92 92 3e 7a 0d 39 3e
       0.24130182 0.17132412 0.28627762 0.18071547
000310 0e 69 d5 3e 2f 9b 83 3e 99 26 a3 3e 8a 1f 99 3e
       0.41681713 0.25704333 0.31865385 0.29906875
000320 3b 09 6d 3e 59 ec ac 3d 2a 81 1d bc ef 55 78 3e
       0.23148052 0.08443517 -0.009613315 0.24251531
000330 15 d8 0a bd d2 fb 4c 3d 8c 57 bb 3e e6 c2 38 3e
       -0.033897478 0.050044842 0.3659023 0.18043098
000340 33 d7 84 3d b3 59 cb 3e f5 fb 5a be 6d a8 8c be
       0.064863585 0.39716873 -0.21385176 -0.2747225
000350 5f 8c 36 be 92 45 cd be 34 52 07 3d f7 f6 81 3e
       -0.17826985 -0.4009214 0.03303738 0.25383732

enc1.1.pw.weight f4 [24, 24, 1, 1]
000000 f8 36 2a be 31 52 5c 3e 00 37 36 3e fa d2 fb 3c
       -0.16622531 0.21515729 0.17794418 0.03074025
000010 e1 a7 9e 3e 64 3a ec bd 9f a5 87 be c7 eb bc bd
       0.30987456 -0.11534575 -0.26493546 -0.092246585
000020 8c 4e bb be e9 56 ab 3d 45 bf bf be 6d 9f 76 be
       -0.36583364 0.08366186 -0.37450615 -0.24084254
000030 13 2f ec 3d d8 2b a2 bc 80 cb 31 be 86 2c 2f 3e
       0.11532416 -0.019796297 -0.17362785 0.17106828
000040 75 e4 8c 3d 0c 97 83 3d d1 d0 58 be dd ab 10 be
       0.06879512 0.06425294 -0.21173407 -0.1412806
000050 2b e7 01 be c4 c8 53 3e d2 da 38 be a4 65 1e be
       -0.1268584 0.20682055 -0.18052223 -0.1546846
000060 c4 71 97 3d 13 32 1b 3d 79 e6 c3 bd df c2 19 be
       0.07394746 0.03788955 -0.095654435 -0.15015744
000070 43 53 7c 3e d8 57 7c 39 63 8f 41 be e8 3a a6 3c
       0.24641137 0.00024065317 -0.18902354 0.02029176
000080 9e 9c fa bb 16 6e 11 3c 5d d7 d8 bd bd f4 00 bd
       -0.0076480648 0.008876344 -0.10587952 -0.0314834
000090 8a cf b2 bd 4c f2 6e bb 67 09 34 be 22 b1 3e be
       -0.08730991 -0.0036460338 -0.17581712 -0.18622258
0000a0 df 95 a7 3d a8 05 fc bd 16 62 98 bc 30 c9 10 bd
       0.081828825 -0.12305766 -0.018601459 -0.035348117
0000b0 a4 3a cd 3d 13 e6 93 3e 1a 74 c1 bd cb ca 2f be
       0.100209504 0.2888647 -0.09445973 -0.17167203
0000c0 79 8f 99 bd 82 6c 95 bc a2 bc 25 3e 38 9f 9b bb
       -0.07498068 -0.018240217 0.16185239 -0.004749205
0000d0 e9 b6 1d 3d 42 cd 63 be 58 ac b6 3c 7e 9e 63 3c
       0.038504515 -0.22246268 0.022298977 0.013892768
0000e0 97 ef b3 3d c0 6e 92 bd 8b 85 45 bd 78 85 e3 bd
       0.087859325 -0.0715003 -0.04822306 -0.111094415
0000f0 3a e7 21 3e 30 99 35 be 84 84 b0 3d 1c 52 c0 3c
       0.15810862 -0.17734218 0.08619025 0.023476653
000100 6c 18 d3 bd 64 8a c7 bc 9c fc 44 3e 85 18 41 3e
       -0.103073925 -0.024357982 0.19236988 0.1885701
000110 bc bd 00 3e 48 43 23 3e 7b 0f cc be 1f 6f 72 bc
       0.12572378 0.15943635 -0.3985556 -0.014797001
000120 f1 b0 49 bd a7 0b 06 3e 07 70 3f be af 02 b6 3d
       -0.04924101 0.13090383 -0.18695079 0.088872306
000130 72 c7 08 be 7e 4c 20 be f2 8c 96 3d 4b 93 5c bd
       -0.13357332 -0.1565418 0.07351102 -0.053851407
000140 18 da a0 3d 36 ed 1c be ed aa 16 be 8d d1 f1 3e
       0.07854098 -0.15324864 -0.1471364 0.47230187
000150 1d 4f 9b 3c 7d 5b 3b 3d 96 0f e0 3d 81 26 65 be
       0.018958623 0.045741547 0.10940473 -0.2237797
000160 90 db 09 be e3 a6 6e 3c 3a f9 9e bd 3f 4b 25 be
       -0.13462663 0.014566156 -0.0776238 -0.16141985
000170 5b 38 1c 3e 58 45 e0 bd 02 dd 2c 3e e7 96 5d 3d
       0.15255873 -0.10950726 0.16881183 0.05409899
000180 9c 87 39 be a6 2d 22 bd 10 e3 a0 bd 9f 6a 03 3e
       -0.18118137 -0.039594315 -0.07855809 0.12833641
000190 48 2c 3d 3d 28 8d 31 3e ce 2d 3b 3e df 0d ba 3d
       0.046184808 0.17339003 0.18279192 0.09084677
0001a0 2a d8 a0 bd f5 e8 0e be 65 85 23 be d6 b6 c4 bc
       -0.0785373 -0.13956054 -0.15968855 -0.024012964
0001b0 be 49 90 3d 6f ff 6f 3e 78 13 73 be 41 02 fc bd
       0.07045315 0.23437284 -0.23737895 -0.123051174
0001c0 6e 64 f8 3c dc 41 14 3e c7 7f 82 3c 70 60 f8 3d
       0.030321326 0.14478248 0.01593007 0.12127769
0001d0 55 31 17 bd 3d a4 68 3d bb e9 52 3e 2a 21 2f bd
       -0.03691228 0.056797255 0.20596974 -0.042756237
0001e0 ff 15 46 bd 80 6c cc bd ed da 75 3d 61 07 07 bd
       -0.04836082 -0.09981632 0.060023237 -0.03296602
0001f0 4d 0d 8d 3d db b8 1d 3e eb b2 ed 3d 35 ce b6 bc
       0.068873025 0.15402548 0.116063915 -0.022315124
000200 bf fa bd 3e a9 1c c0 3e 89 cd af 3d 14 11 3a 3e
       0.37105367 0.37521866 0.085841246 0.18170577
000210 62 cd 78 be e1 e7 b2 bd 99 a7 a7 bd 60 5f 34 bd
       -0.24297097 -0.08735634 -0.081862636 -0.04403627
000220 fe fe 38 be 9a 83 9b 3d 94 bc d7 be 76 69 16 3e
       -0.18066022 0.075934604 -0.4213606 0.14688668
000230 cc 54 27 3e a3 a1 35 bd 3b 5b a4 bd a7 0b 25 3e
       0.16340941 -0.044343602 -0.08025213 0.16117726
000240 18 90 1a bb 77 69 d6 bd b5 cc 00 3e 3b 68 b9 bd
       -0.0023584422 -0.104693346 0.1257809 -0.090530835
000250 1f 6a 5f 3d 9d 00 3f 3d 6a a7 2b bd 68 7a 96 3c
       0.054544564 0.046631444 -0.041907705 0.018368915
000260 21 ee 18 be 40 07 66 3d 9b c6 31 bd 61 34 18 be
       -0.14934589 0.056159258 -0.043402296 -0.14863731
000270 46 95 76 bd 7b 91 0f 3e 52 76 3d 3e a1 06 54 3e
       -0.060200952 0.1402034 0.18502167 0.20705654
000280 98 05 97 3d 60 6c 27 3e 09 ec 96 bc 61 0a 47 be
       0.07374114 0.16349936 -0.018423097 -0.19437553
000290 2d 37 35 be 56 14 3b 3e d3 9e 82 be b1 5d 5e be
       -0.17696829 0.18269476 -0.25511798 -0.21715428
0002a0 2a e0 85 bd 87 fc 80 bc b7 1a 1a be 80 7c f9 bd
       -0.065368965 -0.015745414 -0.15049253 -0.121819496
0002b0 58 d8 6d 3c 85 10 3b be e5 4e d8 bd c8 a6 04 bc
       0.014516912 -0.1826802 -0.10561923 -0.008096404
0002c0 15 52 13 be 5c 73 38 bd f1 d6 eb bc c1 5a 18 be
       -0.1438678 -0.04503189 -0.028789015 -0.1487837
0002d0 68 83 dd bd 52 8f 43 3e c7 8b 90 bd d4 0a 73 be
       -0.108160794 0.19097641 -0.070579104 -0.237346
0002e0 c5 68 83 3d 33 c2 86 be 02 29 93 be 5a b1 2f be
       0.064164676 -0.26320037 -0.28742224 -0.17157498
0002f0 de 57 da bd d6 08 74 3e 1a 89 ad bc b3 40 91 be
       -0.106612906 0.23831496 -0.02118354 -0.28369674
000300 1b 34 4f 3d 73 dd 92 3e ae 59 31 bd 60 98 c3 bd
       0.0505868 0.28684577 -0.043298416 -0.095505476
000310 c6 21 7c bd 9c 95 06 3e 8d fe 2c be 11 1b 06 be
       -0.061555646 0.13143009 -0.16893978 -0.13096263
000320 d9 c2 e9 bd c2 d3 09 be 0c b0 fd bc c2 f7 ef 3d
       -0.11414117 -0.13459685 -0.030967735 0.11717178
000330 09 6e 42 3d b5 7c 5c 3e 38 fd 2e be 64 cf 12 be
       0.04746822 0.21531947 -0.17088783 -0.14336926
000340 b0 14 73 3e 2d 3b bd bd 94 fd 3a 3d ff 93 60 be
       0.2373836 -0.092398025 0.045651987 -0.21931456
000350 e8 c3 a0 be ff d0 63 be a3 fb 44 3e b8 89 1e bc
       -0.31399465 -0.22247694 0.19236617 -0.009676389
000360 88 ee 26 3d 03 40 7c bc 12 b8 e3 3d 7f b7 c7 bd
       0.040754825 -0.015396121 0.11119093 -0.09751796
000370 8d 61 16 3d 86 2e 07 be e1 ee 27 3e 87 14 78 bc
       0.036714125 -0.13201341 0.16399719 -0.015141613
000380 1b 4f 98 bc 2a ec 46 3e b8 a2 8d 3e 26 35 cd bd
       -0.018592408 0.19426027 0.27663207 -0.10019903
000390 9f 99 82 be d4 ac 28 bd 1b af 9d 3c 37 b4 d0 3d
       -0.2550783 -0.041180447 0.019248536 0.10190623
0003a0 1c 5b 58 bc 97 4d 13 bd 95 ee 48 3c 81 c6 17 be
       -0.013205316 -0.035962667 0.012263914 -0.14821817
0003b0 8b 8f 73 3e 14 eb 0b 3d 11 f9 4e be 17 9e c2 bd
       0.23785226 0.034159735 -0.20212199 -0.095028095
0003c0 41 de 98 3d 8b 23 3f be fa 19 43 3e 13 62 f2 3d
       0.074642666 -0.18665902 0.19052878 0.118351124
0003d0 48 63 27 3d 5d d0 ca bb 23 d8 52 3e 8c 24 78 bd
       0.040866166 -0.0061893896 0.20590262 -0.06058173
0003e0 45 a5 6b 3d 2c 53 ae 3e bc 6e 50 be f6 05 00 bd
       0.05753066 0.3404783 -0.20354742 -0.031255685
0003f0 a2 91 91 be 74 3f 59 be 3e b3 06 3e d3 7c 44 3e
       -0.28431422 -0.21215612 0.13154313 0.19188242

enc1.1.bn.weight f4 [24]
000000 3a 74 82 3f 18 02 7a 3f a3 16 81 3f cb 61 7f 3f
       1.019172 0.97659445 1.0085033 0.99758595
000010 9c 8d 7b 3f 43 3a 80 3f 5d fa 64 3f c7 36 83 3f
       0.98262954 1.001778 0.89444524 1.0251092
000020 d4 be 84 3f d6 8e 78 3f 47 f2 91 3f 43 4d 60 3f
       1.0370736 0.9709295 1.1402062 0.8761789
000030 57 94 8a 3f 90 fe 6d 3f 68 65 87 3f 74 29 85 3f
       1.082652 0.92966557 1.0577822 1.0403275
000040 d8 9b 7d 3f 55 57 81 3f 9f 08 9b 3f 7a 9a 79 3f
       0.99065924 1.0104777 1.2112006 0.9750134
000050 cf bd 82 3f 30 38 84 3f 94 dd 8b 3f fd a9 79 3f
       1.0214175 1.0329647 1.0926995 0.97525007

enc1.1.bn.bias f4 [24]
000000 ba e4 17 3c a1 df 94 3d 7f ca 2e 3d 52 d4 b7 bd
       0.009270841 0.07269216 0.042673584 -0.08976044
000010 27 4f 5e bd e4 32 42 bc 16 12 56 be e6 ea de 3c
       -0.054274704 -0.011852954 -0.20905337 0.027211618
000020 3a a4 16 be 4b 0e 87 bd 0f 0f 9c 3e fe 90 1c be
       -0.14711085 -0.06594523 0.3048024 -0.15289685
000030 cb 2e a0 3e ca 81 0c bd 3b 09 02 3e 0b 2f 7e 3d
       0.312857 -0.034303464 0.12698834 0.062056582
000040 03 e4 2e bd 2b 26 b8 3d 38 74 82 3e 45 d2 21 3e
       -0.042697918 0.08991655 0.25479293 0.15802868
000050 ac 51 35 3c d2 c0 94 bd b9 5c 0e 3e 5f 44 2a 3e
       0.011066835 -0.0726334 0.13902558 0.16627644

enc1.1.bn.running_mean f4 [24]
000000 e4 85 b2 3e 30 8f 5d 3e 4d be b3 be a6 db 2b be
       0.34867775 0.21636653 -0.35106125 -0.16783008
000010 ba da bf 3e 75 e1 3c 3e c8 03 b9 3e bb 5d a5 3e
       0.37471563 0.1844538 0.36135697 0.32298073
000020 ae e7 87 3c 2d e6 79 be 4c 14 ce 3c da 72 c3 bc
       0.016589966 -0.24404211 0.025156163 -0.023858476
000030 b2 d6 1d 3e d2 e5 35 be 97 19 3b be 31 c2 c3 be
       0.15413931 -0.1776345 -0.1827148 -0.38234094
000040 1a 33 ae 3e 41 02 e3 be 8a 82 21 bf ae ad 00 bf
       0.34023362 -0.44337657 -0.6308981 -0.50265014
000050 be 71 42 3e a0 3e 3e 3e 33 38 9c 3d 06 a1 15 bf
       0.18988702 0.18578577 0.07627907 -0.5844883

enc1.1.bn.running_var f4 [24]
000000 69 af 07 3e 8f 34 f3 3d fd 9b b0 3e de 43 7d 3e
       0.13250507 0.11875259 0.3449401 0.2473292
000010 61 aa d3 3e e9 24 08 3f 71 7d 5c 3e 03 a0 36 3e
       0.41340926 0.5318132 0.21532227 0.17834477
000020 c0 9f 2d 3f 4b a6 40 3f 1f aa 18 3f 80 a6 c9 3e
       0.67821884 0.7525374 0.59634584 0.39384842
000030 ea c3 fb 3e 1b e4 e1 3e a1 0c 04 3f a4 82 ae 3e
       0.49172908 0.44119343 0.5158177 0.34084046
000040 c0 72 f2 3e b5 4e f0 3e b1 63 a4 3e b6 38 51 3e
       0.47353172 0.4693505 0.32107309 0.2043179
000050 21 6f 04 3e 9e 45 8d 3f c7 fb 8a 3f 9e 58 59 3e
       0.12933017 1.103687 1.0858086 0.21225211

enc2.0.dw.weight f4 [24, 1, 3, 3]
000000 86 f5 71 bd 12 09 40 be 62 b3 98 be 12 94 46 3b
       -0.05907204 -0.1875346 -0.29824358 0.003030066
000010 57 91 3f 3e 37 ed 84 3e 6d 0f 8a 3b 1d 2d 23 3e
       0.18707787 0.2596223 0.0042132647 0.15935178
000020 53 94 21 3e 26 cf 11 3e 5e bf f0 3d 58 c0 97 3e
       0.15779237 0.14239177 0.117552504 0.29638934
000030 34 ce 67 be 84 17 9f bd 0b ef 1c 3e 57 fd 96 be
       -0.22637254 -0.07768157 0.15325563 -0.29490158
000040 5a d6 1c 3d 5d 82 60 be 3d fc 74 3e 78 ab 19 bd
       0.03829036 -0.2192473 0.23924346 -0.03751704
000050 73 6e 3a be 18 52 25 be bf 6d 5e 3e f7 bc 79 be
       -0.18206196 -0.16144598 0.21721552 -0.2438849
000060 d4 b0 e1 3d 78 47 78 3e 32 f9 94 bd d9 aa 5f 3d
       0.110200554 0.24246013 -0.07274093 0.054606292
000070 ff 80 8d 3e a6 5c a9 3e d5 29 54 be 54 f6 02 be
       0.2763748 0.33078498 -0.20719083 -0.12789279
000080 b4 25 ee bb c5 f5 f3 3b c9 39 4e 3e 56 61 81 3e
       -0.007267678 0.0074450695 0.20139231 0.25269574
000090 91 c4 ad 3e 23 03 5e be 0b 40 4e 3e 09 5d a9 3e
       0.3393903 -0.21680884 0.20141618 0.33078793
0000a0 10 05 06 3e f3 86 9c 3d 83 6d a3 3e 16 04 cd 3c
       0.13087869 0.07642927 0.31919488 0.025026362
0000b0 9a 56 45 3e 94 81 b2 be 7d ad eb 3d 7a 35 09 be
       0.19271317 -0.34864485 0.115077 -0.13399306
0000c0 a7 21 2e be 46 28 29 3e fd 80 89 3e d0 ae a2 be
       -0.17005025 0.1651927 0.26856223 -0.31773996
0000d0 fa ad c3 bd 47 ee 13 3e 6e 5d 5f bd 76 d4 05 be
       -0.09554668 0.14446364 -0.05453246 -0.13069329
0000e0 1c eb 4e be 9a 57 58 3e 80 0d cf 3d 6a cb 74 3e
       -0.20206875 0.21127167 0.10109997 0.23905721
0000f0 4b 11 8c 3e dd 2f b1 3d b2 20 85 bd 5e 68 d8 be
       0.27356943 0.08651707 -0.06500377 -0.42267126
000100 44 33 99 be 01 fd 9e 3c 69 f3 7c be 94 0d 28 bd
       -0.29921925 0.019407751 -0.24702229 -0.041028574
000110 e0 68 8c bd cb ea 0a be 11 47 02 be 56 82 84 be
       -0.06855941 -0.13566129 -0.12722422 -0.25880688
000120 5e 2f ef bb dd 4b 88 be d2 d3 a1 be 54 ef 57 be
       -0.007299348 -0.2662038 -0.3160692 -0.2108739
000130 8f 55 a3 be a7 06 cb 3d 30 79 39 be 1a cd 8f be
       -0.31901214 0.09913378 -0.18112636 -0.28086168
000140 f5 1f b0 bc f3 22 d0 3e c4 fc 52 3b 88 72 17 3e
       -0.021499613 0.40651664 0.0032194117 0.14789784
000150 bd 0a 7a be 47 7d 4f be 6a ae e1 3d a6 c2 ae 3e
       -0.24418159 -0.20262633 0.11019595 0.3413288
000160 ee 04 0f 3e 66 e6 10 be 5e 8d d3 be 7f 6d ac be
       0.13966724 -0.1415039 -0.41318792 -0.3367729
000170 85 b9 18 be 12 8a 56 be 20 7d cc bd c8 29 83 be
       -0.1491452 -0.20951107 -0.09984803 -0.25617814
000180 2a 91 9c 3e 85 af 8e 3e 02 01 b4 3e fc c6 14 bd
       0.305795 0.27868286 0.3515702 -0.03632258
000190 90 4d 8f bd c3 88 83 be 4a 96 68 bc f3 a9 02 be
       -0.06997216 -0.25690278 -0.014195988 -0.12760143
0001a0 5a 8c 18 3e 50 8e 13 be cb 70 7f 3d 66 9e 3e 3e
       0.1489729 -0.14409757 0.062363427 0.18615112
0001b0 f8 4d 61 be c1 fa e6 be 97 1d e6 bd 41 6d 16 be
       -0.22002399 -0.45113185 -0.112361126 -0.14690115
0001c0 8f 8f 58 3e a0 18 99 3e e8 28 ae 3e b4 02 b6 3e
       0.21148513 0.299016 0.34015584 0.35548937
0001d0 ee 30 62 bd 18 0a 02 bd 50 68 2a 3e e6 9e 26 3d
       -0.055222444 -0.031747907 0.16641355 0.04067888
0001e0 15 8d 28 be 9b 1f 8a be 8b 40 91 bd 36 43 55 be
       -0.16460069 -0.26977238 -0.07092389 -0.2082642
0001f0 bb e3 65 be e5 fc 2d be f1 a8 12 be c5 93 e9 be
       -0.22450154 -0.16991003 -0.14322259 -0.45620552
000200 39 4c 9d bd af 60 5b be 46 4c 39 3e ef d8 2a be
       -0.07680554 -0.214236 0.18095502 -0.16684316
000210 51 51 aa bd 73 15 15 be 1e e2 a6 3d d9 8f 76 3e
       -0.08316291 -0.14558963 0.08148597 0.24078311
000220 ca 17 26 3e 89 af 16 be 3c 96 5c 3e 9f 47 bd 3e
       0.16220012 -0.14715399 0.21541685 0.36968705
000230 dc 47 27 3d 7d c7 44 3e 65 e7 86 be 9a f2 ce 3d
       0.040840015 0.19216724 -0.26348415 0.10104866
000240 5b d5 88 3e 74 37 88 be 15 cd 41 3e fa 4e ec bd
       0.26725277 -0.26604807 0.18925889 -0.11538501
000250 e6 72 48 3e b7 7c 50 be 4e 32 9a be 42 7c 60 be
       0.1957508 -0.20360075 -0.30116504 -0.219224
000260 79 9e ca be 00 e0 9a be 2b 41 31 be 56 f4 5f 3e
       -0.3957403 -0.30249023 -0.17310016 0.2187055
000270 99 3f e7 bd de ad a2 3d 7d 0b c0 3c d0 87 4f be
       -0.11291427 0.07943319 0.023442978 -0.20266652
000280 52 e6 5d 3e 6d 58 7e 3e 2d fb 0c bf 2e d7 3b be
       0.21669891 0.2483842 -0.55070764 -0.18343803
000290 32 85 89 be ea fe a2 be 96 bc 82 3e 45 81 83 3e
       -0.26859432 -0.3183511 0.25534505 0.25684562
0002a0 99 35 11 3e 6e 45 bb 3e 03 0e 4e 3e 98 67 18 3e
       0.14180602 0.36576408 0.20122533 0.14883268
0002b0 73 13 a3 be e4 3a 0e 3e d7 a4 4a 3e e6 54 79 3e
       -0.31850776 0.13889652 0.19789444 0.24348792
0002c0 9d 01 f5 bd 38 20 52 be d8 a4 c9 be eb 7e c7 bd
       -0.11963198 -0.20520103 -0.39383578 -0.097410046
0002d0 96 82 cd 3e e5 8b f2 bd 3c da 9b be 06 b1 c5 3e
       0.40138692 -0.11843089 -0.30439937 0.3861162
0002e0 63 e8 f9 3c 24 5a 76 be 35 ef 39 be 2c ea 25 be
       0.030506318 -0.24057823 -0.18157656 -0.1620261
0002f0 86 c1 69 3e bd d8 1c 3e 58 a9 41 bc 52 77 95 3e
       0.2282773 0.15317054 -0.01182016 0.29192597
000300 52 48 8d 3e 10 a2 82 bd 0d 24 ad 3c 11 a0 b6 3e
       0.2759424 -0.06378567 0.021135354 0.35668996
000310 45 14 72 3e e6 57 2f 3d 32 45 8d 3c 30 0c 46 3e
       0.23640545 0.042808436 0.017244909 0.19340587
000320 be 82 d1 be 34 f3 d0 be 5b 09 57 be 79 87 54 be
       -0.4092006 -0.4081055 -0.20999663 -0.20754804
000330 09 1f 04 be c7 4a f4 bc 85 cb 4d be 39 30 49 bb
       -0.12902464 -0.029820813 -0.20097168 -0.003069891
000340 03 24 2c be 7e 70 0e be 24 2e 52 be c8 a2 30 3e
       -0.16810612 -0.139101 -0.20525414 0.17249596
000350 7e 30 a5 be a5 58 d5 bd 22 88 d7 3d 34 94 98 be
       -0.3226356 -0.10417298 0.10524012 -0.2980057

enc2.0.pw.weight f4 [48, 24, 1, 1]
000000 65 c9 f3 3d 05 cf 65 be 02 e8 03 be 9e 3f e4 3d
       0.11903647 -0.22442253 -0.12881473 0.111449465
000010 79 99 03 be 94 da de bc ba 03 cd bd 72 37 c4 3d
       -0.12851514 -0.027203836 -0.100104764 0.09580888
000020 dc fc 08 3e 1c 9a e9 bb c6 31 f6 ba 0a 07 e8 3d
       0.13377708 -0.007128967 -0.0018783144 0.113294676
000030 52 8e 01 3e b5 ee d3 bd 98 4d 29 be 9c cb a7 be
       0.12651947 -0.10348264 -0.16533506 -0.3277253
000040 7b 5b 0b 3e bb f9 6a bd 4b a4 69 3d e0 9c aa bd
       0.13609116 -0.057367068 0.057041448 -0.08330703
000050 e2 cd 89 bd f8 76 2f be e9 b9 df bd 62 cb 91 3e
       -0.06728722 -0.17135227 -0.109241314 0.2847548
000060 bc 09 06 3e 40 7e 8b 3d 8d 4e 58 3e 86 c6 24 be
       0.13089651 0.0681119 0.21123715 -0.16091356
000070 7d 5a d2 3d 53 e4 98 bd dd e1 59 bc c5 42 7e 3e
       0.102711655 -0.074654244 -0.013298479 0.24830158
000080 9a d0 72 bd 69 7f 76 3e 1c 58 f6 bd 51 b8 28 3e
       -0.05928097 0.2407204 -0.12028524 0.16476561
000090 96 73 29 be fa f6 52 3d a1 33 8a bd 71 89 26 3e
       -0.16547999 0.051505066 -0.06748129 0.16263367
0000a0 38 90 1e be 91 6d 89 bd 7a d1 a9 be 38 1b c2 3e
       -0.15484703 -0.06710351 -0.3316763 0.3791139
0000b0 4a bc c7 3d 78 13 9d 3d 62 42 02 be e0 a8 97 3d
       0.0975271 0.07669729 -0.12720636 0.07405257
0000c0 d7 a0 6e bd 8c 49 f3 3d 33 09 eb bd c2 60 80 3a
       -0.058258858 0.11879262 -0.11476364 0.0009794461
0000d0 c0 e3 0a 3e 72 58 01 3d 63 a3 e7 3c 83 8c 9c 3d
       0.13563442 0.03157849 0.028276151 0.07643988
0000e0 bb d3 70 be 65 92 32 be 36 d2 22 3e 63 f2 01 3e
       -0.23518269 -0.17438658 0.15900502 0.1269012
0000f0 04 e0 89 be 50 5a 4b be 58 59 fa 3d 28 4d 33 3e
       -0.26928723 -0.1985867 0.12224072 0.17509902
000100 fa d1 3d 3e 7c 5b e1 3d 4e 57 a2 bd a1 e3 c0 bb
       0.18537131 0.110037774 -0.07926808 -0.0058865105
000110 ae 14 5c bd 46 99 bb 3d c2 73 10 3e a5 06 20 bd
       -0.05373066 0.09160094 0.14106658 -0.039068837
000120 58 88 a6 3d 9e 51 99 3d bc 55 21 be ba 97 d0 bd
       0.08131474 0.0748627 -0.15755361 -0.101851895
000130 ad 11 55 be 76 46 a4 3e 11 8f 85 3c 36 b5 ca bd
       -0.20807524 0.32085007 0.016303571 -0.098978445
000140 03 68 58 3b cd 5c 28 be 27 71 c9 3e 06 43 7b be
       0.003302098 -0.1644165 0.3934414 -0.24537286
000150 0f 74 a7 3e 55 46 42 bd 4d 22 06 3e 3f c3 a3 bd
       0.32705733 -0.047430355 0.13099022 -0.079962246
000160 58 5e 3c 3e 40 f5 dd 3b 9f 6a 99 bc da 04 96 be
       0.18395364 0.006773621 -0.018727599 -0.29300576
000170 c9 02 0c bd e7 7e ad be d3 9d 50 3e 30 59 0c be
       -0.034182344 -0.3388588 0.20372705 -0.13705897
000180 ad af d5 3d 1d 81 31 bd c5 ee bd 3d e5 7f a2 3e
       0.10433898 -0.043336023 0.09274057 0.317382
000190 52 71 9a 3d 76 bc 47 3d 13 ba d9 3d 12 56 d5 bd
       0.075411454 0.048763715 0.10631194 -0.10416807
0001a0 cd 04 95 3e 72 26 cb bc b5 26 ec 3c 67 a8 c6 bd
       0.29105225 -0.024798606 0.02882705 -0.09700089
0001b0 24 7c 37 be 8f 53 3d 3d d7 32 ae be 28 d8 cc 3d
       -0.1791845 0.046222266 -0.34023163 0.10002166
0001c0 4c 9e 81 be 4b c1 cc 3e ca ac 3f bd eb 74 a3 bd
       -0.25316083 0.3999122 -0.046795644 -0.07981285
0001d0 e1 bb a9 3d 8b 6d 2d bc 16 d8 05 bc 12 c5 25 3e
       0.08287788 -0.010585199 -0.008169195 0.16188458
0001e0 4e f7 ab be ea f1 ab bd 87 68 be bd c0 65 4b be
       -0.33587116 -0.08395751 -0.09297281 -0.19863033
0001f0 38 b5 0d 3e 07 12 f8 3d 4e 09 ef bc 04 e7 28 be
       0.1383866 0.121128134 -0.029179242 -0.16494375
000200 ee 32 f6 3d 9d b7 07 3e 2e 3b da bd 6a 6c c1 3d
       0.12021433 0.13253637 -0.10655819 0.094445065
000210 14 49 12 be fd 0d 47 3e 68 28 91 bc c3 cf a4 3d
       -0.1428569 0.1943893 -0.017719463 0.0804744
000220 1c 8e 32 ba ab c1 50 be 19 cb 5b bd 8e e5 1f 3e
       -0.0006811337 -0.20386378 -0.053660486 0.15614912
000230 df ff cf 3e 6f 49 2e 3d fa a1 cd be 47 3c 85 3e
       0.40624902 0.0425505 -0.4016264 0.2602255
000240 e0 89 6a 3e 44 9a d9 bd a8 66 f0 3b e8 48 96 3d
       0.22904158 -0.10625127 0.0073364563 0.073381245
000250 bd dc e3 3d c1 3b 52 3e 08 e9 c8 3c 87 98 37 3d
       0.11126087 0.20530607 0.02452518 0.044823196
000260 9d 94 bf 3d 68 78 89 3e da 32 c8 3e 72 98 e9 bd
       0.093545176 0.26849675 0.39101297 -0.1140603
000270 55 ad c2 3e c0 43 b3 3d c9 a0 6b 3e ba 3a b9 bb
       0.38022867 0.08753157 0.23010553 -0.0056527527
000280 70 ae fe 3d 47 27 95 3e 26 79 ed be 2d 42 87 3e
       0.12435615 0.2913153 -0.4638149 0.26417676
000290 54 4a f9 bb d7 97 05 be 68 fb e5 bd 09 b1 32 3e
       -0.0076077376 -0.13046204 -0.112295926 0.17450346
0002a0 61 ec 4c be 50 42 9e 3d a2 4e 92 3d 41 1b 1d 3c
       -0.20012046 0.07727492 0.07143904 0.009589017
0002b0 e8 f5 12 3e 20 16 c0 3e 40 e8 52 be a2 7e 13 be
       0.14351618 0.3751688 -0.20596409 -0.14403775
0002c0 6d 4f 74 be 63 ad a4 3d 1a a7 ac bc 5a 9d 83 bd
       -0.23858424 0.080408834 -0.021075774 -0.06426497
0002d0 95 06 58 be b3 9f 67 3e dc d9 a7 3e da d1 c2 bc
       -0.21096261 0.22619514 0.327834 -0.023781706
0002e0 c4 a8 0a be 86 df e9 3e 50 1e 5b be fe 70 88 3d
       -0.13540941 0.45678347 -0.21398282 0.066621765
0002f0 c6 f7 8b 3e 49 a5 20 be 11 29 e7 3d af 52 7c be
       0.27337474 -0.15688051 0.1128713 -0.24640916
000300 5f 0d fa bd 6a 89 98 bd 24 c5 78 be 7d 49 36 be
       -0.122095816 -0.07448085 -0.24293953 -0.17801471
000310 b4 ec 2e be 3d 21 d2 bd f6 47 b9 bd 9f 77 d1 bd
       -0.17082483 -0.10260246 -0.090469286 -0.10227894
000320 1c c8 89 3e 8a 95 e3 bd b3 3d 96 3d dd 83 93 bd
       0.26910484 -0.11112507 0.07335987 -0.07202885
000330 7f 7d 37 3e 7f 3e 73 3e 4c e6 85 3d 1a 0d 01 3e
       0.17918967 0.23754309 0.06538066 0.12602654
000340 ff b7 a7 3d 6c 51 d7 bd 00 fb 88 be 89 0e 5c be
       0.08189391 -0.10513577 -0.26753998 -0.2148992
000350 8a 25 ab bc 67 01 95 be 85 1a c2 3e 04 94 6b be
       -0.020891923 -0.29102632 0.37910858 -0.23005682
000360 c3 0a d0 bd 15 79 08 be 3c 0a b0 3d d8 03 16 be
       -0.10158303 -0.13327439 0.08595702 -0.14649904
000370 23 cf ad be 41 5a 60 3e bd 84 84 3c bf d8 55 be
       -0.33947095 0.21909429 0.016176576 -0.20883463
000380 36 72 62 3e 12 00 d1 3d 7d 06 10 be 58 23 c3 bd
       0.2211388 0.102050915 -0.14064975 -0.09528226
000390 26 17 49 be 5b 54 c2 3d 58 9a 3c 3e fc 82 dc 3e
       -0.19637737 0.09488746 0.18418252 0.43068683
0003a0 ee 7f 43 3e 6e cb 9c 3e 97 b2 73 3e 91 ae 0c bd
       0.1909177 0.30623955 0.23798595 -0.034346167
0003b0 ca 3c f4 bd 1a 39 99 3d 8f 58 23 be 17 39 02 bc
       -0.11925657 0.074815944 -0.15951751 -0.007948182
0003c0 f0 0a 49 3e 31 b8 b8 bd ed 75 fe 3d 25 0a 4e 3e
       0.19633079 -0.09019507 0.12424836 0.20121057
0003d0 c0 e7 f9 bd eb 12 f0 bd bb de ac be 9f fb 74 3d
       -0.12202406 -0.11722358 -0.3376368 0.059810277
0003e0 2a e6 64 3e 3f e3 ef bd 2f b8 19 3e 34 6b 8c bd
       0.22353426 -0.11713266 0.15011667 -0.06856385
0003f0 39 65 8f 3d 0c b4 4f bd ea 78 86 bd 80 e3 8e bd
       0.070017286 -0.050708815 -0.06566031 -0.06976986

enc2.0.bn.weight f4 [48]
000000 0f 40 77 3f cc 6c 6c 3f 34 60 7d 3f 49 4a 87 3f
       0.9658212 0.9235351 0.9897492 1.0569545
000010 c3 06 63 3f a3 f9 68 3f 6a 3e 74 3f 14 80 64 3f
       0.8868219 0.91005915 0.95407736 0.8925793
000020 a3 25 78 3f a7 62 9a 3f 38 63 68 3f 7e d4 70 3f
       0.9693243 1.2061356 0.90776396 0.9407424
000030 03 98 83 3f 33 a3 76 3f a9 43 88 3f 91 e9 7d 3f
       1.0280765 0.9634277 1.0645648 0.9918452
000040 e2 68 5d 3f a6 e0 8f 3f 1d 37 6c 3f 62 d7 91 3f
       0.86488163 1.1240432 0.92271596 1.1393855
000050 4a 2d 66 3f e7 33 86 3f c1 f2 71 3f 18 25 68 3f
       0.89912856 1.0484589 0.9451104 0.906816
000060 a4 36 74 3f 62 d5 75 3f 71 9f 81 3f 64 81 91 3f
       0.95395875 0.9602872 1.0126783 1.1367612
000070 73 01 86 3f 9d 15 7b 3f 2a 57 81 3f 07 ad 7f 3f
       1.0469192 0.98079854 1.0104725 0.99873394
000080 b1 bf 80 3f 17 a1 b2 3f 97 9a 7d 3f 58 00 ae 3f
       1.00585 1.3955411 0.9906401 1.3593855
000090 a9 a4 84 3f 9b 3f 95 3f e9 a4 81 3f 19 a9 7b 3f
       1.036275 1.1660036 1.0128452 0.983049
0000a0 b4 85 76 3f 1f 6a 69 3f 47 aa 8f 3f 13 23 6f 3f
       0.96297765 0.9117755 1.122384 0.93412894
0000b0 f9 bf 65 3f ff c2 8b 3f 49 dd 87 3f 91 4d 7c 3f
       0.8974605 1.0918883 1.0614406 0.98555857

enc2.0.bn.bias f4 [48]
000000 97 3b a2 bc bb 2b 7b bd 35 dd ea bd e9 82 20 3e
       -0.019803805 -0.061321 -0.11467973 0.15674938
000010 60 d1 2e be 59 55 bc ba 22 65 67 bd cc f4 eb 3d
       -0.17072058 -0.0014368697 -0.056492932 0.11521301
000020 e4 fe f0 bd 85 59 3e 3e 75 0f 96 bd 3f 46 e2 3c
       -0.117673665 0.18588836 -0.07327167 0.027621387
000030 61 01 47 3e 08 e8 94 3d 36 5e f0 ba be 22 24 be
       0.1943412 0.07270819 -0.0018338624 -0.16028878
000040 f5 a4 2d be 5a 9c 93 3d ec 05 53 3c 4c 2c c1 3e
       -0.16957457 0.07207556 0.01287983 0.37729108
000050 c5 d3 d8 bd df 97 0e bd 6c 2f ef bd dd 7d b3 bd
       -0.10587267 -0.034812804 -0.11678967 -0.08764241
000060 ba d1 fe 3a 4f b1 0d bc 17 a3 91 bd bf fc 4c bd
       0.0019441165 -0.008648231 -0.07111185 -0.050045725
000070 63 2a 16 3d 5b b4 3f 3d fa 88 0c 3e 00 c9 7b 3d
       0.036661517 0.04680286 0.13724127 0.061470985
000080 84 b3 18 be 52 05 96 3e f8 ce 11 bd b6 52 cc 3c
       -0.1491223 0.29300934 -0.03559777 0.024941783
000090 38 9a f3 3c c8 01 16 3e 7c af 15 3f 8e b9 47 bd
       0.029736623 0.14649117 0.5847089 -0.048760943
0000a0 f9 b4 a9 bd 19 ee ee bd 45 0b 59 bd 77 79 ae bd
       -0.08286471 -0.11666507 -0.052989263 -0.08519261
0000b0 01 40 35 3e d1 33 be 3d d7 47 f4 3d f1 32 30 bd
       0.17700197 0.09287227 0.11927765 -0.04301733

enc2.0.bn.running_mean f4 [48]
000000 6a 26 c5 be d1 21 9d 3d 47 a7 06 bd a7 48 0c bf
       -0.3850587 0.076724656 -0.03287437 -0.5479836
000010 8b 63 b6 3e ea 25 4e 3e 4d 72 a4 be fd c1 67 bd
       0.3562282 0.2013165 -0.32118455 -0.056581486
000020 df f3 12 bf b4 43 80 bd 84 ad 9a be df 0e 0b 3e
       -0.5740337 -0.06262913 -0.30210507 0.13579892
000030 80 fe 6c bc 6f 42 68 be 42 83 81 be 81 ed e7 bb
       -0.014464974 -0.22681592 -0.25295454 -0.007077873
000040 33 c6 06 bf 7c 9e 7f 3c 8e 41 34 be a8 f4 7c 3e
       -0.5264618 0.01560175 -0.17603132 0.24702704
000050 f7 99 60 3b 52 bc 64 3e 2e 0e 02 be b2 00 2b 3c
       0.0034271458 0.22337463 -0.12700722 0.0104371775
000060 6a e1 ad 3d 9e 08 c6 3d 08 90 e9 3e 2e 2a 43 bf
       0.0849026 0.09669612 0.456177 -0.76236236
000070 ae 0c fd bc dd 94 77 3e 02 3e 28 be 31 f4 08 bf
       -0.030889835 0.2417788 -0.16429904 -0.53497607
000080 0a 9b 0a be 5b aa 0f be f0 8d 3a bf a2 5e 77 3e
       -0.13535705 -0.14029829 -0.7287283 0.24157193
000090 5e 38 05 3e c5 3c 1a be 44 1b 6f 3c 9e ef 42 be
       0.13009784 -0.15062244 0.014593903 -0.19036719
0000a0 a5 fe a9 bd b1 22 b3 be ea 5b 08 3f bd 0b 1e 3e
       -0.08300523 -0.34987405 0.5326525 0.15434165
0000b0 d9 ae 40 3e 3d 94 7a bd d8 9e 07 3e 10 f0 bb be
       0.18816699 -0.061176527 0.13244188 -0.3670659

enc2.0.bn.running_var f4 [48]
000000 6f 99 12 3e b4 cb 4d 3e 49 e3 e9 3e 52 29 10 3f
       0.14316343 0.20097238 0.45681217 0.5631305
000010 1f a1 ba 3d 89 a6 bc 3e 8e 1a cc 3e dd ac 25 3e
       0.09112763 0.36845806 0.3986401 0.16179223
000020 0d 42 62 3f c2 3e 5a 3f a2 30 8b 3e 3d 91 7c 3e
       0.88382035 0.8525201 0.2718554 0.24664779
000030 2b 2f e4 3e e1 79 f8 3e 68 37 76 3f ac 63 94 3e
       0.44567236 0.48530486 0.96178293 0.28982294
000040 5c b9 5c 3e 2a 54 39 3f 0d 09 d4 3d 71 a4 d8 3e
       0.21555084 0.7239405 0.10353289 0.4231296
000050 8e 8c a8 3e 8f 30 25 3f 36 27 6c 3e d4 00 4e 3f
       0.32919735 0.6452722 0.23061833 0.80470014
000060 3c 63 be 3e 21 a9 9e 3e 9c 28 72 3f 99 d1 5e 3e
       0.37185085 0.3098841 0.94593215 0.21759643
000070 ad 04 14 3e 8c a8 38 3e 8a e9 22 3f 59 ef 16 3f
       0.14454909 0.18033046 0.636376 0.58958966
000080 68 cb aa 3e 5f 5e c9 3e 28 ab ee 3e 23 49 b7 3f
       0.33358312 0.39329812 0.46614957 1.4319195
000090 45 ab 8a 3e fa cb b8 3e f8 dc af 3e 48 69 93 3e
       0.27083793 0.36093122 0.34348273 0.2879126
0000a0 b8 0d 62 3e aa de 24 3f 33 bd 06 3f db e2 85 3e
       0.22075546 0.6440226 0.52632445 0.2614964
0000b0 4d af 83 3e a1 0c 65 3f 70 b7 ed 3e 30 00 62 3e
       0.2571968 0.89472395 0.46429014 0.22070384

enc2.1.dw.weight f4 [48, 1, 3, 3]
000000 ae ef db bb 27 39 24 3e 91 77 01 3e db 30 8b 3e
       -0.0067119217 0.16037427 0.12643267 0.2718571
000010 65 50 a4 bd 4b b6 72 3e 81 9b 8a 3d f1 2b 83 be
       -0.080231465 0.23702352 0.06767941 -0.25619462
000020 d2 4c a7 3d ca 8e fb bd 3c a4 9e 3e f4 10 ea bd
       0.08168949 -0.12283094 0.30984676 -0.11429015
000030 79 65 e4 bd bb 36 52 be eb 55 32 be 66 07 a6 be
       -0.11152167 -0.2052869 -0.17415588 -0.3242752
000040 4b 43 81 be cc fd f4 bd 44 95 d9 3d 55 25 24 bd
       -0.25246653 -0.119624704 0.10624173 -0.040074665
000050 2c 3f dd bc 90 0d 9b 3d 17 d9 4d bd 73 1f 12 be
       -0.027007662 0.07570946 -0.05025586 -0.1426981
000060 e6 20 c7 3e 0a 83 56 3e 31 1d 73 3e 85 0b cd be
       0.38892287 0.20948425 0.23741604 -0.4004785
000070 8f 5e 3a be ff a0 82 be dd a6 d6 bd f1 18 fa bd
       -0.18200134 -0.25513455 -0.104810454 -0.122117884
000080 30 90 5a 3d 9c 86 88 3e e0 d5 8a 3d cd bf 95 bd
       0.053360164 0.266652 0.06779075 -0.07311974
000090 14 de 64 3a 6a 7d de bd 59 00 70 3e eb b5 40 be
       0.0008730602 -0.108637646 0.23437633 -0.18819396
0000a0 c0 14 b2 be b5 16 66 3e 3b b0 13 be ec fd 98 be
       -0.34781456 0.224696 -0.14422695 -0.29881227
0000b0 61 d2 8b bd cf 24 40 3e a6 63 3b 3e 0b a5 1b 3e
       -0.06827236 0.18764041 0.18299732 0.15199678
0000c0 17 21 27 be f9 04 40 3e bb 0e 21 be 6b 52 33 be
       -0.16321217 0.18751897 -0.15728275 -0.17511909
0000d0 94 14 be bd d2 ae 69 3e 45 94 d8 bd cb fb 97 3e
       -0.09281269 0.22820595 -0.10575155 0.2968429
0000e0 75 8e 61 3e b1 f4 95 3d 6d 7e 95 3e 94 78 82 3e
       0.22027 0.07322062 0.29198018 0.2548262
0000f0 61 00 c7 bd ef 7e 83 3c 8c 3a 4a be c7 bf 67 be
       -0.09716869 0.016051738 -0.19748896 -0.22631751
000100 7e d8 94 3d 4e d8 40 3d 2d b4 79 be 9e 4d 15 bd
       0.07267855 0.047081284 -0.24385138 -0.036450975
000110 d9 e2 2f be 31 ed 0e bd ca 0a a0 3e 13 a7 53 3c
       -0.1717638 -0.034894172 0.3125823 0.012918252
000120 9b a5 b9 bd 89 9d b2 be f8 aa 46 bd 37 3e c4 be
       -0.0906479 -0.34885815 -0.048502892 -0.38328716
000130 3a 74 e2 3d 9e cf 74 be f0 fe 26 3e 15 52 95 3e
       0.11057325 -0.23907325 0.16308188 0.29164186
000140 2f cc 8b be f2 51 8d 3d a7 89 aa be c0 fa a7 be
       -0.27304217 0.069003955 -0.33308145 -0.32808495
000150 b7 82 68 3d 7e 41 01 3e 8b 57 77 be 8a 49 df 3e
       0.056765284 0.1262264 -0.24154489 0.43610793
000160 70 bf a4 3e d5 60 4b 3e 00 33 ca 3d 80 b5 54 be
       0.32177305 0.19861157 0.09873009 -0.20772362
000170 58 06 a8 be 19 86 0b be 67 6e 27 3e a9 69 de bd
       -0.3281734 -0.13625373 0.16350709 -0.10859997
000180 4b 41 7b be eb 67 91 b9 36 7a 07 3e e6 17 4e 3e
       -0.24536626 -0.0002773398 0.13230214 0.20126304
000190 3a c3 8e 3e 6f e7 f5 bd 14 d6 2d 3e ec 9a 08 be
       0.2788332 -0.12007033 0.16976196 -0.13340348
0001a0 30 bc 1e bd b1 de b6 3d 7e 49 82 3e 10 ee b2 be
       -0.03875369 0.08929194 0.25446695 -0.34947252
0001b0 68 fc e3 bc 53 60 b7 bd 28 eb cc be 7a ac 79 be
       -0.027830318 -0.08953919 -0.4002316 -0.24382201
0001c0 7f da 77 bd 54 19 35 3e 34 ad bf 3e c3 c6 e1 3d
       -0.06051111 0.17685443 0.3743683 0.11024239
0001d0 fc ac db 3c dd d3 a1 3e 5e f4 46 3c ce 0d 3b be
       0.026815884 0.3160695 0.012143223 -0.18266985
0001e0 bc 6a 53 3e 2c 86 63 3d a5 78 f1 bd e0 84 b4 bc
       0.20646185 0.05554788 -0.11790589 -0.022036016
0001f0 9b 30 e4 bd fa f4 e2 3d 6e 0a 60 3d 63 8f 22 be
       -0.11142083 0.11081882 0.054697447 -0.1587501
000200 78 47 f6 bd 36 ff 6b be 63 48 55 be aa d1 8e 3b
       -0.1202535 -0.23046574 -0.20828395 0.00435849
000210 7f a7 4b bd 6a 49 4f be b8 e3 76 3d e6 9a da bd
       -0.049720284 -0.20242849 0.060275763 -0.10674076
000220 20 18 56 3e 4d e9 09 be 6c be af 3e 23 6a 18 3e
       0.2090764 -0.13467903 0.34324968 0.14884238
000230 37 e5 37 bc 5d 02 a3 3e 5c 4f 9f 3d 18 8f 27 3e
       -0.011224083 0.3183774 0.077788085 0.1636318
000240 1c 27 3d 3e a6 3a 10 be 29 39 2c bd 84 24 b7 be
       0.1847195 -0.14084873 -0.0420467 -0.35770047
000250 cf 6b c8 bd 76 45 29 3d c6 b1 6a 3d ee 56 df bd
       -0.09786188 0.04132601 0.057298444 -0.109052524
000260 ee 04 d3 3e e2 27 82 3e 77 33 98 3e 9c f1 f0 3e
       0.412147 0.25421053 0.29726765 0.47059333
000270 c2 ce b5 3e c2 34 d1 bd 13 a5 46 3e 47 3e 8b 3e
       0.35509306 -0.10215141 0.19398908 0.2719595
000280 5f 7f 64 3e 33 23 55 be d3 fe 78 be c7 10 71 bc
       0.22314213 -0.20814209 -0.24315958 -0.014713473
000290 1c 21 c6 3d 9c 0b 53 3e 89 b5 61 3e 03 db 55 be
       0.09674284 0.20609897 0.22041906 -0.20884328
0002a0 be 5d d9 3d 4f 8f 58 3e eb 27 0e 3d 85 00 03 3f
       0.10613583 0.21148418 0.034706037 0.5117267
0002b0 3a 97 e9 3e 95 1c cf 3e 1b ea e2 bc 8c 8b 9d be
       0.4562319 0.40451494 -0.02769952 -0.30770528
0002c0 2e 6e b3 be e1 09 b9 bb f7 a7 c2 be 51 0f 08 3d
       -0.35044998 -0.0056469296 -0.38018772 0.033217732
0002d0 a2 c2 47 bd aa 2b fc 3d cf 21 91 be b3 fd db 3d
       -0.0487696 0.12313016 -0.28346106 0.10741749
0002e0 ee 02 83 be cd 8b 8a 3d 14 37 2a be 4b 50 f6 bc
       -0.25588173 0.06764946 -0.16622573 -0.030067584
0002f0 ae 76 6a 3c 6b 3e bc be f5 e0 5c 3d 36 9d 8e 3d
       0.014310522 -0.3676637 0.053925473 0.06963579
000300 35 d7 92 3c 38 3e c6 bd ae 54 3a bd 6f 0e 5f be
       0.017924884 -0.09679836 -0.045490913 -0.2178285
000310 e3 f3 fe be c5 a0 07 bf 56 ab 53 3d 41 0e bb 3e
       -0.49795446 -0.5297969 0.05167707 0.36534312
000320 77 65 34 be 4a ec 6d be 05 70 87 be ad 2c 23 be
       -0.17616831 -0.23234668 -0.26452652 -0.15935011
000330 36 03 c1 3d 6e 0d 66 be 36 f7 f0 bc 65 83 e9 bc
       0.094244406 -0.2246606 -0.029414754 -0.028505037
000340 a8 bc a1 be 30 b7 b5 3d 39 12 d8 3d 17 b3 89 bd
       -0.31589246 0.08872831 0.10550351 -0.06723612
000350 64 d1 13 be 4f 82 a1 bd fe 4e 81 be 65 79 ab 3e
       -0.14435345 -0.078861825 -0.2525558 0.33491054
000360 17 88 c8 bc 0f f2 dd bc 83 9c 96 3e 8e 6c 79 be
       -0.024478955 -0.027092962 0.29416284 -0.24357817
000370 42 35 9b bd f7 5b 96 3e 14 86 2b bd 4b 22 86 3e
       -0.075785175 0.2936704 -0.041875914 0.26198038
000380 ff 05 3d be cf ce 90 be 31 15 56 3d 3f 7e 30 be
       -0.18459319 -0.28282782 0.052266303 -0.17235659
000390 4f c3 80 bd bc ff 68 be f4 7a 5a be 7c 69 87 be
       -0.06287252 -0.22753805 -0.21335965 -0.26447666
0003a0 59 a6 0c 3e a8 2f 6e 3e 9b c6 55 3d e0 fb 9b 3e
       0.13735332 0.23260367 0.052191358 0.30465603
0003b0 00 45 12 be 50 8b a8 3e fa 8c 5a 3e 67 48 4a 3e
       -0.14284134 0.32918787 0.21342841 0.19754182
0003c0 b6 ff f0 3d 69 3d 22 be 2f 9b bc bc 4e ce ae be
       0.11767523 -0.15843739 -0.023023216 -0.34141773
0003d0 41 f4 81 be 79 1f ee 3b 9c 78 b9 bc 18 ae 82 be
       -0.25381663 0.0072669354 -0.022640519 -0.25523448
0003e0 21 9f 4b bd 85 92 9a 3e f9 12 52 3e 19 8e 6a 3e
       -0.049712304 0.3018991 0.2051505 0.22905768
0003f0 0d 1a 04 be c2 1b bd bd ad da fc 3e db 0c c8 bd
       -0.12900563 -0.0923381 0.49385586 -0.09768077
