models/psmnetlite_best.pth (torch, 306321 bytes, 31 tensors)

feature.0.weight f4 [16, 3, 3, 3]
0.1553775 0.16498159 -0.0401954 0.18624508 -0.03592121 0.04384756 -0.089692876 0.11094601
0.16787732 -0.13274333 0.17396277 0.04230473 0.15064213 0.032609805 0.09900376 -0.020446265
0.15298855 0.033000447 -0.082183994 0.055603858 -0.082381256 -0.015007892 -0.07173045 0.13387538
-0.1452643 -0.08322478 -0.04893666 -0.11234383 0.020275833 -0.18653199 0.17489699 -0.16276278
0.14925353 0.03275476 -0.06218779 0.11945375 0.039426163 0.16477196 0.030785132 -0.051800743
0.060831442 -0.04199649 0.08954811 0.1802424 0.120377004 -0.075401455 0.11982964 0.043484885
0.10540617 -0.10937702 -0.18201071 -0.06669827 -0.14002335 0.1657058 0.05290941 0.07741632
0.05812172 -0.0065581216 0.14766288 -0.13994831 0.009866315 -0.13341612 0.056848608 -0.0694466
0.05602068 -0.043560565 0.1553182 -0.1179224 -0.11900349 -0.11805153 0.17000228 0.060713883
0.18399711 -0.15973781 -0.19288123 -0.15325794 -0.13177252 0.07484866 0.066854306 0.15813804
-0.10169339 -0.12707968 0.106479175 -0.07383056 0.120512806 -0.041863482 0.11329883 -0.14564914
-0.0934457 0.06141696 0.043653887 -0.04580883 0.11755163 0.1326952 -0.13779363 -0.10197099
0.17792328 -0.06398978 -0.06858323 -0.18436189 -0.10649311 0.051668927 -0.025960494 -0.1411125
0.0016696629 -0.13427335 -0.16774638 -0.11124465 -0.1685858 -0.12271506 0.19217107 0.033824924
0.057465855 -0.18094638 -0.13044499 -0.066729866 0.028139047 -0.1672321 -0.08082962 -0.11343789
0.00050485885 -0.07109774 -0.011565192 -0.1336825 -0.13302386 -0.11213011 -0.06733345 -0.1532666
0.15961246 -0.041399695 0.16289161 0.057182558 -0.16742879 0.12964441 -0.056037404 -0.07347821
-0.15931015 -0.1908698 0.05671653 -0.04026074 0.07664175 -0.15639046 0.1444976 -0.13968277
-0.03406385 0.039497778 0.09865262 0.1560674 0.1760728 -0.15182795 0.049123973 -0.08205776
-0.02041523 -0.1449393 0.17449743 -0.14201845 0.10340112 0.068233535 0.063138664 -0.10342253
0.1755444 0.04292954 0.021579651 -0.173119 0.07741877 -0.032053005 -0.0915733 0.1619962
0.041161064 -0.108182974 -0.09872505 -0.011256649 0.105060875 -0.051403254 -0.11162028 -0.06789928
-0.14562163 0.06831482 0.14869462 -0.18106782 0.04312044 0.09753546 0.03316376 -0.06975316
0.099049285 0.099860325 0.07218763 -0.0336261 -0.05052602 0.018269166 -0.03600079 -0.058409825
0.11955436 0.16206905 -0.02162115 -0.047053527 -0.0009886655 -0.014614349 0.041679684 0.049574606
-0.17799519 -0.0764812 0.15655386 0.07007406 -0.015770389 -0.122130774 -0.12318854 -0.17563583
-0.06582096 0.06255666 0.117993966 0.08426749 -0.17422268 -0.120921105 -0.03584824 0.18113314
0.025055833 -0.052374918 0.076685585 -0.07420517 -0.1250267 0.13951936 -0.08832262 -0.038938202
-0.19199578 0.1238734 0.14107208 0.06484822 -0.13666607 -0.1918322 -0.15917553 0.14090787
0.090626396 0.15966964 0.090410344 0.038409803 -0.012355812 -0.15647385 -0.17460087 -0.19000328
0.07049837 -0.10191183 -0.04602292 -0.11431599 -0.037917554 -0.1353753 -0.122796796 0.06621897
-0.05378848 0.122245505 -0.05850003 -0.13701394 -0.039396584 -0.09804725 -0.06356162 -0.18261996
00000000: 481b 1f3e eff0 283e efa3 24bd 08b7 3e3e
00000010: 1e22 13bd 8099 333d e6b0 b7bd a937 e33d
00000020: 08e8 2b3e deed 07be 4c23 323e b947 2d3d
00000030: ee41 1a3e dc91 053d 7cc2 ca3d ed7e a7bc
00000040: 08a9 1c3e 7a2b 073d 1550 a8bd dfc0 633d
00000050: 81b7 a8bd a9e3 75bc 6ae7 92bd a116 093e
00000060: 2ac0 14be c171 aabd cf71 48bd 8614 e6bd
00000070: 8119 a63c 3e02 3fbe 3218 333e 49ab 26be
00000080: ebd5 183e db29 063d a0b8 7ebd 2ba4 f43d
00000090: 547d 213d fbb9 283e 1a31 fc3c 042d 54bd
000000a0: 642a 793d 8304 2cbd 0065 b73d 7791 383e
000000b0: 3888 f63d 146c 9abd 3e69 f53d 351d 323d
000000c0: 31df d73d 0f01 e0bd 0461 3abe 1a99 88bd
000000d0: 4862 0fbe c8ae 293e 8ab7 583d 738c 9e3d
000000e0: 0a11 6e3d 83e5 d6bb f034 173e 9c4e 0fbe
000000f0: 53a6 213c 3c9e 08be 16da 683d 053a 8ebd
00000100: f175 653d 906c 32bd bc0b 1f3e 4d81 f1bd
00000110: 1ab8 f3bd 00c5 f1bd 1415 2e3e 1faf 783d
00000120: bd69 3c3e 4f92 23be a882 45be a6ef 1cbe
00000130: 60ef 06be 414a 993d e9ea 883d f0ee 213e
00000140: a044 d0bd 2d21 02be c111 da3d 7a34 97bd
00000150: 6bcf f63d 0b79 2bbd 3809 e83d 0c25 15be
00000160: 7660 bfbd 5a90 7b3d 6bce 323d 0aa2 3bbd
00000170: e9be f03d 40e1 073e c619 0dbe 2bd6 d0bd
00000180: 8531 363e 130d 83bd 5d75 8cbd 5dc9 3cbe
00000190: 0f19 dabd cca2 533d 1aab d4bc cc7f 10be
000001a0: 97d8 da3a f47e 09be b5c5 2bbe 3cd4 e3bd
000001b0: c2a1 2cbe 0952 fbbd 7ec8 443e 018c 0a3d
000001c0: 5161 6b3d 024a 39be 5f93 05be aba9 88bd
000001d0: dc83 e63c e43e 2bbe 008a a5bd 2052 e8bd
000001e0: 8158 043a b19b 91bd ee7b 3dbc 11e4 08be
000001f0: 6837 08be 79a4 e5bd 1fe6 89bd ebf1 1cbe
00000200: 7371 233e ba92 29bd 0fcd 263e 4238 6a3d
00000210: 7472 2bbe 81c1 043e 7a87 65bd be7b 96bd
00000220: 3322 23be 5f73 43be 984f 683d 72e8 24bd
00000230: 5af6 9c3d d224 20be 2ef7 133e 0009 0fbe
00000240: 8986 0bbd 6cc8 213d 630a ca3d 22d0 1f3e
00000250: 6e4c 343e c978 1bbe 3836 493d e60d a8bd
00000260: d73d a7bc f86a 14be 74af 323e 496d 11be
00000270: f7c3 d33d 06be 8b3d d84e 813d 31cf d3bd
00000280: e9c1 333e e3d6 2f3d cfc7 b03c 1b46 31be
00000290: bb8d 9e3d 034a 03bd c88a bbbd 55e2 253e
000002a0: 8198 283d 098f ddbd 5c30 cabd cf6d 38bc
000002b0: 282a d73d 388c 52bd 2c99 e4bd c70e 8bbd
000002c0: d61d 15be a4e8 8b3d 6743 183e d869 39be
000002d0: 0f9f 303d acc0 c73d b9d6 073d bfda 8ebd
000002e0: 5ada ca3d 9283 cc3d 1cd7 933d 85bb 09bd
000002f0: 5ff4 4ebd 38a9 953c 9075 13bd 243f 6fbd
00000300: ebd8 f43d 6ef5 253e d71e b1bc 33bb 40bd
00000310: 1c96 81ba 0671 6fbc 51b8 2a3d be0e 4b3d
00000320: 5f44 36be 2da2 9cbd a84f 203e fd82 8f3d
00000330: e730 81bc b31f fabd 464a fcbd e1d9 33be
00000340: 24cd 86bd b51d 803d d2a6 f13d 6f94 ac3d
00000350: 6e67 32be 7ca5 f7bd 9bd5 12bd f77a 393e
00000360: e441 cd3c 1587 56bd 550d 9d3d e1f8 97bd
00000370: 0007 00be 2ade 0e3e 7de2 b4bd aa7d 1fbd
00000380: 8b9a 44be 56b1 fd3d 3375 103e 25cf 843d
00000390: 31f2 0bbe a96f 44be e9fe 22be 274a 103e
000003a0: 559a b93d 7080 233e 0f29 b93d 9953 1d3d
000003b0: 0870 4abc ae3a 20be 92ca 32be 3890 42be
000003c0: 7361 903d 26b7 d0bd 8882 3cbd 801e eabd
000003d0: 704f 1bbd d39f 0abe e37c fbbd d09d 873d
000003e0: 4f51 5cbd da5b fa3d ba9d 6fbd 624d 0cbe
000003f0: 505e 21bd ffcc c8bd 982c 82bd ba00 3bbe

feature.1.weight f4 [16]
1.0096055 1.0022278 1.0008641 1.0055337 0.9939391 1.0002091 0.98975223 0.99362
1.0071827 1.0067624 1.0017374 1.0033879 0.9950583 0.9970036 0.9998425 1.0069427
00000000: c13a 813f 0049 803f 511c 803f 54b5 803f
00000010: cb72 7e3f da06 803f 6760 7d3f e15d 7e3f
00000020: 5deb 803f 97dd 803f ee38 803f 046f 803f
00000030: 24bc 7e3f a13b 7f3f aef5 7f3f 80e3 803f

feature.1.bias f4 [16]
0.008837035 0.0042832135 0.0012520882 0.004394317 -0.0018858307 -0.00019430011 -0.0028432573 -0.0064604487
0.008209503 0.0128625585 0.0029242963 0.0070559965 -0.011040131 0.004988765 0.0031427469 0.010066119
00000000: 36c9 103c 335a 8c3b 1c1d a43a 34fe 8f3b
00000010: fa2d f7ba 0abd 4bb9 f155 3abb 2cb2 d3bb
00000020: 2781 063c 7bbd 523c 8da5 3f3b fd35 e73b
00000030: aae1 34bc cb78 a33b 8bf6 4d3b 5dec 243c

feature.1.running_mean f4 [16]
93.77409 46.991753 -16.613201 -88.83389 -125.62619 -1.3158305 -18.000362 -21.6202
-61.09797 -71.52189 -90.93103 43.16662 -172.97446 -32.9707 37.740402 -77.9704
00000000: 568c bb42 8ef7 3b42 d6e7 84c1 f4aa b1c2
00000010: 9c40 fbc2 226d a8bf be00 90c1 2bf6 acc1
00000020: 5264 74c2 350b 8fc2 b0dc b5c2 9eaa 2c42
00000030: 76f9 2cc3 ffe1 03c2 2cf6 1642 d8f0 9bc2

feature.1.running_var f4 [16]
1952.194 516.8922 128.7724 2091.484 3517.1323 121.96648 111.758026 149.68074
969.3729 1160.5369 2201.4685 649.37103 6743.1113 330.73932 327.8538 1350.0723
00000000: 3506 f444 1a39 0144 bcc5 0043 beb7 0245
00000010: 1ed2 5b45 d6ee f342 1c84 df42 45ae 1543
00000020: de57 7244 2e11 9144 7f97 0945 bf57 2244
00000030: e4b8 d245 a25e a543 49ed a343 50c2 a844

feature.3.weight f4 [16, 16, 3, 3]
-0.02620421 0.052706264 -0.06020934 0.058982387 -0.026193693 0.0073910295 -0.00992285 0.016542152
-0.018575637 0.06806478 0.0050841784 0.07232539 0.087624155 -0.033195224 -0.05316845 0.07402607
0.07235188 -0.056375768 -0.014248277 -0.08973125 -0.0761019 0.008135733 0.014273445 0.010437336
-0.030770132 0.06958875 0.004235601 -0.058535334 -0.013572364 0.011439523 0.018922795 -0.0688061
0.02159371 -0.052467104 -0.07888058 -0.05500152 0.07219242 0.06383713 0.06751058 0.039833657
0.05445793 -0.019413278 -0.05456435 0.033245705 -0.051527314 -0.054254297 -0.02448074 0.019100644
0.04652096 -0.028126724 -0.044959348 0.01594316 -0.043798838 -0.048931703 0.03952587 -0.017453907
0.07283976 0.076201916 0.019790662 0.023389893 0.015525899 -0.0023407948 -0.010069561 -0.0067421207
0.023024438 0.069357716 -0.03222573 -0.045750383 -0.031221326 -0.050425887 0.00411842 0.052052487
0.055612456 0.029192803 -0.07008349 -0.054293007 -0.027706627 -0.024537792 -0.0027084313 -0.08602753
0.016310118 -0.071628444 -0.06014234 -0.076834984 0.064376175 -0.08640239 0.055170067 -0.01108271
-0.017408708 0.044117514 -0.016489388 0.043909434 0.052015647 -0.08155216 0.023211705 0.0070504253
0.008711995 0.0031830713 0.013914446 -0.032948848 -0.0035556718 0.08635479 0.0631106 0.0042752377
-0.07069678 0.0106872665 -0.049347594 0.075551644 -0.05904872 -0.013785374 -0.02618684 0.0062442906
0.07049958 7.9866615e-05 0.03956027 0.056458373 0.05906623 -0.038832396 -0.028329344 0.030504487
-0.03336547 0.028778905 -0.028510896 -0.06580978 0.024808334 0.00343744 0.03814676 0.08423731
0.059503116 0.08122442 0.0075613856 -0.06787203 -0.054149095 -0.047158416 -0.068587966 -0.049065325
-0.083405085 -0.08359961 -0.05775983 -0.089643486 -0.058647294 0.023685994 0.06155169 -0.032905802
-0.032542065 0.036107663 -0.049472988 -0.04801651 0.04267912 -0.08126547 0.0013485715 0.06466516
0.0052917367 0.01256573 -0.05881221 -0.01265362 -0.0056470823 0.00908981 0.02080762 0.062360734
-0.073876075 -0.007904936 -0.039606664 -0.06408172 -0.004730406 -0.07159335 0.05967814 0.011384249
-0.042752907 0.045635294 -0.07641157 -0.029107565 -0.012980199 -0.067409866 -0.050175738 -0.010679046
0.06629247 0.083988994 0.05665454 -0.046003833 -0.05302634 0.07425599 0.03138231 0.0031482016
0.012204716 -0.065657675 -0.026069943 0.08192236 -0.01845525 -0.0069604376 -0.07247093 -0.049275476
-0.004732393 -0.055483516 -0.013644715 0.033464562 -0.08277992 0.024158122 -0.055482622 -0.040851578
0.032448627 0.06699772 -0.022157365 -0.033240452 -0.07203729 -0.03942075 -0.06912635 -0.017313046
0.018349487 -0.076417305 0.07321103 0.052676674 -0.080690645 -0.038896345 0.027754016 -0.016189676
-0.0065160897 -0.0350057 0.06969933 -0.04211309 0.072496 0.008949207 0.022570271 0.07102472
-0.0075614215 -0.0449676 -0.011140313 0.07026334 -0.059797358 0.020726293 -0.0796782 0.04659844
0.033372298 0.0064945603 0.03786142 0.0023150777 0.04850446 -0.06422668 -0.010420388 0.038997646
0.08544885 0.044994183 -0.057844486 0.054078314 -0.02959379 -0.028408334 -0.0861022 -0.024135645
0.04849164 0.0011700558 -0.059561327 0.01524109 -0.024305368 0.07848634 -0.06964369 -0.024239989
00000000: 36aa d6bc 86e2 573d 129e 76bd 8497 713d
00000010: 2894 d6bc 7330 f23b 7393 22bc 6883 873c
00000020: ef2b 98bc 8c65 8b3d 2e99 a63b 561f 943d
00000030: 4b74 b33d b7f7 07bd 29c7 59bd fb9a 973d
00000040: 392d 943d 47ea 66bd 9b71 69bc 05c5 b7bd
00000050: 50db 9bbd bd4b 053c 2bdb 693c 5c01 2b3c
00000060: a511 fcbc 8c84 8e3d ccca 8a3b bfc2 6fbd
00000070: 9f5e 5ebc d66c 3b3c fa03 9b3c 36ea 8cbd
00000080: 4be5 b03c bfe7 56bd 248c a1bd 4649 61bd
00000090: 9fd9 933d 0bbd 823d fd42 8a3d 9e28 233d
000000a0: 470f 5f3d 9808 9fbc de7e 5fbd a62c 083d
000000b0: 4e0e 53bd c139 5ebd d58b c8bc f478 9c3c
000000c0: c38c 3e3d 046a e6bc 4b27 38bd 3b9b 823c
000000d0: 6966 33bd 9c6c 48bd e1e5 213d 7ffb 8ebc
000000e0: 032d 953d c00f 9c3d 0720 a23c 299c bf3c
000000f0: 5760 7e3c 0568 19bb cdfa 24bc 02ed dcbb
00000100: bf9d bc3c 6b0b 8e3d 21ff 03bd c164 3bbd
00000110: dec3 ffbc 608b 4ebd d0f3 863b fd34 553d
00000120: e3c9 633d bf25 ef3c ef87 8fbd 5862 5ebd
00000130: 02f9 e2bc 7b03 c9bc f07f 31bb 342f b0bd
00000140: cc9c 853c efb1 92bd d057 76bd a95b 9dbd
00000150: a8d7 833d bcf3 b0bd 02fa 613d 4194 35bc
00000160: b59c 8ebc 91b4 343d c114 87bc 61da 333d
00000170: 5c0e 553d d204 a7bd 7926 be3c 4107 e73b
00000180: c1bc 0e3c 139b 503b 6bf9 633c 5ff5 06bd
00000190: 4606 69bb c8da b03d 2140 813d 4b17 8c3b
000001a0: 79c9 90bd a519 2f3c b420 4abd d2ba 9a3d
000001b0: 12dd 71bd 0ddc 61bc c985 d6bc e89c cc3b
000001c0: 1562 903d 107e a738 f309 223d e540 673d
000001d0: 6eef 713d b80e 1fbd f112 e8bc 8ce4 f93c
000001e0: 3baa 08bd bdc1 eb3c af8f e9bc 47c7 86bd
000001f0: d93a cb3c ac46 613b c73f 1c3d 9c84 ac3d
00000200: 8ab9 733d fd58 a63d 80c5 f73b 7e00 8bbd
00000210: 71cb 5dbd 2f29 41bd d977 8cbd b9f8 48bd
00000220: 49d0 aabd 4636 abbd 9295 6cbd 0197 b7bd
00000230: 2538 70bd 2109 c23c a01d 7c3d 3cc8 06bd
00000240: d44a 05bd a1e5 133d 30a4 4abd f6ac 44bd
00000250: 4dd0 2e3d 836e a6bd 8dc2 b03a 2b6f 843d
00000260: 4e66 ad3b 7ee0 4d3c 12e5 70bd 2151 4fbc
00000270: 290b b9bb 6ded 143c be74 aa3c f86d 7f3d
00000280: 574c 97bd b483 01bc 993a 22bd 473d 83bd
00000290: 8601 9bbb 899f 92bd 1171 743d 0085 3a3c
000002a0: ac1d 2fbd 13ec 3a3d ab7d 9cbd fd72 eebc
000002b0: e7aa 54bc 2f0e 8abd 1385 4dbd 2af7 2ebc
000002c0: 59c4 873d 6c02 ac3d 970e 683d 846e 3cbd
000002d0: 2632 59bd 8613 983d bd8a 003d 0f52 4e3b
000002e0: 4af6 473c 8877 86bd a290 d5bc e9c6 a73d
000002f0: 772f 97bc 6214 e4bb a46b 94bd 15d5 49bd
00000300: 3112 9bbb af42 63bd 158e 5fbc 2312 093d
00000310: 8588 a9bd 41e7 c53c bf41 63bd fc53 27bd
00000320: dae8 043d 1a36 893d 5d83 b5bc 2427 08bd
00000330: 4988 93bd a777 21bd 1e92 8dbd 17d4 8dbc
00000340: aa51 963c ad80 9cbd aaef 953d 7fc3 573d
00000350: 2341 a5bd c651 1fbd 645c e33c 36a0 84bc
00000360: ec84 d5bb 2362 0fbd 86be 8e3d c77e 2cbd
00000370: c878 943d b29f 123c 4ae5 b83c 6975 913d
00000380: cdc5 f7bb f22f 38bd dc85 36bc 3ae6 8f3d
00000390: 13ee 74bd 30ca a93c 532e a3bd 01de 3e3d
000003a0: 64b1 083d 52d0 d43b 9414 1b3d 8fb8 173b
000003b0: 9dac 463d 4789 83bd 46ba 2abc ffbb 1f3d
000003c0: cfff ae3d d24b 383d 57ee 6cbd 3981 5d3d
000003d0: ad6e f2bc 98b8 e8bc 5a56 b0bd 1eb8 c5bc
000003e0: 2b9f 463d 8f5c 993a 94f6 73bd c4b5 793c
000003f0: 0d1c c7bc 72bd a03d 5aa1 8ebd f192 c6bc

feature.4.weight f4 [16]
0.997693 1.0015308 0.99654555 1.0058771 0.9987387 1.000514 0.99960494 0.989585
0.9949228 0.9990563 1.0074507 1.0024354 1.002204 1.0012487 1.0000802 1.0075471
00000000: cf68 7f3f 2932 803f 9c1d 7f3f 95c0 803f
00000010: 57ad 7f3f d810 803f 1ce6 7f3f 7155 7d3f
00000020: 43b3 7e3f 27c2 7f3f 25f4 803f ce4f 803f
00000030: 3848 803f eb28 803f a102 803f 4ef7 803f

feature.4.bias f4 [16]
0.0070707267 0.010474724 -0.0013105989 0.010304503 0.010562296 0.0055246665 0.007674843 -0.009159673
0.0036720228 0.0066997213 0.0052316175 0.010530003 0.0054710247 0.008447673 0.012911291 0.01039259
00000000: 8eb1 e73b 2d9e 2b3c 67c8 abba 38d4 283c
00000010: 7b0d 2d3c 4308 b53b 407d fb3b 7412 16bc
00000020: 52a6 703b 5689 db3b fd6d ab3b 0986 2c3c
00000030: 4846 b33b 1c68 0a3c e189 533c af45 2a3c

feature.4.running_mean f4 [16]
-0.16825606 -0.18517545 0.008422255 -0.26402515 -0.054985277 0.47207472 -0.38105458 0.15581082
-0.1378788 0.3148807 -0.54435587 0.2813418 -0.7229073 -0.49783286 0.30674547 0.09215066
00000000: 514b 2cbe a29e 3dbe 7ffd 093c 4e2e 87be
00000010: 3e38 61bd c7b3 f13e 9619 c3be df8c 1f3e
00000020: 1a30 0dbe 0b38 a13e e85a 0bbf 080c 903e
00000030: 7410 39bf f3e3 febe be0d 9d3e 7cb9 bc3d

feature.4.running_var f4 [16]
0.21751682 0.17757125 0.05054558 0.29476434 0.2558486 0.58856064 0.0984456 0.27160868
0.16238818 0.25045314 0.16783941 0.19565089 0.7447865 0.13282815 0.08303758 0.29875407
00000000: bbbc 5e3e 3dd5 353e e208 4f3d 5aeb 963e
00000010: 96fe 823e e9ab 163f d99d c93d 4b10 8b3e
00000020: 1649 263e 653b 803e 18de 2b3e b558 483e
00000030: 54aa 3e3f 1a04 083e 9b0f aa3d 4bf6 983e

feature.6.weight f4 [32, 16, 3, 3]
0.08570032 0.07415458 0.054662928 -0.006885504 0.031536944 -0.042065766 -0.024956552 0.04249146
0.04056168 0.029502332 -0.08307621 0.066008694 -0.037562292 0.06904969 0.06572845 0.027953139
0.079981774 0.045300715 0.040236287 -0.036274962 0.07117154 0.014718738 0.04259204 -0.02311943
0.05364235 0.06761619 -0.06852579 0.07320283 -0.05002531 -0.052607607 -0.06444972 0.029266864
-0.05771415 -0.027128454 -0.03763354 0.0262411 -0.08629947 -0.04360628 -0.005770531 0.0020379873
-0.04283272 0.023920596 -0.058189627 -0.073108196 -0.01560905 -0.048783038 0.048695993 -0.06041925
-0.010927208 0.030587632 -0.07662384 0.060413986 -0.041875117 -0.026123798 -0.055090867 -0.03428985
-0.035745114 -0.07738613 0.025770891 -0.0034458272 0.07708643 0.052673455 0.0682627 0.020704996
0.040214244 0.07406926 0.064744905 -0.06717618 -0.02197689 -0.08437425 0.00025475986 -0.032894216
0.06645444 0.0066292235 -0.0039568283 -0.065379135 -0.072648615 0.007168208 -0.044425786 -0.042653903
0.05440357 -0.048268232 -0.040944155 0.060759954 0.027693288 -0.051287286 0.02196075 0.037249014
-0.07791813 0.012247051 0.016792394 -0.004684315 0.07973419 -0.057633385 0.043375067 -0.044823676
-0.07399152 0.05455989 -0.040991697 0.006275346 0.046421926 -0.067419104 -0.06871132 0.031379815
0.074953474 -0.0062158788 0.061418265 0.03144236 0.028028382 -0.04910682 0.08393901 0.043256205
0.01776928 0.06414927 -0.06621799 0.02328397 -0.03371378 -0.018199015 0.017557561 0.02863044
0.008493155 -0.075501606 -0.06140991 -0.0071924413 -0.02300275 -0.07716011 0.07774428 0.006667304
-0.062791 0.031248923 0.03160056 -0.045146853 0.036619585 -0.056209102 0.024660146 0.08329577
0.059346065 0.045000587 -0.01244661 0.02051819 0.033346143 0.02514805 -0.011808607 0.0161297
-0.038184457 -0.051383544 -0.081397094 -0.0714476 -0.05558459 0.07622941 0.012592988 -0.078693315
-0.045583326 0.024260813 -0.020765267 -0.01939697 -0.0265595 -0.016227478 0.013653985 0.011266278
0.05910911 0.058880884 0.06988287 0.0001335923 -0.034421556 0.0023729345 -0.051272847 0.03682847
-0.007849803 -0.022869864 -0.06682623 0.034078166 0.040318895 0.06973559 -0.03682513 0.018691381
-0.0034235916 -0.059400268 -0.058502145 0.036145702 -0.045549482 0.06345852 0.03185025 0.030393982
0.057498645 0.04352408 0.038083468 0.045877386 -0.032722395 -0.040156476 -0.011128248 0.050871156
0.06235009 0.06549259 -0.02170352 -0.0061901305 -0.052756403 0.056334022 -0.049815495 -0.029068792
0.07392253 0.026045773 -0.029167052 -0.050389387 -0.0519284 0.07241912 -0.070943 0.07972066
0.07406945 0.012921101 -0.00045912727 0.070763305 0.04324518 0.0852147 0.07328738 -0.048038714
0.052975 0.04389766 -0.057969615 0.043092083 -0.039032605 -0.045505267 0.002829684 -0.008048966
-0.02069564 -0.049461387 0.04972365 0.08969352 -0.01425854 -0.05197698 0.001061332 -0.06708088
-0.06343878 -0.021069417 0.0457197 -0.070125155 -0.019098016 -0.051331684 -0.084443204 -0.026239896
-0.013934232 -0.022613779 0.052149035 0.027206946 0.045990113 0.026777582 0.0013148721 0.03799662
-0.06029788 0.035754718 0.033166036 -0.041925382 -0.010420658 -0.0705787 -0.0806751 -0.008498179
00000000: a683 af3d 5bde 973d 3ce6 5f3d cb9f e1bb
00000010: e22c 013d 274d 2cbd af71 ccbc 860b 2e3d
00000020: 0124 263d e0ae f13c dc23 aabd 912f 873d
00000030: ebda 19bd ed69 8d3d a39c 863d fbfd e43c
00000040: 7ccd a33d 3e8d 393d cece 243d 0e95 14bd
00000050: 62c2 913d dd26 713c fe74 2e3d f564 bdbc
00000060: 15b8 5b3d 5b7a 8a3d 4057 8cbd 5eeb 953d
00000070: 57e7 4cbd 137b 57bd 37fe 83bd 10c1 ef3c
00000080: ac65 6cbd 7e3c debc a025 1abd 93f7 d63c
00000090: c7bd b0bd 809c 32bd b916 bdbb c18f 053b
000000a0: 5d71 2fbd 20f5 c33c 3f58 6ebd c0b9 95bd
000000b0: 1abd 7fbc b9d0 47bd 7375 473d 2d7a 77bd
000000c0: 0808 33bc ea92 fa3c f6ec 9cbd a874 773d
000000d0: 3e85 2bbd 9301 d6bc f6a6 61bd 8473 0cbd
000000e0: 7869 12bd 9f7c 9ebd 7a1d d33c 63d3 61bb
000000f0: 7ddf 9d3d 1fc0 573d 51cd 8b3d 869d a93c
00000100: b1b7 243d a0b1 973d fa98 843d aa93 89bd
00000110: e108 b4bc 68cc acbd 4a91 8539 16bc 06bd
00000120: 4419 883d f539 d93b 48a8 81bb 7fe5 85bd
00000130: ccc8 94bd 49e3 ea3b d0f7 35bd dcb5 2ebd
00000140: 47d6 5e3d e9b4 45bd 0fb5 27bd 6edf 783d
00000150: 09dd e23c 9e12 52bd 08e7 b33c 6c92 183d
00000160: 8a93 9fbd dba7 483c 3490 893c e27e 99bb
00000170: ae4b a33d fc10 6cbd 0eaa 313d 0899 37bd
00000180: de88 97bd 317a 5f3d e9e6 27bd 6ba1 cd3b
00000190: eb24 3e3d 0713 8abd 85b8 8cbd 1f88 003d
000001a0: 3581 993d 92ae cbbb b891 7b3d b4c9 003d
000001b0: c79b e53c 3c24 49bd 37e8 ab3d 6b2d 313d
000001c0: e290 913c b160 833d 4c9d 87bd 06be be3c
000001d0: 7617 0abd 1a16 95bc e0d4 8f3c 628a ea3c
000001e0: e026 0b3c 96a0 9abd f588 7bbd 92ae ebbb
000001f0: 4370 bcbc 1f06 9ebd 6538 9f3d 6679 da3b
00000200: 9198 80bd befd ff3c 976f 013d e8eb 38bd
00000210: 6bfe 153d 843b 66bd 1304 ca3c f996 aa3d
00000220: dc14 733d 8952 383d deec 4bbc c315 a83c
00000230: f795 083d 4903 ce3c e378 41bc 6f22 843c
00000240: 4e67 1cbd 8d77 52bd 85b3 a6bd 1f53 92bd
00000250: abac 63bd 2a1e 9c3d d252 4e3c f629 a1bd
00000260: 95b5 3abd 9dbe c63c ec1b aabc 65e6 9ebc
00000270: 4f93 d9bc 7def 84bc f7b4 5f3c 3296 383c
00000280: 651c 723d 152d 713d c01e 8f3d e914 0c39
00000290: 9efd 0cbd 3c83 1b3b 7a03 52bd 73d9 163d
000002a0: 769c 00bc 9559 bbbc 31dc 88bd 8c95 0b3d
000002b0: 6d25 253d 88d1 8e3d f3d5 16bd ab1e 993c
000002c0: 565e 60bb b24d 73bd f29f 6fbd 840d 143d
000002d0: 1892 3abd 8af6 813d 6875 023d cdfc f83c
000002e0: b383 6b3d 4e46 323d 69fd 1b3d ede9 3b3d
000002f0: eb07 06bd 1e7b 24bd 4153 36bc 465e 503d
00000300: cf62 7f3d fb20 863d 95cb b1bc 94d6 cabb
00000310: 1917 58bd 81be 663d 550b 4cbd ad21 eebc
00000320: b264 973d f25d d53c beef eebc 1a65 4ebd
00000330: e0b2 54bd 7a50 943d 904a 91bd 9644 a33d
00000340: b9b1 973d 07b3 533c 05b7 f0b9 5aec 903d
00000350: dc21 313d 0b85 ae3d b217 963d 3ec4 44bd
00000360: 50fc 583d 08ce 333d 8c71 6dbd 5381 303d
00000370: a7e0 1fbd bb63 3abd 3872 393b cfdf 03bc
00000380: e789 a9bc 0698 4abd 07ab 4b3d 3cb1 b73d
00000390: a79c 69bc d0e5 54bd 641c 8b3a b361 89bd
000003a0: 31ec 81bd c599 acbc 9544 3b3d c79d 8fbd
000003b0: 7173 9cbc 2c41 52bd 8ff0 acbd 0df5 d6bc
000003c0: 684c 64bc 8840 b9bc 3a9a 553d 1ae1 de3c
000003d0: 2160 3c3d a95c db3c c957 ac3a 58a2 1b3d
000003e0: e9fa 76bd 8a73 123d 1cd9 073d f3b9 2bbd
000003f0: 68bb 2abc 918b 90bd fd38 a5bd f23b 0bbc

feature.7.weight f4 [32]
1.0012245 1.0022655 1.009019 0.9931698 1.0028229 0.99935615 1.0031499 0.9907512
1.0018604 1.0018657 0.994966 1.0033499 1.003501 1.0000621 0.99867344 0.9990953
1.0047535 1.0012519 1.0043652 0.99306905 0.9972868 0.9964473 1.005158 0.99970156
1.0085163 0.9970597 1.0008674 1.000406 1.0087333 1.0021688 0.99630576 0.99638116
00000000: 2028 803f 3c4a 803f 8927 813f 6040 7e3f
00000010: 805c 803f ced5 7f3f 3767 803f dfa1 7d3f
00000020: f63c 803f 233d 803f 17b6 7e3f c56d 803f
00000030: b972 803f 0902 803f 10a9 7f3f b6c4 7f3f
00000040: c39b 803f 0629 803f 0a8f 803f c639 7e3f
00000050: 304e 7f3f 2c17 7f3f 04a9 803f 71ec 7f3f
00000060: 1017 813f 4e3f 7f3f 6c1c 803f 4e0d 803f
00000070: 2c1e 813f 1147 803f e50d 7f3f d612 7f3f

feature.7.bias f4 [32]
0.003979265 0.0077186334 0.009531983 0.0030668678 0.004458027 -0.0007328224 0.009722023 -0.0070631215
0.0025890693 0.0064751334 0.00686781 0.0023293623 0.008534517 0.0030325325 0.0031880822 0.009058162
0.010780397 0.004737669 0.012097461 0.006288161 0.009664392 0.0069552944 0.009974811 0.0023490007
0.010077821 0.0031516417 0.006519166 0.004451966 0.011746327 0.011547801 -0.004149523 0.00084830227
00000000: 7f64 823b 97ec fc3b 092c 1c3c 81fd 483b
00000010: a414 923b e11a 40ba 1f49 1f3c c271 e7bb
00000020: 60ad 293b 5b2d d43b 5e0b e13b 37a8 183b
00000030: 5cd4 0b3c 74bd 463b 25ef 503b af68 143c
00000040: 43a0 303c 733e 9b3b 6e34 463c eb0c ce3b
00000050: 6657 1e3c 3de9 e33b 646d 233c b1f1 193b
00000060: 721d 253c c68b 4e3b ba9e d53b cce1 913b
00000070: ab73 403c fd32 3d3c b9f8 87bb 9a60 5e3a

feature.7.running_mean f4 [32]
0.09158982 -0.09965581 0.024621438 0.046655793 -0.23385869 -0.26480654 -0.077914774 0.11762281
0.11420577 0.0018443599 -0.03097798 -0.4186636 -0.4847485 0.20748748 0.032941915 0.19681719
0.3961287 -0.025520349 -0.29111066 0.42731342 0.04406415 0.03455798 -0.60385764 0.03927164
-0.3569789 0.088658296 0.3678701 0.2035397 -0.2094213 -0.19983913 -0.23359704 0.04759988
00000000: 7293 bb3d 5818 ccbd e6b2 c93c 251a 3f3d
00000010: a778 6fbe b994 87be c891 9fbd 3ae4 f03d
00000020: b7e4 e93d 73be f13a 88c5 fdbc 135b d6be
00000030: f530 f8be 9977 543e 1aee 063d 728a 493e
00000040: 62d1 ca3e 0d10 d1bc 750c 95be d3c8 da3e
00000050: 9c7c 343d ab8c 0d3d 6a96 1abf 4ddb 203d
00000060: f0c5 b6be 7b92 b53d 7859 bc3e b66c 503e
00000070: 8a72 56be a1a2 4cbe 1034 6fbe 17f8 423d

feature.7.running_var f4 [32]
0.11563076 0.3868854 0.14330505 0.19002464 0.19481702 0.10461044 0.2861355 0.036886003
0.042862933 0.67869806 0.20031667 0.16695943 0.1705323 0.09848523 0.14080569 0.19332963
0.6952565 0.06673939 0.400492 0.17044935 0.08606598 0.25296634 0.23580107 0.07825419
0.38161427 0.14352624 0.0993713 0.1500772 0.0816475 0.25972602 0.2848965 0.32788303
00000000: d2cf ec3d d815 c63e 8fbe 123e d295 423e
00000010: 1d7e 473e 003e d63d 5a80 923e c715 173d
00000020: 0b91 2f3d 28bf 2d3f d01f 4d3e 6af7 2a3e
00000030: 05a0 2e3e a0b2 c93d 5e2f 103e 34f8 453e
00000040: 54fc 313f a9ae 883d 4a0d cd3e 468a 2e3e
00000050: 5c43 b03d ce84 813e d675 713e bc43 a03d
00000060: f262 c33e 8bf8 123e 2e83 cb3d d6ad 193e
00000070: ce36 a73d cffa 843e f4dd 913e 49e0 a73e

feature.9.weight f4 [32, 32, 3, 3]
-0.0035723685 0.05287765 0.0053185383 -0.036720105 0.021051643 -0.013301257 0.048461672 -0.04930326
-0.014989112 -0.052839577 -0.03818284 -0.022426812 -0.041545644 -0.042899217 -0.0183941 -0.03858252
-0.04037398 -0.0009962238 -0.05280197 0.02484005 0.029972449 0.044032533 0.008480942 -0.014986912
-0.021204008 -0.038688842 0.029490009 0.030220803 0.040099546 -0.012884456 -0.042722773 0.016474308
0.04889178 -0.011956765 0.044461194 0.038873173 0.021721182 -0.014606343 -0.0178658 -0.009470219
-0.003151748 -0.010539991 -0.05774599 -0.04020251 -0.01776647 0.039852016 0.019103382 -0.05774527
-0.048531227 -0.04054334 0.05079616 0.0075116833 0.04095422 -0.05308591 0.05475724 0.04770212
0.0049229264 -0.029444708 0.021074584 -0.033082582 -0.02655941 0.019505437 -0.04723835 0.016572686
-0.0010698884 0.0032121548 0.0046928055 0.015435388 -0.0337217 0.026272943 -0.053203806 0.02773099
-0.044181064 0.059258938 0.01752281 0.018363316 0.017165726 0.014172138 -0.021114547 -0.056724586
0.036301456 0.026966082 -0.019534945 -0.005093101 -0.014083878 -0.023452546 0.030321803 -0.043545395
-0.06318964 -0.01769907 -0.040474266 -0.04434054 -0.021469653 -0.008731084 0.031975724 0.026728371
0.04231433 0.038587864 0.012390344 0.0042424523 0.0041750763 -0.038221803 0.01097866 -0.008426817
-0.009497471 0.056883015 0.03442592 0.04456577 0.0388541 -0.033448447 0.01711119 -0.0016950477
0.025747716 0.03929391 -0.011737503 0.047574025 0.0057107816 -0.009594066 0.036605123 0.042209312
-0.011284749 0.036734253 -0.011611027 7.714495e-05 -0.042446814 -0.026166469 0.0045669023 -0.017347813
-0.009974381 0.009857254 -0.02780375 0.026322957 0.05278119 0.04163426 0.046588536 -0.018118557
-0.0015475948 -0.023086553 -0.029449528 -0.015386954 0.031895403 -0.05478754 -0.032427672 0.027423222
0.027523499 -0.018311488 -0.016198818 -0.010760423 0.039177794 0.03912872 -0.031063467 0.0059824446
-0.06108536 -0.037178457 -0.0056240815 -0.021147951 -0.023329224 0.050599024 0.030170439 0.0064568594
-0.016287986 0.0016324496 0.04831831 -0.011205637 0.0045638946 0.017458707 0.033849634 0.03577337
-0.029739864 0.02057393 0.007315885 0.002471217 -0.057260573 0.048027124 0.019574236 -0.00012263215
0.015532361 -0.021500781 -0.05043489 -0.024080688 -0.06316488 0.040076274 0.014697317 0.0037813636
-0.05123213 -0.049369536 0.021468164 -0.059517372 0.00032038384 0.04696228 -0.049514886 0.041496485
-0.0458266 -0.009926911 0.039875977 0.0465247 0.05488064 0.04907477 -0.055887822 0.010486252
-0.05224236 0.03441797 0.016172025 0.043379698 0.014396281 0.04039684 -0.0027408935 -0.049742013
-0.04278823 -0.00419312 -0.05703187 0.04530125 -0.038781554 -0.0503129 0.050681848 -0.043473553
-0.022208352 0.0027811828 0.019013925 -0.01894654 0.033679362 -0.036590554 0.013296552 -0.056115907
-0.052536484 0.015559279 0.022785546 -0.031677302 0.015076933 -0.021313118 0.027439315 -0.00058503344
-0.021207228 0.0037030762 -0.058816243 0.029614855 0.05086455 0.04588557 -0.038011923 -0.027662039
-0.03030832 0.0039118025 -0.0460577 -0.04585668 -0.025706701 0.047584493 0.010821482 -0.058453277
-0.03277777 -0.047451004 -0.011699317 -0.003095135 -0.04765289 -0.054042213 -0.019593598 -0.005950027
00000000: 661e 6abb 3c96 583d 2247 ae3b d267 16bd
00000010: 7f74 ac3c 84ed 59bc bf7f 463d 37f2 49bd
00000020: e494 75bc 506e 58bd 9c65 1cbd 6fb8 b7bc
00000030: c42b 2abd 17b7 2fbd 39af 96bc b408 1ebd
00000040: 305f 25bd b993 82ba e146 58bd 5c7d cb3c
00000050: c888 f53c 755b 343d a6f3 0a3c aa8b 75bc
00000060: 07b4 adbc 3178 1ebd 0895 f13c 9e91 f73c
00000070: 6c3f 243d 5319 53bc 13fe 2ebd 21f5 863c
00000080: bf42 483d 4fe6 43bc f11c 363d 7a39 1f3d
00000090: 9ff0 b13c 714f 6fbc 4c5b 92bc fa28 1bbc
000000a0: 8f8d 4ebb edaf 2cbc 0f87 6cbd 63ab 24bd
000000b0: fd8a 91bc de3b 233d b27e 9c3c 4e86 6cbd
000000c0: aec8 46bd c610 26bd a20f 503d 9124 f63b
000000d0: 9dbf 273d 9c70 59bd 2149 603d 4c63 433d
000000e0: 8050 a13b 0736 f1bc 9ba4 ac3c 9a81 07bd
000000f0: 1f93 d9bc dec9 9f3c 007d 41bd 71c3 873c
00000100: 7f3b 8cba 0483 523b 1bc6 993b b6e4 7c3c
00000110: c41f 0abd 5b3a d73c 3cec 59bd 1a2c e33c
00000120: 34f7 34bd 80b9 723d ff8b 8f3c aa6e 963c
00000130: 239f 8c3c 4132 683c 6af8 acbc 0a58 68bd
00000140: d6b0 143d f9e7 dc3c c007 a0bc 07e4 a6bb
00000150: 11c0 66bc 8e1f c0bc 6e65 f83c a85c 32bd
00000160: 9269 81bd a4fd 90bc 58c8 25bd 6d9e 35bd
00000170: 20e1 afbc d20c 0fbc faf8 023d 75f5 da3c
00000180: ca51 2d3d 4f0e 1e3d df00 4b3c 4504 8b3b
00000190: 14cf 883b 778e 1cbd d6df 333c a210 0abc
000001a0: 489b 1bbc 2afe 683d 3202 0d3d 998a 363d
000001b0: 7a25 1f3d 3d01 09bd c42c 8c3c 5d2c deba
000001c0: e0ec d23c a7f2 203d a84e 40bc fbdc 423d
000001d0: 8221 bb3b 6e30 1dbc 41ef 153d ace3 2c3d
000001e0: abe3 38bc a876 163d 2d3c 3ebc e1c8 a138
000001f0: b6dc 2dbd 105b d6bc f4a5 953b 001d 8ebc
00000200: 966b 23bc 5280 213c b1c4 e3bc 3ea3 d73c
00000210: 1731 583d b088 2a3d 9fd3 3e3d 5e6d 94bc
00000220: aad8 caba 0320 bdbc 2340 f1bc 9019 7cbc
00000230: c1a4 023d e668 60bd e1d2 04bd aaa6 e03c
00000240: f678 e13c f901 96bc 62b3 84bc 7c4c 30bc
00000250: e578 203d 7045 203d d078 febc 6208 c43b
00000260: a434 7abd 7048 18bd 374a b8bb 783e adbc
00000270: ee1c bfbc ec40 4f3d ff27 f73c 1094 d33b
00000280: 626e 85bc ebf7 d53a 6ce9 453d d997 37bc
00000290: b98c 953b 9005 8f3c eaa5 0a3d 1987 123d
000002a0: 04a1 f3bc a98a a83c 17ba ef3b 24f4 213b
000002b0: 108a 6abd 17b8 443d 265a a03c d196 00b9
000002c0: 727b 7e3c 6822 b0bc d194 4ebd dd44 c5bc
000002d0: 975c 81bd 0527 243d 04cd 703c c1d0 773b
000002e0: c8d8 51bd b637 4abd 01de af3c 7dc8 73bd
000002f0: 31f9 a739 855b 403d 1fd0 4abd 38f8 293d
00000300: acb4 3bbd 7ca4 22bc fe54 233d af90 3e3d
00000310: 86ca 603d a002 493d a1ea 64bd 87ce 2b3c
00000320: 16fc 55bd dbf9 0c3d 327b 843c e9ae 313d
00000330: 61de 6b3c 2877 253d 90a0 33bb 48be 4bbd
00000340: b642 2fbd 7166 89bb 409a 69bd ce8d 393d
00000350: 68d9 1ebd e614 4ebd c597 4f3d 5311 32bd
00000360: 4aee b5bc 8144 363b 17c3 9b3c c635 9bbc
00000370: 5ff3 093d fadf 15bd c8d9 593c cbd9 65bd
00000380: 7f30 57bd 59ec 7e3c c1a8 ba3c 0fc0 01bd
00000390: 3e05 773c d998 aebc 6ac8 e03c ee5c 19ba
000003a0: c8ba adbc 4faf 723b 4de9 70bd da9a f23c
000003b0: 5957 503d 82f2 3b3d 64b2 1bbd 809b e2bc
000003c0: 2749 f8bc 942e 803b 00a7 3cbd 37d4 3bbd
000003d0: dc96 d2bc f5e7 423d 964c 313c b46c 6fbd
000003e0: fc41 06bd fc5b 42bd 7eae 3fbc c0d7 4abb
000003f0: ad2f 43bd 5e5b 5dbd c182 a0bc 72f8 c2bb

feature.10.weight f4 [32]
1.0015029 1.0041661 1.0069278 0.99593425 1.0064951 0.9990405 1.0010906 0.9928752
1.0090967 1.0060852 1.0019827 1.0069389 1.0067244 1.010574 0.9997813 1.0001096
0.99796546 1.0052236 0.9984442 1.0000056 0.99542606 1.0009974 0.9989592 0.9967133
0.99543494 1.0019052 0.990432 0.99989885 0.99528146 0.99911 1.003274 0.9972936
00000000: 3f31 803f 8488 803f 03e3 803f 8cf5 7e3f
00000010: d5d4 803f 1ec1 7f3f bd23 803f 122d 7e3f
00000020: 152a 813f 66c7 803f f840 803f 60e3 803f
00000030: 58dc 803f 7d5a 813f abf1 7f3f 9703 803f
00000040: aa7a 7f3f 2bab 803f 0a9a 7f3f 2f00 803f
00000050: 3ed4 7e3f af20 803f cabb 7f3f 9a28 7f3f
00000060: d3d4 7e3f 6e3e 803f f48c 7d3f 5ff9 7f3f
00000070: c4ca 7e3f acc5 7f3f 486b 803f a24e 7f3f

feature.10.bias f4 [32]
0.012750645 0.011011513 0.012733924 0.0035455546 0.0128688095 0.0044407174 0.011653424 -0.0016017029
0.017298657 0.0123443045 0.00824571 0.014706012 0.013775259 0.015156007 0.0091840895 0.0048532872
0.0043517533 0.012092488 0.006752253 0.010659494 -0.0013993955 0.008923368 0.011534961 0.006950398
0.0030304352 0.0075173695 -0.0067536943 0.012481315 -0.0006760438 0.007433317 0.012726282 0.0050055115
00000000: 15e8 503c a269 343c f3a1 503c 895c 683b
00000010: b3d7 523c 7083 913b 01ee 3e3c 3bf0 d1ba
00000020: eab5 8d3c c43f 4a3c 0419 073c 7cf1 703c
00000030: a0b1 613c e750 783c dd78 163c 5308 9f3b
00000040: 2799 8e3b 921f 463c 0142 dd3b 29a5 2e3c
00000050: ec6b b7ba 5133 123c 22fd 3c3c 2ac0 e33b
00000060: 449a 463b 4454 f63b 184e ddbb 6e7e 4c3c
00000070: 8838 31ba 2f93 f33b e581 503c 4605 a43b

feature.10.running_mean f4 [32]
-0.36606035 -0.53288287 -0.3678579 0.40877956 -0.4494005 -0.29131883 0.079084456 -0.1712988
-0.29275882 -0.7028257 -0.5937092 -0.6248834 -0.5208566 -0.5357633 -0.089747064 -0.25048417
-0.2987672 -0.74397105 -0.29957476 -0.24213485 -0.19509448 -0.74989134 0.23905137 0.104851194
-0.3333087 -0.55806327 -0.32920808 -0.2629534 -0.470537 -0.10840669 -0.05363087 -0.24757934
00000000: 436c bbbe 036b 08bf df57 bcbe 8e4b d13e
00000010: d317 e6be be27 95be 08f7 a13d f468 2fbe
00000020: 7ce4 95be 63ec 33bf 53fd 17bf 5cf8 1fbf
00000030: dc56 05bf c927 09bf 4fcd b7bd 763f 80be
00000040: 04f8 98be e374 3ebf dd61 99be 33f2 77be
00000050: d9c6 47be e1f8 3fbf e2c9 743e 39bc d63d
00000060: 70a7 aabe 3cdd 0ebf f68d a8be d4a1 86be
00000070: 3aea f0be 5404 debd 0bac 5bbd 7085 7dbe

feature.10.running_var f4 [32]
0.3937977 0.06649718 0.51616526 0.3687068 0.4611301 0.6473665 0.62248826 0.5366108
0.47948354 0.3867539 0.45769265 0.32025847 0.47601888 0.22809047 0.40686777 0.5916064
0.27738962 1.0673125 0.480696 0.3633819 0.1261253 0.24682988 0.6163114 0.16892661
0.28781292 0.33138523 0.07196286 0.83196485 0.4492585 0.3831537 0.25510812 0.36412084
00000000: da9f c93e ac2f 883d 6823 043f 23c7 bc3e
00000010: 3f19 ec3e d0b9 253f 645b 1f3f 535f 093f
00000020: de7e f53e 9b04 c63e b156 ea3e ebf8 a33e
00000030: bfb8 f33e 8c90 693e f950 d03e 8473 173f
00000040: 0306 8e3e b29d 883f c91d f63e 310d ba3e
00000050: fe26 013e f9c0 7c3e 95c6 1d3f 19fb 2c3e
00000060: 375c 933e 53ab a93e 4461 933d a6fb 543f
00000070: 3605 e63e b92c c43e 889d 823e 0c6e ba3e

aggregation.0.weight f4 [32, 32, 3, 3, 3]
0.019184051 0.013332176 0.018707845 -0.011997955 0.0030661335 -0.033695053 -0.018568713 -0.008712211
-0.00609971 0.023969196 0.0200571 0.004246566 0.022154387 -0.024561932 0.0015330443 -0.034489773
-0.03502352 0.013585999 0.0024792515 -0.008570988 -0.026668856 0.016168764 -0.009126357 0.018928736
-0.030079769 0.020521935 -0.00514707 -0.014465527 -0.0059392084 -0.028519474 -0.009262502 -0.00060464
-0.026696822 0.013744861 0.02866822 0.0146686705 -0.016997544 -0.020874511 -0.025893643 -0.020279704
0.021819834 0.017680043 -0.014198323 -6.683324e-05 -0.0054305075 0.0025786036 -0.03203335 0.031004181
-0.008825305 -0.026310202 0.0030003458 0.011499808 0.016973563 -0.015444344 -0.0037755014 -0.025610566
-0.024729433 -0.022970673 -0.020125955 0.023488184 -0.0315358 -0.006700545 -0.012659556 0.024863906
0.0012330363 -0.014346951 0.031442914 -0.021132661 -0.006987186 -0.027996697 0.0010316123 0.0144250505
0.03448607 -0.01946326 -0.016580503 0.04113735 0.013600302 -0.01495322 0.01913095 0.03789364
0.007050725 -0.027245035 -0.029937875 -0.024154093 0.005401696 -0.036013946 0.018891795 -0.033001978
-0.002746044 0.021557212 -0.025215812 -0.033021852 -0.0293308 -0.026218373 -0.032908585 -0.04587407
-0.0284845 -0.023997327 0.016855357 -0.017281273 -0.0078510875 -0.022864146 -0.0064206873 0.0041264966
-0.006486325 -0.015592324 -0.009217089 0.019904321 -0.0292396 0.027301429 -0.013557405 0.016442427
0.018986188 -0.006343712 -0.004390777 0.018717444 -0.010107626 0.005113641 0.027815824 -0.011155256
-0.016244723 0.02139762 0.02531215 0.029423604 -0.03508753 0.01879027 0.019210868 -0.020342672
0.023303395 -0.016231237 0.019668076 0.0037636503 0.013193787 -0.0185853 -0.004799832 -0.028117549
0.010355157 -0.036958486 -0.0077054244 0.0046526385 -0.01142795 -0.019333344 0.00050614984 -0.0064467434
-0.025769023 -0.016320864 -0.01519379 -0.026050813 -0.00623896 -0.018651059 -0.026204724 -0.034050282
-0.029398344 -0.010898893 0.023170117 -0.008710507 -0.02134165 -0.029247176 0.0014344017 0.025314284
-0.034483287 0.022341432 0.023836898 0.0009447072 0.011603938 0.0037182467 -0.035065845 -0.01769398
-0.014738655 -0.026063507 -0.005658992 0.0044788443 -0.0011796923 0.017625108 -0.021778177 0.027549928
-0.013273751 0.025419282 0.02966601 -0.027534025 -0.03273448 0.025574898 0.026932947 -0.0031930588
0.008040858 0.007067849 -0.010359788 0.01858182 0.013094454 -0.039496128 -0.015680999 -0.025898866
0.007711486 -0.0399738 -0.034389466 -0.036189795 -0.017235192 -0.031112563 -0.0117199095 -0.024055196
0.01762844 0.024394032 0.008811764 -0.01639394 0.010188081 -0.03228883 -0.019324519 -0.008539275
-0.032978017 0.030845655 0.020748544 0.01377386 0.014878482 0.03365175 -0.013314388 0.008055145
-0.02144384 -0.014561855 -0.03485933 0.011551606 -0.03151848 -0.020926934 0.021117013 -0.028017571
-0.0022069076 -0.03879621 -0.02639666 0.026326891 0.012465545 -0.0030257124 -0.020289484 0.019017976
0.025551412 0.0009717056 -0.02592979 -0.0026392953 0.014836858 0.006961659 0.028483152 0.029465785
0.013968223 -0.02730336 -0.0037978776 -0.00087768416 -0.01826681 0.0032585845 0.014528487 -0.02542243
-0.017377196 -0.033885684 -0.0024126268 0.012822113 0.026263312 -0.0022080077 0.018098766 -0.03674366
00000000: df27 9d3c 336f 5a3c 3241 993c 1293 44bc
00000010: 2ff1 483b d303 0abd 6a1d 98bc a9bd 0ebc
00000020: 13e0 c7bb 0c5b c43c ca4e a43c c726 8b3b
00000030: 1e7d b53c 1b36 c9bc 6ef0 c83a 2645 0dbd
00000040: d374 0fbd cf97 5e3c f07a 223b 546d 0cbc
00000050: a578 dabc 5b74 843c b786 15bc 7010 9b3c
00000060: d969 f6bc 9e1d a83c c1a8 a8bb d100 6dbc
00000070: b19d c2bb aca1 e9bc c0c1 17bc b480 1eba
00000080: 4bb3 dabc 2032 613c 9dd9 ea3c dd54 703c
00000090: 6f3e 8bbc 0601 abbc e81e d4bc 9f21 a6bc
000000a0: 82bf b23c bdd5 903c 15a0 68bc d328 8cb8
000000b0: 66f2 b1bb cafd 283b 6735 03bd 7bfc fd3c
000000c0: 0398 10bc 7e88 d7bc 73a1 443b b169 3c3c
000000d0: 240c 8b3c 460a 7dbc 676e 77bb 40cd d1bc
000000e0: 6195 cabc fe2c bcbc 30df a4bc 4b6a c03c
000000f0: af2b 01bd 3f90 dbbb 076a 4fbc 64af cb3c
00000100: d59d a13a 790f 6bbc 49ca 003d 671e adbc
00000110: c4f4 e4bb 5459 e5bc 2a37 873a 0c57 6c3c
00000120: 4441 0d3d 6a71 9fbc d6d3 87bc a37f 283d
00000130: cdd3 5e3c 5afe 74bc 83b8 9c3c 5d36 1b3d
00000140: c509 e73b fb30 dfbc 4640 f5bc cede c5bc
00000150: b600 b13b 5c83 13bd f7c2 9a3c 152d 07bd
00000160: f9f6 33bb c098 b03c 6491 cebc ec41 07bd
00000170: 2547 f0bc eac7 d6bc 27cb 06bd 73e6 3bbd
00000180: 5358 e9bc 0b96 c4bc 3f14 8a3c 7591 8dbc
00000190: d9a1 00bc 974d bbbc a164 d2bb 9037 873b
000001a0: 3d8b d4bb f276 7fbc 4603 17bc 630e a33c
000001b0: e387 efbc 3fa7 df3c e11f 5ebc 45b2 863c
000001c0: ec88 9b3c eade cfbb 82e0 8fbb 5355 993c
000001d0: 759a 25bc 5490 a73b 03de e33c 89c4 36bc
000001e0: a713 85bc 104a af3c 6d5b cf3c c509 f13c
000001f0: f1b7 0fbd 0dee 993c 1c60 9d3c ada5 a6bc
00000200: c3e6 be3c 5ff7 84bc f21e a13c 93a7 763b
00000210: c12a 583c 3340 98bc e947 9dbb c656 e6bc
00000220: ada8 293c c861 17bd c97d fcbb 2975 983b
00000230: 4c3c 3bbc f660 9ebc 24af 043a 343f d3bb
00000240: 8f19 d3bc 55b3 85bc 60ef 78bc 8468 d5bc
00000250: 3170 ccbb 1bca 98bc 4aab d6bc 4f78 0bbd
00000260: ccd4 f0bc 4591 32bc 42cf bd3c 84b6 0ebc
00000270: afd4 aebc c697 efbc 8902 bc3a e75f cf3c
00000280: 593e 0dbd 6105 b73c 9945 c33c 3aa6 773a
00000290: 721e 3e3c d4ad 733b 34a1 0fbd f7f2 90bc
000002a0: 667a 71bc 2383 d5bc 116f b9bb 45c3 923b
000002b0: e89f 9aba 8862 903c 2668 b2bc 63b0 e13c
000002c0: 267a 59bc 193c d03c 2206 f33c 098f e1bc
000002d0: 9714 06bd 7382 d13c 7ca2 dc3c a342 51bb
000002e0: cebd 033c 6a99 e73b 1abc 29bc e738 983c
000002f0: 1f8a 563c b1c6 21bd 7075 80bc dc29 d4bc
00000300: a2b0 fc3b 91bb 23bd f8db 0cbd c03b 14bd
00000310: d130 8dbc c6df febc dd04 40bc 670f c5bc
00000320: 8569 903c fed5 c73c 385f 103c 964c 86bc
00000330: e9eb 263c 4b41 04bd 744e 9ebc 51e8 0bbc
00000340: f513 07bd 07b0 fc3c daf8 a93c c2ab 613c
00000350: e0c4 733c 6bd6 093d 9724 5abc baf9 033c
00000360: feaa afbc d994 6ebc a8c8 0ebd f242 3d3c
00000370: 8619 01bd f66e abbc 96fd ac3c 1b85 e5bc
00000380: c4a1 10bb c6e8 1ebd cf3d d8bc 7eab d73c
00000390: 493c 4c3c 084b 46bb 2236 a6bc 96cb 9b3c
000003a0: 3251 d13c 0fba 7e3a b66a d4bc 07f8 2cbb
000003b0: 4b16 733c a11e e43b 8055 e93c 3b62 f13c
000003c0: f9da 643c 4cab dfbc d0e5 78bb 6314 66ba
000003d0: 47a4 95bc fa8d 553b e408 6e3c b342 d0bc
000003e0: 9f5a 8ebc b7cb 0abd 291d 1ebb d713 523c
000003f0: 2826 d73c 39b4 10bb dd43 943c 8580 16bd

aggregation.1.weight f4 [32]
0.9881383 0.99541986 1.0025252 1.0012194 1.0134239 0.98428947 0.99925923 0.9998563
0.99155605 0.98850936 0.99671173 0.9924845 0.9983744 1.014411 1.0120705 1.0043575
1.0055473 1.0072242 1.0099514 0.9873291 0.9933298 0.9907696 1.0078481 1.0138829
0.99906087 1.0020332 1.0053301 0.99710274 0.99517906 1.0047462 0.9988032 0.9947746
00000000: a2f6 7c3f d6d3 7e3f bf52 803f f527 803f
00000010: e0b7 813f 65fa 7b3f 74cf 7f3f 95f6 7f3f
00000020: 9ed6 7d3f f30e 7d3f 8028 7f3f 7713 7e3f
00000030: 7795 7f3f 38d8 813f 878b 813f c98e 803f
00000040: c6b5 803f b9ec 803f 1646 813f 9ac1 7c3f
00000050: dd4a 7e3f 14a3 7d3f 2b01 813f eac6 813f
00000060: 74c2 7f3f a042 803f a8ae 803f 2042 7f3f
00000070: 0ec4 7e3f 869b 803f 91b1 7f3f 8ca9 7e3f

aggregation.1.bias f4 [32]
-0.007398689 0.0080596125 0.008689041 0.0138764875 0.014815495 -0.00684848 0.015856974 0.004540276
-0.0024688742 -0.0053262715 0.012956788 0.007445053 0.009237984 0.0013095137 0.01625818 0.010208153
0.014329773 0.014692288 0.017871054 -0.007281121 -0.0036420284 0.009338497 0.01146966 -0.00089103833
0.015834603 0.009967133 0.0134588145 0.012188666 0.013747493 0.016958755 0.012548515 0.0063341255
00000000: b470 f2bb 770c 043c 7b5c 0e3c 355a 633c
00000010: b1bc 723c 3769 e0bb 7ce6 813c 98c6 943b
00000020: d6cc 21bb 0188 aebb b548 543c a2f5 f33b
00000030: ea5a 173c fda3 ab3a e02f 853c 1940 273c
00000040: 6dc7 6a3c ecb7 703c 5166 923c 7896 eebb
00000050: 19af 6ebb 7f00 193c 3eeb 3b3c 9294 69ba
00000060: 92b7 813c 304d 233c 5c82 5c3c f8b2 473c
00000070: 2a3d 613c 16ed 8a3c 4998 4d3c 7f8e cf3b

aggregation.1.running_mean f4 [32]
-1.5286632 -0.40376842 -0.8518796 -0.70783484 -0.80509984 -0.72754776 -0.32263255 -0.67937565
-1.3528849 -0.6624474 -1.3827112 -0.545768 -1.6144637 -1.1073912 -1.3035727 -1.5848651
-0.91660905 -0.76418656 -1.2020651 -1.1439438 -0.25633428 -0.20157814 -0.8770536 -0.9381808
-0.9345108 -1.9007105 -0.6526435 -0.7140984 0.27115163 -1.4991677 -0.37140206 -1.4289216
00000000: 3cab c3bf bcba cebe c814 5abf aa34 35bf
00000010: 061b 4ebf 9240 3abf 1830 a5be 90eb 2dbf
00000020: 552b adbf 2796 29bf aefc b0bf 74b7 0bbf
00000030: bfa6 cebf ffbe 8dbf 78db a6bf dcdc cabf
00000040: e4a6 6abf bba1 43bf 45dd 99bf c06c 92bf
00000050: 3f3e 83be 806a 4ebe 9686 60bf 9e2c 70bf
00000060: 1a3c 6fbf 7b4a f3bf a513 27bf 27cf 36bf
00000070: 63d4 8a3e bae4 bfbf 6928 bebe e7e6 b6bf

aggregation.1.running_var f4 [32]
3.8450434 1.0288146 0.4162553 1.8650979 0.5262801 0.93008035 2.516151 0.4930029
2.3537204 2.5575588 1.38462 1.098448 1.687355 0.337683 0.7700447 1.1525078
3.2276127 1.2457052 0.41650677 1.7994571 1.0249246 1.2185862 0.90459144 0.24412557
1.8434373 0.80618584 0.8296557 3.5401804 2.4706392 0.9676316 0.91911304 1.0003186
00000000: 3115 7640 32b0 833f 6a1f d53e 87bb ee3f
00000010: 4bba 063f bf19 6e3f 9e08 2140 e06a fc3e
00000020: 5ba3 1640 0baf 2340 3a3b b13f f299 8c3f
00000030: 40fb d73f c9e4 ac3e a621 453f 6085 933f
00000040: 3591 4e40 4573 9f3f 6040 d53e 9c54 e63f
00000050: bb30 833f a2fa 9b3f 4e93 673f 0efc 793e
00000060: c1f5 eb3f 3262 4e3f 5164 543f 5192 6240
00000070: f41e 1e40 b4b6 773f fe4a 6b3f 710a 803f
