models/tinystereo_best.pth (torch, 978695 bytes, 85 tensors)

e1.0.dw.weight f4 [6, 1, 3, 3]
0	0x3da8aedb	0.08236476
1	0xbe84b46a	-0.25918895
2	0xbd1dc14b	-0.038514417
3	0xbe85517c	-0.2603873
4	0x3e60f4f3	0.2196844
5	0x3ea754bb	0.32681832
6	0xbe048080	-0.12939644
7	0xbe8c7e8e	-0.27440304
8	0x3e20fdb0	0.15721774
9	0xbca65900	-0.02030611
10	0x3e00485e	0.12527606
11	0x3d1a6cb6	0.03770133
12	0xbe8c0f22	-0.27355295
13	0xbdc592f6	-0.09647171
14	0xbe7bf043	-0.24603371
15	0x3de6d9bb	0.112719975
16	0xbe996592	-0.29960304
17	0xbe628673	-0.22121601
18	0xbc965d40	-0.018355012
19	0xbd317fa0	-0.043334603
20	0xbe6fef96	-0.23431239
21	0x3e9b14e3	0.30289373
22	0x3dcde7c6	0.10053973
23	0xbd45fe4b	-0.048338216
24	0xbdf0a9b6	-0.1175112
25	0xbcf5d796	-0.030010026
26	0x3dc95846	0.0983129
27	0x3e7dc7a0	0.24783182
28	0x3e16aabb	0.14713566
29	0x3e03f39e	0.12885901
30	0x3e01bfa0	0.12670755
31	0xbe48af28	-0.19598067
32	0x3e8032a4	0.25038636
33	0x3e4d9cee	0.20079395
34	0x3cffca16	0.031224292
35	0x3ea8b00b	0.3294681
36	0xbe930d60	-0.28721142
37	0xbdf101f6	-0.11767952
38	0xbc8b81ab	-0.017029604
39	0xbdac86b6	-0.084241316
40	0x3dcb8ae6	0.09938602
41	0x3e981e22	0.2971049
42	0x3df2d73b	0.11857458
43	0xbd174036	-0.03692647
44	0x3e46da20	0.19419146
45	0xbea03ffa	-0.3129881
46	0xbe6b1b56	-0.22959647
47	0xbe8ecd3e	-0.27890962
48	0x3d87bfc6	0.06628375
49	0xbc64522b	-0.013935606
50	0xbcca5ec0	-0.024703383
51	0x3d26fe2b	0.040769737
52	0x3e4466a0	0.19179773
53	0x3e16dc1e	0.14732406

e1.0.pw.weight f4 [32, 6, 1, 1]
0	0xbecd721a	-0.40126115
1	0x3d4ef5c0	0.050527334
2	0xbe21c620	-0.15798235
3	0xbeb19439	-0.34683397
4	0x3e0d0379	0.13770856
5	0xbe57b705	-0.2106591
6	0x3e98a686	0.29814547
7	0x3e75601f	0.23962449
8	0x3e4ce1a3	0.20007949
9	0xbe109310	-0.141186
10	0xbda2cf24	-0.07949665
11	0x3e6602e1	0.22462036
12	0xbe8862eb	-0.26637968
13	0x3eaf5c37	0.34250042
14	0x3eb066c0	0.34453392
15	0x3c0f8db2	0.00876181
16	0x3c20a377	0.009804598
17	0xbe140f0c	-0.14458865
18	0x3e605d49	0.21910585
19	0x3dccc0af	0.09997689
20	0x3ec0a1ce	0.37623447
21	0x3e6de9f1	0.23233773
22	0x3e37ad50	0.17937207
23	0x3ebdba8a	0.3705638
24	0xbd6ce1d1	-0.057832543
25	0xbe917386	-0.2840845
26	0xbea70da0	-0.32627583
27	0xbdc48b82	-0.095969215
28	0xbc2b1e10	-0.010444179
29	0x3d01d7ae	0.03169983
30	0xbe928fd8	-0.2862537
31	0xbdc59c7f	-0.0964899
32	0xbecfa103	-0.4055253
33	0xbea0911b	-0.31360707
34	0x3bd1ef08	0.0064066686
35	0x3e66d395	0.2254165
36	0x3dde5107	0.108552985
37	0x3dc5a179	0.09649939
38	0x3dedb30b	0.11606415
39	0xbe90502e	-0.28186172
40	0xbd9b05d8	-0.07569474
41	0xbd0a456d	-0.033757616
42	0x3eb02ddf	0.34409997
43	0x3d87e288	0.06635004
44	0xbe1aa439	-0.15101708
45	0xbde11690	-0.109906316
46	0x3e93ebe0	0.28890896
47	0x3e195db0	0.14977145
48	0xbe3137f2	-0.17306498
49	0xba87d00f	-0.0010361689
50	0xbdbef5b1	-0.09324206
51	0x3e9adc37	0.30246136
52	0x3ec782c4	0.38966954
53	0x3ebf3ebb	0.37352547
54	0xbdcd8b68	-0.10036355
55	0xbece60b5	-0.40308157
56	0x3e5fb44f	0.21846126
57	0x3ea2a2f6	0.31764954
58	0xbdfce354	-0.12348047
59	0x3ec8e030	0.3923354
60	0x3e691510	0.22761941
61	0xbe46f285	-0.19428451
62	0x3e8f4852	0.27984864
63	0xbd171a8c	-0.03689055
64	0xbecce7bc	-0.4002055
65	0xbca5d4b8	-0.020243034
66	0x3d2700ae	0.040772133
67	0xbe02c238	-0.12769401
68	0x3eafcb25	0.34334674
69	0x3e1a4c6c	0.15068215
70	0x3e97f87b	0.29681763
71	0x3e8b507d	0.27209845
72	0x3dbd3de2	0.09240319
73	0x3e9e50dd	0.3092107
74	0xbe775409	-0.2415315
75	0xbe8cfd8f	-0.275372
76	0x3e0e15c3	0.13875489
77	0xbebdedc4	-0.37095463
78	0x3e1e042d	0.1543128
79	0x3e845053	0.25842533
80	0x3e31aace	0.17350313
81	0x3df09352	0.11746849
82	0x3e57f4cb	0.21089475
83	0x3d8b8683	0.068127654
84	0xbe1ee050	-0.15515256
85	0xbe0f3e58	-0.13988626
86	0xbe0151d0	-0.12628865
87	0xbd2e75ce	-0.042592816
88	0x3eb7ad0b	0.3587421
89	0xbe662610	-0.22475457
90	0x3eb1c7f0	0.34722853
91	0xbebc08fb	-0.36725602
92	0x3d34b579	0.04411838
93	0xbe071821	-0.13192798
94	0xbd047957	-0.03234228
95	0xbe928ee8	-0.28624654
96	0x3e436fa9	0.19085564
97	0xbec88d00	-0.39170074
98	0xbe990bcf	-0.29891822
99	0x3e2657ff	0.16244505
100	0xbda2649d	-0.07929347
101	0x3c7e8b93	0.015536207
102	0xbe462186	-0.19348726
103	0xbe85868b	-0.2607921
104	0x3e19cc0a	0.15019241
105	0x3e940775	0.2891194
106	0xbde1eeae	-0.11031853
107	0xbe1c2ecb	-0.15252225
108	0x3ec500ca	0.38477165
109	0x3d72fb36	0.059321605
110	0xbda7251e	-0.081613764
111	0x3ed02ee9	0.4066079
112	0xbec785a0	-0.38969135
113	0x3e8708c8	0.26373887
114	0xbc061346	-0.008183306
115	0x3ebceaf7	0.36898014
116	0xbe582a12	-0.21109799
117	0xbe0915ad	-0.13387175
118	0x3e96e3d4	0.29470694
119	0x3c77121d	0.015080002
120	0x3e360327	0.1777464
121	0xbdc1d7ae	-0.09464966
122	0x3e4428c0	0.1915617
123	0x3e7df8f9	0.24802007
124	0xbea43acd	-0.3207611
125	0xbe9100f6	-0.28321046
126	0xbe8b10e4	-0.27161324
127	0xbe3fe7a8	-0.18740714
128	0xbe23ff56	-0.16015372
129	0xbe4671ef	-0.193794
130	0xbe894583	-0.26810846
131	0xbe61e18e	-0.22058699
132	0xbea679ce	-0.32514805
133	0xbdf5c1c5	-0.11999849
134	0x3ebee3ae	0.3728308
135	0x3e290177	0.16504465
136	0x3e8f8b3a	0.2803591
137	0xbe07b86b	-0.13253944
138	0xbec6b0b2	-0.38806683
139	0xbe7d4f1b	-0.24737208
140	0x3e9ab98f	0.30219695
141	0xbe781444	-0.2422648
142	0xbe657df1	-0.22411324
143	0x3e974517	0.295449
144	0xbeb58e9b	-0.35460362
145	0x3e6d25f8	0.23159015
146	0xbeb37ea0	-0.35057545
147	0xbe95db4e	-0.2926888
148	0xbea02a89	-0.31282452
149	0x3e6f0265	0.23340757
150	0xbea98e49	-0.33116367
151	0xbe90cf57	-0.28283188
152	0x3e9b785d	0.30365267
153	0xbe2cb935	-0.16867526
154	0xbe42c207	-0.19019328
155	0x3e5b649c	0.21425098
156	0xbd42233b	-0.04739688
157	0x3cbed9d5	0.02329723
158	0x3ea0f02c	0.31433237
159	0xbe0b5456	-0.1360639
160	0x3ebfceb7	0.37462398
161	0xbe766f2c	-0.24065846
162	0x3e9cd8a1	0.30634025
163	0xbeabf326	-0.33583945
164	0x3eba3dcc	0.36375272
165	0x3ec5de57	0.38646194
166	0x3ecd46a7	0.40092966
167	0xbe289704	-0.16463858
168	0x3e97cb07	0.29647085
169	0x3bfe9d55	0.0077702203
170	0xbce097db	-0.02741616
171	0xbe2fabe5	-0.17155416
172	0xbe069b69	-0.13145222
173	0x3e1c55db	0.15267126
174	0x3e1c1c21	0.15245105
175	0xbe8cc346	-0.27492732
176	0x3d951919	0.072801776
177	0xbe85d867	-0.26141664
178	0x3cfdbf0b	0.030974885
179	0xbeb23bab	-0.34811148
180	0x3e069706	0.13143548
181	0xbec3cbc0	-0.38241386
182	0xbdd79ff8	-0.105285585
183	0xbec25869	-0.37958077
184	0x3e4c71c7	0.19965278
185	0xbecb9cf5	-0.39768186
186	0x3e922cb6	0.28549737
187	0x3ec79826	0.38983268
188	0x3ead20cd	0.33814088
189	0x3eba93b8	0.36440825
190	0x3e83472c	0.25640237
191	0x3e6b7567	0.22994004

e1.0.bn.weight f4 [32]
0	0x3f800000	1.0
1	0x3f800000	1.0
2	0x3f800000	1.0
3	0x3f800000	1.0
4	0x3f800000	1.0
5	0x3f800000	1.0
6	0x3f800000	1.0
7	0x3f800000	1.0
8	0x3f800000	1.0
9	0x3f800000	1.0
10	0x3f800000	1.0
11	0x3f800000	1.0
12	0x3f800000	1.0
13	0x3f800000	1.0
14	0x3f800000	1.0
15	0x3f800000	1.0
16	0x3f800000	1.0
17	0x3f800000	1.0
18	0x3f800000	1.0
19	0x3f800000	1.0
20	0x3f800000	1.0
21	0x3f800000	1.0
22	0x3f800000	1.0
23	0x3f800000	1.0
24	0x3f800000	1.0
25	0x3f800000	1.0
26	0x3f800000	1.0
27	0x3f800000	1.0
28	0x3f800000	1.0
29	0x3f800000	1.0
30	0x3f800000	1.0
31	0x3f800000	1.0

e1.0.bn.bias f4 [32]
0	0x00000000	0.0
1	0x00000000	0.0
2	0x00000000	0.0
3	0x00000000	0.0
4	0x00000000	0.0
5	0x00000000	0.0
6	0x00000000	0.0
7	0x00000000	0.0
8	0x00000000	0.0
9	0x00000000	0.0
10	0x00000000	0.0
11	0x00000000	0.0
12	0x00000000	0.0
13	0x00000000	0.0
14	0x00000000	0.0
15	0x00000000	0.0
16	0x00000000	0.0
17	0x00000000	0.0
18	0x00000000	0.0
19	0x00000000	0.0
20	0x00000000	0.0
21	0x00000000	0.0
22	0x00000000	0.0
23	0x00000000	0.0
24	0x00000000	0.0
25	0x00000000	0.0
26	0x00000000	0.0
27	0x00000000	0.0
28	0x00000000	0.0
29	0x00000000	0.0
30	0x00000000	0.0
31	0x00000000	0.0

e1.0.bn.running_mean f4 [32]
0	0x3de60423	0.11231258
1	0x3df5c711	0.120008595
2	0x3d30c56c	0.043157026
3	0xbd7de4b3	-0.061985683
4	0xbca03c3f	-0.019559978
5	0x3dab1871	0.08354271
6	0x3e0a35a3	0.13497023
7	0x3d8a3a3f	0.06749391
8	0xbe0e3fc9	-0.1389152
9	0xbe4c47db	-0.19949286
10	0x3b950310	0.004547484
11	0xbdb4abb0	-0.08821809
12	0x3e28cacf	0.16483615
13	0x3bd7c045	0.0065841996
14	0xbcfb09c5	-0.030644307
15	0x3ba6ddbd	0.005092351
16	0xbdf6b078	-0.120453775
17	0xbe2c3805	-0.16818245
18	0xbddce1c5	-0.107852496
19	0x3de26b52	0.11055626
20	0xbdbaeef8	-0.09127611
21	0x3cf718df	0.030163227
22	0xbdeb8b1f	-0.115011446
23	0x3ce826a2	0.028338734
24	0x3e11a288	0.14222157
25	0xbb79288d	-0.0038018555
26	0x3d2ae637	0.041723456
27	0xbe5039d6	-0.20334563
28	0x3db83eaf	0.08996331
29	0x3d6b541a	0.057453252
30	0x3d9be99f	0.07612919
31	0xbd673058	-0.05644259

e1.0.bn.running_var f4 [32]
0	0x3d8c8c47	0.06862693
1	0x3e391e3a	0.18077937
2	0x3d1c5529	0.038167153
3	0x3cc5da68	0.024151996
4	0x3cf00cde	0.02930301
5	0x3de8bd1a	0.11364193
6	0x3e008695	0.12551339
7	0x3d3fc101	0.046814922
8	0x3da4be31	0.08044089
9	0x3e60e348	0.21961701
10	0x3c56feae	0.013122244
11	0x3d2e4eea	0.042555727
12	0x3e09de17	0.13463627
13	0x3cedd246	0.02903093
14	0x3d33d2e9	0.04390231
15	0x3d7746c0	0.060370207
16	0x3e1f9138	0.1558274
17	0x3e8b138d	0.27163354
18	0x3d5f245f	0.054478046
19	0x3e0aa549	0.13539614
20	0x3e02bc69	0.12767185
21	0x3ce0681a	0.02739339
22	0x3e0c95c5	0.13729008
23	0x3daaf275	0.08347026
24	0x3e926d0e	0.28598827
25	0x3d4c661c	0.049902067
26	0x3b983b72	0.0046457583
27	0x3ef2bf46	0.47411555
28	0x3da50542	0.080576435
29	0x3d11957b	0.035542946
30	0x3d83e50a	0.0644017
31	0x3dab9853	0.08378663

e1.1.dw.weight f4 [32, 1, 3, 3]
0	0xbe118188	-0.14209569
1	0x3d5cfa16	0.053949438
2	0x3e03ae66	0.12859496
3	0xbcad4a40	-0.02115357
4	0xbe856e44	-0.26060688
5	0xbda7993b	-0.08183523
6	0x3e08ea3b	0.13370602
7	0xbe99edd8	-0.30064273
8	0xbd962560	-0.073313475
9	0xbe95e94e	-0.2927956
10	0xbde9dcb6	-0.114190504
11	0xbe586c5b	-0.21135084
12	0xbe218f8b	-0.15777414
13	0x3dd6422b	0.10461839
14	0xbe6660eb	-0.22497909
15	0x3bbf7aab	0.0058434806
16	0xbdd5cd86	-0.10439591
17	0xbdad153b	-0.08451315
18	0x3cc42a00	0.023945808
19	0xbe82345b	-0.2543057
20	0x3d791e20	0.060819745
21	0xbd542e76	-0.05180212
22	0xbe5a6d18	-0.21330678
23	0x3e335e4e	0.17516443
24	0xbe36c1d8	-0.17847383
25	0x3e5346f6	0.20632538
26	0xbe4e3c9e	-0.20140311
27	0x3e7d125b	0.24714033
28	0x3e1c2570	0.15248656
29	0xbe813564	-0.25236046
30	0x3d16a7e0	0.03678119
31	0xbe049e88	-0.129511
32	0xbdc9f3ab	-0.09860929
33	0x3ce7ab00	0.028279781
34	0x3e960c0e	0.29306072
35	0x3de1ed5b	0.110316
36	0x3e840e3c	0.2579211
37	0x3e37ab6e	0.17936489
38	0x3e3f1978	0.1866206
39	0x3ea44fa4	0.3209201
40	0xbddd3fbb	-0.10803171
41	0x3e8d45a8	0.27592206
42	0x3dd4e576	0.10395329
43	0xbe87983c	-0.26483333
44	0x3e75fc2e	0.2402198
45	0x3e087776	0.1332682
46	0xbce5e816	-0.028064769
47	0x3e2da54e	0.1695759
48	0xbe3199c3	-0.17343812
49	0x3d8ea9d0	0.06965983
50	0x3e77ceb8	0.2419995
51	0x3e08b283	0.13349347
52	0x3de0e3bb	0.10980936
53	0x3e8908de	0.26764578
54	0xbeaa90e4	-0.33313668
55	0x3e8b4536	0.2720124
56	0x3e074798	0.13210905
57	0xbe96a0ab	-0.29419455
58	0xbe05cf6b	-0.13067405
59	0xbe45ffde	-0.19335887
60	0x3c2d432b	0.010575096
61	0xbe69ed90	-0.22844529
62	0x3b3df8ab	0.002898733
63	0x3e056d8b	0.13030069
64	0x3e5cdaeb	0.21567886
65	0xbe32d988	-0.17465794
66	0xbe67cc43	-0.22636513
67	0x3e5bcd8b	0.21465127
68	0xbe399843	-0.1812449
69	0x3e64975e	0.22323367
70	0x3dadbc9b	0.08483239
71	0xbe612950	-0.21988416
72	0x3ca69cc0	0.020338416
73	0xbdaa4cab	-0.083154045
74	0xbe92f6ea	-0.28704005
75	0x3e1ec2c3	0.15503983
76	0x3ca740ab	0.020416578
77	0xbe2d8f7b	-0.16949265
78	0x3dac9c26	0.084282205
79	0xbdf6e716	-0.12055795
80	0x3ea7a318	0.32741618
81	0x3e4270a3	0.1898828
82	0x3e673ed8	0.22582567
83	0x3e4d3793	0.20040731
84	0xbbab2000	-0.0052223206
85	0xbac73c00	-0.0015200377
86	0x3d932616	0.07184999
87	0xbe54a2d8	-0.20765245
88	0x3e13e780	0.14443779
89	0xbd207316	-0.039172255
90	0xbe9bde4e	-0.30443043
91	0x3d3caf8b	0.04606585
92	0x3e1aa45b	0.15101759
93	0xbe6214b0	-0.22078204
94	0x3e4f5f86	0.20251283
95	0x3ea9ccea	0.3316415
96	0xbe409e08	-0.18810284
97	0x3ea68cbe	0.32529253
98	0xbea54286	-0.32277316
99	0xbe4359fe	-0.19077298
100	0xbe66b726	-0.22530803
101	0xbe9d5f5e	-0.30736822
102	0xbe4aa12b	-0.19788043
103	0xbce09b56	-0.02741782
104	0xbd8c51f6	-0.0685157
105	0x3dde28fb	0.1084766
106	0xbe2e36ee	-0.17013142
107	0xbe82445f	-0.25442788
108	0x3e1bd1a0	0.15216684
109	0x3e0b83b8	0.13624465
110	0x3dfde546	0.12397246
111	0x3e148cb0	0.14506793
112	0x3e4c80ae	0.19970962
113	0x3da06e76	0.07833569
114	0x3dddbc8b	0.10826977
115	0xbd94854b	-0.07251986
116	0xbd77a42b	-0.060459297
117	0x3d6590eb	0.056046408
118	0xbc409156	-0.011753401
119	0x3e4bf673	0.19918232
120	0xbea06dc2	-0.3133374
121	0x3ea4027e	0.3203315
122	0xbda659fb	-0.08122631
123	0xbcec91c0	-0.028878093
124	0x3d999d26	0.07500677
125	0xbadc7556	-0.0016819637
126	0xbe221dde	-0.15831706
127	0xbd8aafbb	-0.06771799
128	0xbd8db216	-0.06918733
129	0x3e389f06	0.18029413
130	0xbe188aa0	-0.14896631
131	0x3ea795d7	0.32731506
132	0x3e7aac8b	0.24479882
133	0x3d314d40	0.043286562
134	0x3e610d8b	0.21977822
135	0xbea95f4f	-0.33080527
136	0x3ea7bc14	0.3276068
137	0x3e88786f	0.26654384
138	0xbe113873	-0.1418169
139	0x3dcec09b	0.1009533
140	0x3e92ed64	0.2869674
141	0x3d982a06	0.0742989
142	0xbcb2eb00	-0.021840572
143	0x3db254b0	0.08707559
144	0x3e760d56	0.24028525
145	0xbdaf70eb	-0.08566459
146	0xbd856b06	-0.06514554
147	0xbe028f73	-0.12750034
148	0xbe682738	-0.22671211
149	0xbd11b5a0	-0.0355736
150	0xbea48e9b	-0.3214005
151	0xbe1eb546	-0.15498838
152	0x3ceb7056	0.02874009
153	0x3e519576	0.20467171
154	0xbe3b3676	-0.18282494
155	0xbc36f2ab	-0.011166255
156	0xbe1b1bde	-0.15147349
157	0x3cb58180	0.022156477
158	0x3d920920	0.07130647
159	0xbe76741b	-0.24067728
160	0xbe287af8	-0.16453159
161	0xbe1bf226	-0.15229091
162	0xbe8f5be4	-0.27999794
163	0xbe65dacb	-0.22446744
164	0x3e23d6c6	0.15999898
165	0xbdde80e6	-0.10864429
166	0x3e6aced6	0.22930464
167	0x3e693e78	0.22777736
168	0xbde9dd30	-0.11419141
169	0xbd840100	-0.06445503
170	0x3deba0b0	0.11505258
171	0x3e34a880	0.17642403
172	0xbc7d95ab	-0.015477578
173	0x3b100d56	0.0021980605
174	0xbd18af8b	-0.037276786
175	0xbdc8e93b	-0.0981011
176	0x3d4da296	0.050203882
177	0x3e5f8946	0.2182971
178	0xbb809d56	-0.003925006
179	0xbe93be0e	-0.28855938
180	0x3e7313be	0.23738
181	0xbdbc0e5b	-0.091824256
182	0xbe74a9f3	-0.23892955
183	0xbd0d8fd6	-0.034561
184	0xbe000e58	-0.12505472
185	0x3e0e176e	0.13876125
186	0x3e8f51b4	0.27992022
187	0xbe508edb	-0.20366995
188	0xbe8d2ec0	-0.2757473
189	0xbe839a6e	-0.25703758
190	0x3d63d536	0.055623256
191	0x3e7db9e3	0.24777941
192	0xbe6a6c2e	-0.2289283
193	0xbe477aa0	-0.19480371
194	0x3ce02500	0.027361393
195	0x3def2aab	0.1167806
196	0x3db28d90	0.08718407
197	0x3e5099c0	0.20371151
198	0x3e6994d0	0.22810674
199	0x3db23580	0.087016106
200	0x3dbbd646	0.09171729
201	0x3cb917d6	0.022594374
202	0xbd867500	-0.06565285
203	0x3e4a86b0	0.19777942
204	0xbea20fdf	-0.31652734
205	0xbe6c2086	-0.23059282
206	0x3d950fab	0.07278379
207	0xbe291e0e	-0.16515371
208	0xbe0bfbf8	-0.13670337
209	0xbdd1a926	-0.10237341
210	0x3e9eed63	0.31040487
211	0x3e615510	0.22005105
212	0xbea24ef3	-0.31700858
213	0xbd8a2890	-0.06746018
214	0x3e8de298	0.2771194
215	0xbe22ff88	-0.1591779
216	0x3e947914	0.28998625
217	0xbe81a54b	-0.2532142
218	0x3e616d4e	0.22014353
219	0x3e3ade18	0.18248785
220	0xbea2572a	-0.31707126
221	0x3e11952e	0.14217064
222	0x3e4cc33e	0.19996354
223	0xbe607c70	-0.21922469
224	0x3d8b629b	0.06805917
225	0xbdbc6d20	-0.092005014
226	0x3d2c4beb	0.04206459
227	0xbe4828eb	-0.19546859
228	0x3ea6ce72	0.3257938
229	0x3e9d2ffc	0.30700672
230	0x3e78a6b0	0.24282336
231	0x3e3cb5b3	0.18428688
232	0x3e27535b	0.16340391
233	0xbca3a456	-0.019975822
234	0xbc1b7700	-0.009488821
235	0x3e33de08	0.17565167
236	0xbe49e9a6	-0.19718036
237	0x3e68621e	0.22693679
238	0xbdc3862b	-0.09547075
239	0xbea6c1bc	-0.32569683
240	0xbb8bc1ab	-0.0042650304
241	0x3e9688e6	0.2940132
242	0x3df34f8b	0.11880406
243	0xbea34612	-0.31889397
244	0xbcce202b	-0.025161823
245	0xbd952f4b	-0.07284411
246	0x3e89c7fc	0.26910388
247	0x3e84ab8b	0.25912127
248	0xbe869232	-0.26283413
249	0x3e8d69f8	0.2761991
250	0xbd038c40	-0.032116175
251	0xbe634850	-0.22195554
252	0xbcf4dbc0	-0.029889941
253	0xbe42d203	-0.19025426
254	0x3c5d1e2b	0.013495962
255	0xbe69eefe	-0.22845075

e1.1.pw.weight f4 [32, 32, 1, 1]
0	0xbc266696	-0.010156294
1	0xbd99789c	-0.074937075
2	0x3dce2d2e	0.10067211
3	0x3ba4bd16	0.0050274236
4	0xbd4b9411	-0.049701754
5	0x3ced6522	0.028978888
6	0xbdb36b67	-0.0876072
7	0xbe08d9cb	-0.13364331
8	0x3d4015cc	0.046895787
9	0x3d5d857a	0.05408237
10	0x3db41ab6	0.08794157
11	0x3b9ac605	0.004723313
12	0xbdf0338a	-0.1172858
13	0x3dfe5c26	0.1241992
14	0xbe0a5326	-0.13508281
15	0xbc986f74	-0.018607832
16	0x3dc2c496	0.09510152
17	0x3e12a3fa	0.14320365
18	0xbdf4bbd6	-0.11949889
19	0x3e156342	0.14588645
20	0x3e132228	0.14368498
21	0xbdd98e83	-0.10622885
22	0xbc412e57	-0.011790833
23	0xbdaf7a8c	-0.08568296
24	0xbdbcd2de	-0.09219907
25	0xbdafb6ff	-0.085798256
26	0xbde015a1	-0.109416254
27	0xbdf38034	-0.11889687
28	0x3d6d77c2	0.057975538
29	0xbd20a291	-0.039217535
30	0x3d9a9d0b	0.07549485
31	0x3dcbcebf	0.09951543
32	0xbe185fd4	-0.14880306
33	0x3e00fd58	0.12596643
34	0x3d631904	0.05544378
35	0x3d134793	0.03595693
36	0xbc223d82	-0.00990236
37	0x3d88af0c	0.066740125
38	0xbe23efa2	-0.16009381
39	0x3dfcb2c7	0.123387866
40	0x3d93ee16	0.07223146
41	0x3d0d0cac	0.034435913
42	0xbdaec85b	-0.085343085
43	0xbc389ccf	-0.011267855
44	0x3e33c6ce	0.17556307
45	0x3e27635b	0.16346495
46	0x3ddfff7a	0.109374
47	0x3d3dc16b	0.046327036
48	0x3c21c509	0.009873637
49	0x3da1439f	0.07874226
50	0xbc194571	-0.009354935
51	0x3c9ce43d	0.019151801
52	0xbd1ee9ff	-0.038797375
53	0x3cf1d38d	0.02951982
54	0x3d9a5c8d	0.07537184
55	0x3dfffabf	0.12498998
56	0x3e0b5381	0.13606073
57	0x3e2b570f	0.16732429
58	0xbd5c7587	-0.05382302
59	0x3cd41063	0.02588672
60	0xbd72d687	-0.05928662
61	0x3e32576a	0.17416158
62	0xbd227920	-0.039666295
63	0x3c8aa03b	0.016922107
64	0xbcffd917	-0.031231446
65	0x3e058adf	0.13041256
66	0x3dd2c297	0.10291021
67	0x3debc8e3	0.115129255
68	0x3c0e8ba9	0.00870029
69	0xbdc7e17e	-0.09759806
70	0x3db8bb34	0.09020081
71	0xbdb1bd73	-0.08678713
72	0xbd9a7c26	-0.07543211
73	0x3dd4f8d1	0.103990205
74	0xbdb7b95a	-0.089709
75	0x3d797b30	0.060908496
76	0x3cffdebf	0.031234143
77	0xbd947d2a	-0.07250436
78	0x3d53bf29	0.051695976
79	0x3d8f76ba	0.07005067
80	0xbd433d50	-0.047665894
81	0x3de397ee	0.11112963
82	0xbdc8a74c	-0.09797534
83	0x3d631a5d	0.055445064
84	0x3d1f4cbf	0.03889155
85	0x3d310575	0.043218095
86	0x3d2c3c38	0.042049617
87	0xbe2e66b9	-0.17031373
88	0xbcfbf26f	-0.03075525
89	0x3d6ed238	0.05830595
90	0xbe144d38	-0.14482582
91	0xbe0c3bd1	-0.13694693
92	0xbbbe21df	-0.0058023776
93	0x3d2628c8	0.040566236
94	0x3e1caba7	0.15299855
95	0x3c93af30	0.018027872
96	0x3e1354c7	0.14387809
97	0x3dddf8ec	0.10838494
98	0xbd0a4723	-0.033759248
99	0xbc0e93f8	-0.008702271
100	0xbc1d0b87	-0.009585268
101	0x3db6b6ac	0.08921561
102	0x3db3c723	0.08778217
103	0x3e0616b4	0.13094598
104	0xbe2cf5ce	-0.16890642
105	0x3e162807	0.14663707
106	0x3cf54ab4	0.029942848
107	0x3d45bd55	0.048276264
108	0x3dab79b5	0.08372823
109	0x3d8a620a	0.06756981
110	0x3e24eeb4	0.16106683
111	0x3d49bf69	0.04925481
112	0x3e26dec2	0.16295913
113	0x3ce935b0	0.028467983
114	0x3dc073a4	0.09397057
115	0xbc1fbe48	-0.009749956
116	0xbca32c6c	-0.019918643
117	0xbe265b17	-0.16245686
118	0xbe2b9b70	-0.16758513
119	0xbe171d64	-0.14757305
120	0x3e0d44e0	0.13795805
121	0x3db0040c	0.08594522
122	0xbd1cd021	-0.038284425
123	0x3e192afb	0.14957802
124	0x3d4336ba	0.047659613
125	0xbcffaec1	-0.031211259
126	0xbd9d2896	-0.07673757
127	0xbc7f3cd2	-0.015578466
128	0x3c6ddd1e	0.0145180505
129	0x3c9fc37f	0.0195024
130	0x3d0bcc11	0.03413016
131	0xbd801b83	-0.062552474
132	0x3e200b43	0.15629296
133	0xbdfaca75	-0.12245647
134	0xbded6335	-0.11591188
135	0x3cbf97e3	0.023387855
136	0xbdcf812d	-0.1013206
137	0xbc93c5e7	-0.018038703
138	0x3d304f5b	0.04304443
139	0xbd93041f	-0.071785204
140	0x3d5507c4	0.05200936
141	0x3deb78c9	0.11497647
142	0x3d506d1b	0.0508853
143	0x3dfcb5fc	0.12339398
144	0xbd7c9bb3	-0.061671924
145	0x3e117452	0.14204529
146	0x3db447bb	0.08802744
147	0x3dc1323e	0.09433411
148	0xbdd97d25	-0.106195726
149	0xbd9306ad	-0.07179008
150	0x3bdb827b	0.006698904
151	0xbd7900b4	-0.060791686
152	0xbd90a4c9	-0.0706268
153	0x3d84f542	0.06492092
154	0x3d34d3d9	0.044147346
155	0x3d0443b8	0.032291144
156	0xbe17065a	-0.14748517
157	0xbd89d904	-0.067308456
158	0xbe275cd5	-0.16344006
159	0x3be25208	0.0069067515
160	0x3d355568	0.044270903
161	0xbdfa6fa6	-0.122283265
162	0x3e2de9f7	0.16983782
163	0x3d9d2d86	0.076746985
164	0xbe0b4bba	-0.13603106
165	0xbd3fe447	-0.04684856
166	0x3dab129d	0.083531596
167	0xbdcdb8dc	-0.10045025
168	0xbe182e46	-0.14861402
169	0x3e16f265	0.14740904
170	0x3c2ea3cc	0.010659169
171	0xbe23c362	-0.15992501
172	0xbe119c09	-0.14219679
173	0xbe06da8f	-0.13169311
174	0xbdb4e23c	-0.08832213
175	0xbe293254	-0.16523105
176	0x3e21c9c2	0.15799621
177	0x3e2739a6	0.16330585
178	0xbe19a606	-0.15004739
179	0xbd29988e	-0.041405253
180	0xbde67e8c	-0.11254606
181	0x3dffdca6	0.12493257
182	0xbd5d90b4	-0.054093078
183	0xbd1a20e4	-0.037629023
184	0x3cb94d02	0.022619728
185	0x3e077ddd	0.13231607
186	0x3d37b8b3	0.044853877
187	0xbd782777	-0.06058451
188	0x3e20a5b7	0.15688215
189	0xbe05b103	-0.13055806
190	0x3e2913b1	0.16511418
191	0xbbd70c27	-0.006562728
192	0xbd234b1d	-0.039866555
193	0xbe0ddf65	-0.1385475
194	0x3de5873c	0.112074345
195	0x3d2e98f8	0.04262635
196	0xbdcf1437	-0.101112776
197	0x3d2053cb	0.03914241
198	0xbd2e422c	-0.042543575
199	0xbe282e66	-0.1642395
200	0xbe2e2d32	-0.17009428
201	0xbe1413bc	-0.14460653
202	0x3d9841fb	0.0743446
203	0x3e1c764d	0.15279503
204	0xbe18a9ef	-0.14908575
205	0xbdd7d2f5	-0.10538284
206	0xbe2165d8	-0.15761507
207	0x3d88f923	0.06688144
208	0x3cd04fdf	0.02542871
209	0xbd319bf0	-0.043361604
210	0xbd3e719f	-0.046495076
211	0x3e039868	0.12851107
212	0xbda857f5	-0.082199015
213	0xbd6fdb7f	-0.058558937
214	0xbd3a28ad	-0.045448948
215	0xbafcedc4	-0.0019296934
216	0x3dcbb567	0.09946709
217	0xbdba5f14	-0.09100166
218	0x3cfc19e6	0.030774068
219	0xbcddaeb6	-0.027060848
220	0x3e2d8692	0.16945866
221	0x3e343acb	0.17600553
222	0xbe0b2071	-0.13586594
223	0x3da0501d	0.078277804
224	0x3c6ea048	0.014564581
225	0xbe2c1456	-0.16804633
226	0xbd824c2f	-0.06362187
227	0xbda67eaf	-0.08129632
228	0x3de2ec61	0.11080242
229	0x3d2c95dd	0.04213511
230	0xbd9f26d1	-0.077710755
231	0xbe163791	-0.14669634
232	0x3d7fd517	0.062459078
233	0xbd448d08	-0.04798606
234	0x3c892ded	0.016745532
235	0xbdf10f9e	-0.11770557
236	0x3d900baa	0.07033475
237	0x3d217286	0.03941586
238	0xbe2da09b	-0.16955797
239	0x3c3e175a	0.011602247
240	0x3e0bfe97	0.13671337
241	0x3e31c6bc	0.17360967
242	0xbd314ad2	-0.043284245
243	0xbdaf5ca4	-0.08562592
244	0xbd6e9475	-0.05824705
245	0xbdcc6603	-0.09980395
246	0x3e2a5dce	0.16637346
247	0xbd8485a0	-0.064707994
248	0x3dd56087	0.10418802
249	0x3a2944eb	0.0006457108
250	0xbe11bfd3	-0.14233331
251	0xbbe85074	-0.007089669
252	0xbe2c950e	-0.16853735
253	0xbdd1fbc0	-0.102530956
254	0xbdd0815c	-0.10180923
255	0x3c74c061	0.014938445

e1.1.bn.weight f4 [32]
0	0x3f800000	1.0
1	0x3f800000	1.0
2	0x3f800000	1.0
3	0x3f800000	1.0
4	0x3f800000	1.0
5	0x3f800000	1.0
6	0x3f800000	1.0
7	0x3f800000	1.0
8	0x3f800000	1.0
9	0x3f800000	1.0
10	0x3f800000	1.0
11	0x3f800000	1.0
12	0x3f800000	1.0
13	0x3f800000	1.0
14	0x3f800000	1.0
15	0x3f800000	1.0
16	0x3f800000	1.0
17	0x3f800000	1.0
18	0x3f800000	1.0
19	0x3f800000	1.0
20	0x3f800000	1.0
21	0x3f800000	1.0
22	0x3f800000	1.0
23	0x3f800000	1.0
24	0x3f800000	1.0
25	0x3f800000	1.0
26	0x3f800000	1.0
27	0x3f800000	1.0
28	0x3f800000	1.0
29	0x3f800000	1.0
30	0x3f800000	1.0
31	0x3f800000	1.0

e1.1.bn.bias f4 [32]
0	0x00000000	0.0
1	0x00000000	0.0
2	0x00000000	0.0
3	0x00000000	0.0
4	0x00000000	0.0
5	0x00000000	0.0
6	0x00000000	0.0
7	0x00000000	0.0
8	0x00000000	0.0
9	0x00000000	0.0
10	0x00000000	0.0
11	0x00000000	0.0
12	0x00000000	0.0
13	0x00000000	0.0
14	0x00000000	0.0
15	0x00000000	0.0
16	0x00000000	0.0
17	0x00000000	0.0
18	0x00000000	0.0
19	0x00000000	0.0
20	0x00000000	0.0
21	0x00000000	0.0
22	0x00000000	0.0
23	0x00000000	0.0
24	0x00000000	0.0
25	0x00000000	0.0
26	0x00000000	0.0
27	0x00000000	0.0
28	0x00000000	0.0
29	0x00000000	0.0
30	0x00000000	0.0
31	0x00000000	0.0

e1.1.bn.running_mean f4 [32]
0	0xbe270b0a	-0.16312805
1	0x3e63ccd1	0.222461
2	0xbdf21ee2	-0.11822297
3	0x3cd1e994	0.025624074
4	0x3e3f543e	0.1868448
5	0xbe0b9b6f	-0.13633512
6	0xbddd2860	-0.107987165
7	0x3e14daac	0.14536542
8	0xbe17fb52	-0.14841965
9	0xbdb15ab8	-0.08659881
10	0x3e022dad	0.12712736
11	0xbe3a8798	-0.18215787
12	0xbde2ec9a	-0.110802844
13	0xbdde8da7	-0.10866862
14	0xbe8aace7	-0.2708504
15	0xbcb56cb9	-0.02214657
16	0xbde63749	-0.112410136
17	0x3e718d20	0.23588991
18	0xbe25be4a	-0.16185871
19	0x3cffc539	0.031221973
20	0xbe5c5a1c	-0.21518749
21	0x3dabc22d	0.083866455
22	0x3da4ad6b	0.08040889
23	0x3e23c677	0.15993677
24	0x3e41739f	0.18891762
25	0xbea8115c	-0.32825744
26	0xbe7b43e6	-0.2453762
27	0x3dcfc7a6	0.10145502
28	0xbe0e8eb0	-0.13921618
29	0xbd34e0e5	-0.04415979
30	0xbca89c1e	-0.020582255
31	0x3e06ccbf	0.13164042

e1.1.bn.running_var f4 [32]
0	0x3d338fb4	0.043838218
1	0x3d2cc8ca	0.042183675
2	0x3cf03945	0.029324183
3	0x3c20124d	0.009769988
4	0x3d7c4c1a	0.061596014
5	0x3d1a9a6a	0.037744917
6	0x3d7f394a	0.062310494
7	0x3d505c58	0.050869316
8	0x3db809e6	0.08986263
9	0x3cca9c6a	0.024732787
10	0x3c8601e2	0.01635832
11	0x3cde87cf	0.027164368
12	0x3c755c7c	0.014975663
13	0x3dbb91a6	0.091586396
14	0x3da9024c	0.08252391
15	0x3c38aa67	0.011271096
16	0x3c41aca2	0.011820944
17	0x3ca37e3a	0.01995765
18	0x3e15a7e9	0.14614834
19	0x3d95d838	0.07316631
20	0x3d8f74e6	0.070047185
21	0x3c87ccd0	0.016577154
22	0x3d330070	0.04370159
23	0x3c967a78	0.018368945
24	0x3d16c970	0.0368132
25	0x3d80a8d3	0.06282201
26	0x3cefcf83	0.029273754
27	0x3c1b0905	0.0094626
28	0x3cbe9f6c	0.023269378
29	0x3d1c33aa	0.03813521
30	0x3cd67cda	0.02618258
31	0x3d44da90	0.04806

e2.0.dw.weight f4 [32, 1, 3, 3]
0	0xbdb3cb96	-0.08779065
1	0xbea4668e	-0.32109493
2	0x3e6d0f86	0.23150453
3	0x3db2b21b	0.08725377
4	0xbe4e06de	-0.20119807
5	0x3e8a5ccb	0.2702392
6	0x3acbd2ab	0.0015550455
7	0xbea31f47	-0.318598
8	0x3e9fa32a	0.31179172
9	0x3e91f8c6	0.28510112
10	0xbca2c900	-0.019871235
11	0xbae07c00	-0.0017126799
12	0xbe0e484e	-0.1389477
13	0xbe9e9f96	-0.3098113
14	0x3d9d71fb	0.07687756
15	0xbe96ead4	-0.29476035
16	0x3e7e34d6	0.24824843
17	0xbd059eab	-0.03262202
18	0xbe9c015f	-0.30469796
19	0x3e9cb37c	0.30605686
20	0xbe26bc23	-0.16282706
21	0x3ea7c0e2	0.32764345
22	0xbe9fcc5e	-0.31210607
23	0x3e686988	0.22696507
24	0x3e58e566	0.21181259
25	0x3e315456	0.17317328
26	0x3e4d5d26	0.20055065
27	0x3d825ec0	0.063657284
28	0xbea9e9c2	-0.33186156
29	0x3e27255b	0.16322844
30	0xbea75167	-0.32679293
31	0xbd1bebb6	-0.03806659
32	0x3dc3e030	0.09564245
33	0xbc46e62b	-0.012139837
34	0xbe57892e	-0.21048424
35	0x3e41e3e0	0.18934584
36	0xbe6cfb7e	-0.23142812
37	0x3d1a7a8b	0.037714522
38	0xbe688c10	-0.2270968
39	0x3c6d93ab	0.014500539
40	0x3d1e78ab	0.038689297
41	0x3e83039b	0.25588688
42	0xbe4096e8	-0.18807566
43	0x3e649e00	0.22325897
44	0x3e9e9d8b	0.3097957
45	0xbe0e323b	-0.13886349
46	0x3e225473	0.15852527
47	0x3dcc3ee0	0.0997293
48	0xbccf1fc0	-0.025283694
49	0x3dbab9fb	0.09117504
50	0x3e4a3afb	0.19749062
51	0x3ea2625f	0.31715676
52	0xbcc3e32b	-0.023912033
53	0xbe0eb9ee	-0.13938114
54	0x3e4b6d00	0.19865799
55	0x3e5273f0	0.20552039
56	0xbe59df26	-0.2127653
57	0xbd9d274b	-0.0767351
58	0xbd607f56	-0.054808937
59	0xbd48e60b	-0.04904751
60	0xbdcb1b5b	-0.09917327
61	0x3d8fe13b	0.07025381
62	0x3d2cb6a0	0.042166352
63	0xbe8e17c8	-0.2775252
64	0xbe08de28	-0.13365996
65	0x3dd3722b	0.1032451
66	0x3e66f66b	0.22554938
67	0x3e74336b	0.2384774
68	0x3e958efa	0.29210645
69	0xbe1c4733	-0.15261535
70	0x3e158f53	0.14605455
71	0xbe6b93e0	-0.23005629
72	0x3d182276	0.03714224
73	0x3d996356	0.0748965
74	0xbc2f0400	-0.010682106
75	0xbe40237e	-0.18763539
76	0x3e8313db	0.25601086
77	0x3dad5020	0.08462548
78	0x3e262d5b	0.16228239
79	0xbde78d8b	-0.11306294
80	0x3b5fc0ab	0.0034141939
81	0x3e35ef16	0.17766985
82	0x3e9ebbc4	0.3100263
83	0x3dc0a7d6	0.09407012
84	0x3e38ecd3	0.18059091
85	0x3ce13c96	0.02749471
86	0xbe8d0e6b	-0.27550063
87	0x3dc278db	0.094957076
88	0x3e5b1ece	0.2139847
89	0x3e9db5bb	0.30802712
90	0xbd06cf20	-0.032912374
91	0x3d123a56	0.035700165
92	0x3dedcaf6	0.11610977
93	0xbe2c7d10	-0.16844583
94	0x3e8a8cbf	0.27060506
95	0xbea9112a	-0.33020908
96	0xbe43263e	-0.19057557
97	0x3ea38428	0.31936765
98	0xbe853cd6	-0.26022977
99	0xbd011f16	-0.031523786
100	0x3e83ae04	0.257187
101	0x3cc892d6	0.02448408
102	0x3ea453a8	0.32095075
103	0xbe992bf3	-0.29916343
104	0x3e92387c	0.2855872
105	0x3dc5248b	0.09626111
106	0xbd9fc536	-0.07801287
107	0x3cc99aeb	0.024610003
108	0x3e860303	0.26174173
109	0xbe4ded00	-0.2010994
110	0xbe9ff6ea	-0.31243068
111	0xbe265bbb	-0.1624593
112	0xbd2c1f6b	-0.04202215
113	0xbe0311eb	-0.12799804
114	0x3d4aebf6	0.049541436
115	0x3e83ecbc	0.25766551
116	0x3bd329ab	0.006444176
117	0xbdf4c06b	-0.11950763
118	0xbe80d3ab	-0.2516149
119	0xbe93468b	-0.28764758
120	0x3e810217	0.25196907
121	0xbe3e341b	-0.18574564
122	0xbe501ebb	-0.20324223
123	0x3d90935b	0.07059356
124	0xbe909f32	-0.28246456
125	0xbe268abb	-0.16263859
126	0x3e8d28fa	0.27570325
127	0xbea70f6b	-0.3262895
128	0xbe660718	-0.22463644
129	0x3e058260	0.13038015
130	0x3e3656bb	0.17806523
131	0x3a683000	0.000885725
132	0xbe68f28e	-0.22748777
133	0xbe611de6	-0.21984062
134	0x3e884b9a	0.2662018
135	0xbcdc85c0	-0.026919246
136	0x3e14d07e	0.14532658
137	0xbe852202	-0.26002508
138	0x3e2a92ab	0.16657512
139	0x3e6393be	0.22224328
140	0xbe0451a8	-0.12921774
141	0xbe2db3c0	-0.169631
142	0x3e932c9c	0.28744972
143	0xbe375f33	-0.1790741
144	0xbe3a928b	-0.18219964
145	0x3dd5ab80	0.10433102
146	0x3e65a0b8	0.2242459
147	0xbe85939e	-0.26089185
148	0xbe9d5218	-0.30726695
149	0x3d890480	0.066903114
150	0x3e719a56	0.2359403
151	0x3da681e6	0.08130245
152	0xbe03ec83	-0.12883191
153	0x3da387c6	0.07984881
154	0x3dbd2340	0.09235239
155	0xbe47c5d0	-0.19509053
156	0x3db5d540	0.08878565
157	0xbc3cabd6	-0.011515578
158	0x3e6f7093	0.23382787
159	0x3e8d4624	0.27592576
160	0x3d9f6650	0.077831864
161	0xbe75e7ae	-0.2401416
162	0xbd0c9336	-0.03432008
163	0x3e7c4d03	0.24638753
164	0x3ea32e37	0.31871197
165	0xbe6b522b	-0.22980563
166	0x3e8b8968	0.2725327
167	0x3ea634c2	0.32462126
168	0x3e847e73	0.25877723
169	0xbe717676	-0.23580346
170	0xbde76506	-0.112985656
171	0x3d821dcb	0.06353339
172	0xbe424058	-0.18969858
173	0xbe2ac3a0	-0.16676188
174	0x3e806f48	0.250849
175	0xbe495638	-0.19661796
176	0x3e90cdb6	0.28281945
177	0x3e942744	0.28936207
178	0x3e5820fe	0.21106336
179	0xbe9d5a14	-0.30732787
180	0x3e969463	0.29410085
181	0x3d981676	0.07426159
182	0x3cb29000	0.02179718
183	0xbe4d444e	-0.20045587
184	0xbe561073	-0.20904712
185	0x3e27e5b6	0.16396222
186	0x3c98b3d6	0.01864044
187	0xbea89d5c	-0.32932556
188	0xbe0a9258	-0.13532388
189	0xbe652b6e	-0.22379848
190	0x3e14a693	0.14516668
191	0x3dd5e3b0	0.104438186
192	0xbe37b04b	-0.17938344
193	0x3e9b148b	0.3028911
194	0xbe49916b	-0.19684379
195	0xbdc2cff6	-0.09512322
196	0x3e41ca1b	0.18924753
197	0x3e7ab7b3	0.24484138
198	0x3e79a2d3	0.24378519
199	0x3d11a296	0.035555445
200	0xbe831734	-0.2560364
201	0xbea147ba	-0.31500036
202	0xbd7e7c16	-0.062130056
203	0xbe315536	-0.17317662
204	0xbe256b1e	-0.16154143
205	0xbdd0834b	-0.10181292
206	0xbea7d824	-0.3278209
207	0x3eaaa397	0.33327934
208	0xbe50efc8	-0.2040397
209	0xbe8c90e6	-0.274543
210	0x3e2b3818	0.16720617
211	0xbda1edc6	-0.0790668
212	0xbe6c0dce	-0.23052141
213	0x3d8424eb	0.06452354
214	0x3e92b7ef	0.28655955
215	0xbe0661f6	-0.13123307
216	0x3e2c48ae	0.168246
217	0xbdb9659b	-0.09052583
218	0xbe965766	-0.29363555
219	0xbdd40050	-0.10351622
220	0xbca381eb	-0.01995941
221	0x3ea63708	0.3246386
222	0x3e33d9ce	0.17563555
223	0x3e3a6b83	0.18205075
224	0x3c9b30eb	0.018944224
225	0x3e5aa3be	0.21351525
226	0xbea929dc	-0.3303975
227	0xbda44b30	-0.080221534
228	0x3e8f2736	0.27959603
229	0x3e12e7f6	0.14346299
230	0xbe26d6a0	-0.1629281
231	0x3dc07180	0.093966484
232	0xbe00b1c3	-0.1256781
233	0xbc90cb00	-0.017674923
234	0x3d578e80	0.052626133
235	0x3e3e67bb	0.18594258
236	0xbe76d893	-0.24106054
237	0x3dcb34d0	0.099221826
238	0xbe3e2628	-0.18569243
239	0xbe980b82	-0.2969628
240	0x3e8d5762	0.2760573
241	0x3d0cfb40	0.0344193
242	0x3d9a05cb	0.07520636
243	0xbe80621f	-0.2507486
244	0xbe1ea3f8	-0.15492237
245	0xbe800b97	-0.25008842
246	0x3dc5fdb0	0.09667528
247	0xbcdc4500	-0.02688837
248	0xbe7af483	-0.24507336
249	0x3e88192f	0.26581714
250	0x3de051ab	0.10953077
251	0xbe717388	-0.23579228
252	0xbbb5e256	-0.005550663
253	0xbe6a5656	-0.22884497
254	0xbe4b5fcb	-0.19860761
255	0x3e57a536	0.21059117

e2.0.pw.weight f4 [64, 32, 1, 1]
0	0xbdda0280	-0.10645008
1	0xbcfc50e1	-0.030800285
2	0xbdff934f	-0.12479269
3	0x3e200d04	0.15629965
4	0x3dd8061d	0.10548041
5	0x3dc19bad	0.09453521
6	0x3deccf31	0.11562956
7	0x3d2d300f	0.04228216
8	0x3da6ecd6	0.081506416
9	0xbdbe8461	-0.09302593
10	0x3deaab0d	0.114584066
11	0x3e318cd1	0.17338873
12	0xbd9050d1	-0.070466645
13	0x3d88e4dd	0.06684277
14	0x3c8d1e43	0.017226344
15	0xbd6d3b3c	-0.05791782
16	0x3dd9dddd	0.1063802
17	0x3e1d28f9	0.15347661
18	0xbd96d980	-0.073657036
19	0xbd69e934	-0.057107165
20	0x3e33321d	0.17499585
21	0x3e0d842b	0.1381995
22	0x3d2072e7	0.03917208
23	0xbe08f94b	-0.13376348
24	0x399baf5e	0.00029694563
25	0xbdb5f3d4	-0.08884397
26	0x3e293350	0.1652348
27	0xbd99dae6	-0.07512455
28	0x3db3fed3	0.08788838
29	0xbe16c5ee	-0.14723942
30	0x3da8c072	0.08239831
31	0x3df9a597	0.12189787
32	0x3e09e202	0.13465121
33	0x3d77dd82	0.06051398
34	0x3d745935	0.059655387
35	0xbe0fb9d5	-0.14035733
36	0x3cb9e7b0	0.022693485
37	0x3dc7896a	0.097430065
38	0x3d8a53e0	0.06754279
39	0xbcc75336	-0.02433167
40	0xbdef7973	-0.116930865
41	0xbe2127d7	-0.15737854
42	0x3daca183	0.084292434
43	0x3d7aff9c	0.061278924
44	0x3d604a7c	0.054758534
45	0xbdc6324d	-0.09677563
46	0x3dfbd97a	0.1229734
47	0xbddafce8	-0.10692769
48	0x3e2c9c36	0.16856465
49	0xbdb43720	-0.08799577
50	0xbe228444	-0.15870768
51	0xbe2257c1	-0.15853788
52	0xbda88d53	-0.082300805
53	0xbd175ce6	-0.03695383
54	0x3e34c3b9	0.17652787
55	0x3e0ebd5e	0.13939425
56	0x3d8ec0ac	0.06970343
57	0x3e1ee969	0.15518726
58	0xbe1c6d48	-0.15276062
59	0xbe2b12c3	-0.16706376
60	0xbe244909	-0.16043486
61	0x3de47558	0.11155194
62	0xbb983a11	-0.004645594
63	0xbdd94a25	-0.10609845
64	0xbe271578	-0.16316783
65	0x3e1e9e07	0.1548997
66	0x3db2a668	0.08723146
67	0x3d73bd83	0.059506904
68	0x3d0de0e5	0.034638304
69	0xbe1e5bbb	-0.1546468
70	0xbd926d74	-0.07149783
71	0xbe0a2b8b	-0.13493173
72	0xbe281982	-0.1641598
73	0x3e02950b	0.12752168
74	0x3d6b520d	0.057451297
75	0xbd983ec6	-0.07433848
76	0xbd1ca1a3	-0.038240086
77	0xbdd15f17	-0.10223215
78	0x3e107b78	0.141096
79	0xbcbcb9d2	-0.023037825
80	0xbd5a61ce	-0.05331593
81	0x3dfe3e79	0.124142595
82	0x3dcc1873	0.09965601
83	0x3d01b6b5	0.031668384
84	0xbdcf5879	-0.10124297
85	0xbdfbfb8d	-0.12303839
86	0x3c89d041	0.016822936
87	0x3bb66fb2	0.0055675143
88	0xbdfb22e0	-0.12262511
89	0x3db32d08	0.087488234
90	0xbcff7761	-0.031184854
91	0x3e2ef019	0.17083777
92	0xbd7d67eb	-0.061866682
93	0xbe2a5015	-0.16632111
94	0x3e133e93	0.14379339
95	0x3e15533f	0.14582537
96	0xbe00aa9e	-0.12565085
97	0x3e21f014	0.15814239
98	0x3dad3f8c	0.08459386
99	0x3bb2da0c	0.005458122
100	0x3e2fe422	0.1717687
101	0xbd4918c1	-0.049095873
102	0xbe3088fc	-0.17239755
103	0xbd1381d8	-0.0360125
104	0x3d67fb67	0.05663624
105	0x3d9bf006	0.0761414
106	0xbe26d601	-0.16292574
107	0xbe041d5f	-0.12901829
108	0x3d6cfc4d	0.0578578
109	0x3db575ec	0.088603824
110	0xbe0d9d5c	-0.13829559
111	0x3e2a7cce	0.16649172
112	0xbadf7f8b	-0.001705156
113	0xbb1a126a	-0.002350951
114	0xbe0e1037	-0.13873373
115	0xbe129a3a	-0.14316645
116	0x3d58f13a	0.052964427
117	0x3dbc3055	0.09188906
118	0xbd612320	-0.05496514
119	0xbd8e6b99	-0.069541164
120	0xbd6e8e01	-0.058240894
121	0xbb0ea9b6	-0.0021768636
122	0x3d2c8507	0.042119052
123	0xbc272f3a	-0.010204131
124	0xbdb6bd61	-0.0892284
125	0xbe241751	-0.1602452
126	0xbd8b4565	-0.06800345
127	0xbd3bd9ab	-0.04586188
128	0x3e2d4a66	0.16922912
129	0x3d925d39	0.07146687
130	0x3ddb79bb	0.107165776
131	0x3e1a8ff3	0.15093975
132	0x3da2f610	0.07957089
133	0xbe3269ce	-0.17423174
134	0x3e236022	0.1595464
135	0xbd610f53	-0.054946255
136	0x3d90a718	0.070631206
137	0x3dcad50f	0.09903919
138	0x3e0f316e	0.139837
139	0xbdce29da	-0.10066576
140	0x3e079b34	0.13242799
141	0xba7f2648	-0.00097331824
142	0xbd023df1	-0.031797353
143	0xbe252a6d	-0.16129465
144	0x3e278945	0.16360958
145	0x3d8e7182	0.06955244
146	0x3e1cd37c	0.1531505
147	0xbe05d665	-0.13070066
148	0x3d7e135f	0.062030192
149	0x3e1abe71	0.1511171
150	0x3caef4da	0.021356989
151	0x3e04502f	0.12921213
152	0xbe293a60	-0.16526175
153	0x3c8ed10b	0.017433664
154	0x3dad7b85	0.08470825
155	0xbdd05e20	-0.10174203
156	0x3d842260	0.06451869
157	0x3d081a88	0.033228427
158	0x3db1ec87	0.08687692
159	0x3caf7f44	0.02142299
160	0x3d709d71	0.058743898
161	0xbbade7f9	-0.0053071943
162	0x3d746551	0.059666935
163	0x3d00a8ae	0.031410865
164	0x3e24db15	0.16099198
165	0x3dbd8780	0.0925436
166	0x3df94fa8	0.12173396
167	0x3dd1f009	0.10250861
168	0xbe1b5f5a	-0.15173092
169	0x3df6ee8a	0.120572165
170	0x3df88cc2	0.121362224
171	0xbe09c41c	-0.13453716
172	0x3c29c8b4	0.010362793
173	0xbe2ea9ba	-0.17056933
174	0xbd088778	-0.033332318
175	0xbd019979	-0.031640504
176	0x3c14f4ad	0.009091538
177	0xbd5ee3e4	-0.054416552
178	0x3dac9e40	0.08428621
179	0xbc87e514	-0.016588725
180	0x3d3016b8	0.042990416
181	0xbd065e8f	-0.03280502
182	0x3d6500a7	0.055908825
183	0xbd463ffe	-0.04840087
184	0x3d51c3e6	0.051212214
185	0xbe038e2e	-0.12847206
186	0x3dd3e8ab	0.10347112
187	0x3e2f60e2	0.17126802
188	0x3db70490	0.08936417
189	0x3d56a1aa	0.05240027
190	0x3cd71777	0.026256306
191	0x3e26841f	0.16261338
192	0xbdb6f61f	-0.089336626
193	0x3c8a6e3f	0.016898273
194	0xbdb78c49	-0.08962304
195	0xbe16b1f0	-0.14716315
196	0x3e188d76	0.14897713
197	0xbdf5f885	-0.12010292
198	0x3c4381fd	0.011932847
199	0xbd084f30	-0.033278644
200	0xbe0d16c8	-0.13778222
201	0x3d836ce7	0.06417256
202	0xbdeae539	-0.11469502
203	0x3ce699a6	0.028149437
204	0xbda980a5	-0.0827649
205	0x3d7c7726	0.061637066
206	0x3e06c73c	0.1316194
207	0xbd8528cd	-0.06501923
208	0xbdda7fc8	-0.106689036
209	0x3d0a84d4	0.03381808
210	0xbd4ab258	-0.049486488
211	0x3e2388a0	0.15970087
212	0x3de21f76	0.11041157
213	0xbd3ad72d	-0.045615364
214	0x3c9ca089	0.019119518
215	0xbd7016e4	-0.05861558
216	0x3df5b35e	0.11997102
217	0xbd39c6c4	-0.045355573
218	0x3c765d98	0.015036963
219	0xbd3ad278	-0.045610875
220	0x3da24e34	0.07925072
221	0xbd8137cb	-0.0630947
222	0x3d351fb0	0.044219673
223	0x3de8b95f	0.11363482
224	0xbd4e0dae	-0.050306015
225	0xbe2febdd	-0.17179818
226	0xbe0fbcdf	-0.14036892
227	0x3e06077f	0.13088797
228	0x3bcebc1d	0.006309046
229	0xbdf2a626	-0.118480965
230	0x3d925e84	0.07146934
231	0x3dc91970	0.09819305
232	0x3d98507a	0.07437225
233	0x3d824bf9	0.06362147
234	0xbdd4833f	-0.10376596
235	0xbe112ab7	-0.1417645
236	0x3e09430c	0.13404483
237	0x3d929042	0.07156421
238	0x3e1cd221	0.15314533
239	0xbe27b1af	-0.16376375
240	0x3e09f9fd	0.13474269
241	0x3d2c49f6	0.042062722
242	0x3c12e177	0.008964888
243	0xbde63da3	-0.11242225
244	0x3d6b6a12	0.057474203
245	0xbdc23d35	-0.094843306
246	0x3e2c8200	0.16846466
247	0xbd7a0825	-0.061042923
248	0x3e04f7ed	0.12985201
249	0x3dd1ba08	0.10240561
250	0x3db56b67	0.08858376
251	0x3e12e30f	0.14344428
252	0x3d8fb423	0.0701678
253	0xbe00bd71	-0.12572266
254	0xbdcd9554	-0.10038248
255	0xbde73fb5	-0.11291448

e2.0.bn.weight f4 [64]
0	0x3f800000	1.0
1	0x3f800000	1.0
2	0x3f800000	1.0
3	0x3f800000	1.0
4	0x3f800000	1.0
5	0x3f800000	1.0
6	0x3f800000	1.0
7	0x3f800000	1.0
8	0x3f800000	1.0
9	0x3f800000	1.0
10	0x3f800000	1.0
11	0x3f800000	1.0
12	0x3f800000	1.0
13	0x3f800000	1.0
14	0x3f800000	1.0
15	0x3f800000	1.0
16	0x3f800000	1.0
17	0x3f800000	1.0
18	0x3f800000	1.0
19	0x3f800000	1.0
20	0x3f800000	1.0
21	0x3f800000	1.0
22	0x3f800000	1.0
23	0x3f800000	1.0
24	0x3f800000	1.0
25	0x3f800000	1.0
26	0x3f800000	1.0
27	0x3f800000	1.0
28	0x3f800000	1.0
29	0x3f800000	1.0
30	0x3f800000	1.0
31	0x3f800000	1.0
32	0x3f800000	1.0
33	0x3f800000	1.0
34	0x3f800000	1.0
35	0x3f800000	1.0
36	0x3f800000	1.0
37	0x3f800000	1.0
38	0x3f800000	1.0
39	0x3f800000	1.0
40	0x3f800000	1.0
41	0x3f800000	1.0
42	0x3f800000	1.0
43	0x3f800000	1.0
44	0x3f800000	1.0
45	0x3f800000	1.0
46	0x3f800000	1.0
47	0x3f800000	1.0
48	0x3f800000	1.0
49	0x3f800000	1.0
50	0x3f800000	1.0
51	0x3f800000	1.0
52	0x3f800000	1.0
53	0x3f800000	1.0
54	0x3f800000	1.0
55	0x3f800000	1.0
56	0x3f800000	1.0
57	0x3f800000	1.0
58	0x3f800000	1.0
59	0x3f800000	1.0
60	0x3f800000	1.0
61	0x3f800000	1.0
62	0x3f800000	1.0
63	0x3f800000	1.0

e2.0.bn.bias f4 [64]
0	0x00000000	0.0
1	0x00000000	0.0
2	0x00000000	0.0
3	0x00000000	0.0
4	0x00000000	0.0
5	0x00000000	0.0
6	0x00000000	0.0
7	0x00000000	0.0
8	0x00000000	0.0
9	0x00000000	0.0
10	0x00000000	0.0
11	0x00000000	0.0
12	0x00000000	0.0
13	0x00000000	0.0
14	0x00000000	0.0
15	0x00000000	0.0
16	0x00000000	0.0
17	0x00000000	0.0
18	0x00000000	0.0
19	0x00000000	0.0
20	0x00000000	0.0
21	0x00000000	0.0
22	0x00000000	0.0
23	0x00000000	0.0
24	0x00000000	0.0
25	0x00000000	0.0
26	0x00000000	0.0
27	0x00000000	0.0
28	0x00000000	0.0
29	0x00000000	0.0
30	0x00000000	0.0
31	0x00000000	0.0
32	0x00000000	0.0
33	0x00000000	0.0
34	0x00000000	0.0
35	0x00000000	0.0
36	0x00000000	0.0
37	0x00000000	0.0
38	0x00000000	0.0
39	0x00000000	0.0
40	0x00000000	0.0
41	0x00000000	0.0
42	0x00000000	0.0
43	0x00000000	0.0
44	0x00000000	0.0
45	0x00000000	0.0
46	0x00000000	0.0
47	0x00000000	0.0
48	0x00000000	0.0
49	0x00000000	0.0
50	0x00000000	0.0
51	0x00000000	0.0
52	0x00000000	0.0
53	0x00000000	0.0
54	0x00000000	0.0
55	0x00000000	0.0
56	0x00000000	0.0
57	0x00000000	0.0
58	0x00000000	0.0
59	0x00000000	0.0
60	0x00000000	0.0
61	0x00000000	0.0
62	0x00000000	0.0
63	0x00000000	0.0

e2.0.bn.running_mean f4 [64]
0	0xbe31b09d	-0.17352529
1	0xbda75596	-0.08170621
2	0xbe3c743e	-0.18403718
3	0xbd85d542	-0.06534816
4	0xbc2d4028	-0.010574378
5	0x3d569abb	0.052393656
6	0xbd521af4	-0.051295236
7	0xbe82555e	-0.25455755
8	0xbd9c613e	-0.07635735
9	0x3ea44b38	0.32088637
10	0xbe75f650	-0.24019742
11	0xbe033833	-0.12814407
12	0xbcafdee8	-0.021468595
13	0xbdfc4cfc	-0.12319371
14	0xbbcd1c5d	-0.0062594847
15	0xbe4181a8	-0.18897116
16	0xbd37b010	-0.04484564
17	0x3e1a3f39	0.1506318
18	0x3dc8200e	0.09771739
19	0xbda74370	-0.081671596
20	0x3dcd82d8	0.10034722
21	0x3e4e875e	0.20168826
22	0x3d443720	0.047904134
23	0x3df51a93	0.11967959
24	0x3c60a8b3	0.013712096
25	0x3dad65ee	0.08466707
26	0x3d9e7e74	0.07738963
27	0xbc3ab0cb	-0.01139469
28	0x3dd42aa3	0.10359695
29	0x3df22292	0.11823
30	0x3e3f44b2	0.18678549
31	0xbe9f1acc	-0.31075132
32	0xbdbfda45	-0.093678035
33	0xbdfe4f9c	-0.12417528
34	0x3d9753ea	0.07389052
35	0xbe17512f	-0.14777063
36	0xbe25c1a7	-0.16187154
37	0x3dd75377	0.105139665
38	0xbda94960	-0.08265948
39	0x3d321e37	0.043485846
40	0x3e77be41	0.2419367
41	0xbed9e32d	-0.42556134
42	0x3e0e129f	0.13874291
43	0xbe7a7c45	-0.24461468
44	0x3e687c63	0.227037
45	0xbe6fbbc0	-0.23411465
46	0x3d95faca	0.07323225
47	0x3dc872e1	0.097875364
48	0xbea8562a	-0.32878238
49	0xbe67c925	-0.22635324
50	0x3e1c6d2c	0.15276021
51	0xbd4a174b	-0.04933862
52	0xbd885e13	-0.06658568
53	0x3e7ae6d3	0.24502115
54	0xbe21af76	-0.1578959
55	0x3df7cb12	0.120992795
56	0x3e01edfa	0.12688437
57	0x3d050e2d	0.032484222
58	0xbd458776	-0.04822489
59	0x3ccb3b3b	0.024808517
60	0xbe3b54f7	-0.1829413
61	0x3d3a0d35	0.04542275
62	0xbd7af9d1	-0.0612734
63	0x3d278cb4	0.04090567

e2.0.bn.running_var f4 [64]
0	0x3cfb328e	0.030663755
1	0x3d2f35ef	0.042776044
2	0x3da36a99	0.07979316
3	0x3d8cfa27	0.0688365
4	0x3cce0c19	0.025152253
5	0x3ccd038e	0.02502611
6	0x3c6b359b	0.014356042
7	0x3d84635a	0.06464262
8	0x3d05ff84	0.03271438
9	0x3d259106	0.04042151
10	0x3ca233e2	0.01980013
11	0x3cdbb3a6	0.026819061
12	0x3d59f8ef	0.053215917
13	0x3ca66b11	0.020314725
14	0x3cf8e7f2	0.030384038
15	0x3d9b415b	0.07580825
16	0x3ce9035b	0.028443983
17	0x3da4e514	0.08051506
18	0x3cf91d7d	0.030409569
19	0x3cc89f0c	0.024489902
20	0x3d4082a1	0.046999577
21	0x3d286201	0.04110909
22	0x3cc93036	0.024559122
23	0x3cbecdb0	0.023291439
24	0x3cb00472	0.021486495
25	0x3d513cdc	0.05108343
26	0x3d011f0f	0.03152376
27	0x3c5e201e	0.013557462
28	0x3d45ea69	0.048319254
29	0x3d80a996	0.06282346
30	0x3de62561	0.11237598
31	0x3d16bbeb	0.036800306
32	0x3cb15912	0.021648917
33	0x3cfdbc3e	0.03097355
34	0x3d3aebae	0.045634918
35	0x3ce2720e	0.027642276
36	0x3d839007	0.064239554
37	0x3c9f20b4	0.019424774
38	0x3d90e023	0.07074001
39	0x3d58339e	0.0527836
40	0x3c9e49af	0.019322244
41	0x3d587e51	0.05285484
42	0x3d2d600d	0.04232793
43	0x3cdbf71e	0.026851233
44	0x3d4754b5	0.048664767
45	0x3ca13027	0.019676281
46	0x3ce7a13e	0.028275128
47	0x3d05c6ae	0.03266018
48	0x3d1396dc	0.036032543
49	0x3ce381eb	0.02777191
50	0x3d45a86c	0.048256323
51	0x3cc97704	0.024592884
52	0x3dc96c9b	0.09835168
53	0x3d14b75f	0.03630769
54	0x3d668ab8	0.056284636
55	0x3d219e5c	0.039457664
56	0x3d98adc0	0.07455015
57	0x3ce16bce	0.027517226
58	0x3d0b32f1	0.03398413
59	0x3d315b10	0.043299735
60	0x3d883146	0.06650023
61	0x3cfc826a	0.030823905
62	0x3cc3b5dd	0.02389043
63	0x3cc0a1fb	0.023514738
